…
I1023 21:58:06.654418 37954 net.cpp:313] The NetState phase (0) differed from the phase (1) specified by a rule in layer accuracy
I1023 21:58:06.655489 37954 net.cpp:49] Initializing net from parameters: 
name: "AlexNet"
state {
  phase: TRAIN
}
layer {
  name: "data"
  type: "Data"
  top: "data"
  top: "label"
  include {
    phase: TRAIN
  }
  transform_param {
    mirror: true
    crop_size: 227
    mean_file: "examples/imagenet/imagenet_mean.binaryproto"
  }
  data_param {
    source: "/work/03713/harshal1/maverick/vision_proj/data/train_lmdb"
    batch_size: 256
    backend: LMDB
  }
}
layer {
  name: "conv1"
  type: "Convolution"
  bottom: "data"
  top: "conv1"
  param {
    lr_mult: 0
    decay_mult: 0
  }
  param {
    lr_mult: 0
    decay_mult: 0
  }
  convolution_param {
    num_output: 96
    kernel_size: 11
    stride: 4
    weight_filler {
      type: "gaussian"
      std: 0.01
    }
    bias_filler {
      type: "constant"
      value: 0
    }
  }
}
layer {
  name: "relu1"
  type: "ReLU"
  bottom: "conv1"
  top: "conv1"
}
layer {
  name: "norm1"
  type: "LRN"
  bottom: "conv1"
  top: "norm1"
  lrn_param {
    local_size: 5
    alpha: 0.0001
    beta: 0.75
  }
}
layer {
  name: "pool1"
  type: "Pooling"
  bottom: "norm1"
  top: "pool1"
  pooling_param {
    pool: MAX
    kernel_size: 3
    stride: 2
  }
}
layer {
  name: "conv2"
  type: "Convolution"
  bottom: "pool1"
  top: "conv2"
  param {
    lr_mult: 0
    decay_mult: 0
  }
  param {
    lr_mult: 0
    decay_mult: 0
  }
  convolution_param {
    num_output: 256
    pad: 2
    kernel_size: 5
    group: 2
    weight_filler {
      type: "gaussian"
      std: 0.01
    }
    bias_filler {
      type: "constant"
      value: 0.1
    }
  }
}
layer {
  name: "relu2"
  type: "ReLU"
  bottom: "conv2"
  top: "conv2"
}
layer {
  name: "norm2"
  type: "LRN"
  bottom: "conv2"
  top: "norm2"
  lrn_param {
    local_size: 5
    alpha: 0.0001
    beta: 0.75
  }
}
layer {
  name: "pool2"
  type: "Pooling"
  bottom: "norm2"
  top: "pool2"
  pooling_param {
    pool: MAX
    kernel_size: 3
    stride: 2
  }
}
layer {
  name: "conv3"
  type: "Convolution"
  bottom: "pool2"
  top: "conv3"
  param {
    lr_mult: 0
    decay_mult: 0
  }
  param {
    lr_mult: 0
    decay_mult: 0
  }
  convolution_param {
    num_output: 384
    pad: 1
    kernel_size: 3
    weight_filler {
      type: "gaussian"
      std: 0.01
    }
    bias_filler {
      type: "constant"
      value: 0
    }
  }
}
layer {
  name: "relu3"
  type: "ReLU"
  bottom: "conv3"
  top: "conv3"
}
layer {
  name: "conv4"
  type: "Convolution"
  bottom: "conv3"
  top: "conv4"
  param {
    lr_mult: 0
    decay_mult: 0
  }
  param {
    lr_mult: 0
    decay_mult: 0
  }
  convolution_param {
    num_output: 384
    pad: 1
    kernel_size: 3
    group: 2
    weight_filler {
      type: "gaussian"
      std: 0.01
    }
    bias_filler {
      type: "constant"
      value: 0.1
    }
  }
}
layer {
  name: "relu4"
  type: "ReLU"
  bottom: "conv4"
  top: "conv4"
}
layer {
  name: "conv5"
  type: "Convolution"
  bottom: "conv4"
  top: "conv5"
  param {
    lr_mult: 0
    decay_mult: 0
  }
  param {
    lr_mult: 0
    decay_mult: 0
  }
  convolution_param {
    num_output: 256
    pad: 1
    kernel_size: 3
    group: 2
    weight_filler {
      type: "gaussian"
      std: 0.01
    }
    bias_filler {
      type: "constant"
      value: 0.1
    }
  }
}
layer {
  name: "relu5"
  type: "ReLU"
  bottom: "conv5"
  top: "conv5"
}
layer {
  name: "pool5"
  type: "Pooling"
  bottom: "conv5"
  top: "pool5"
  pooling_param {
    pool: MAX
    kernel_size: 3
    stride: 2
  }
}
layer {
  name: "fc6"
  type: "InnerProduct"
  bottom: "pool5"
  top: "fc6"
  param {
    lr_mult: 0
    decay_mult: 0
  }
  param {
    lr_mult: 0
    decay_mult: 0
  }
  inner_product_param {
    num_output: 4096
    weight_filler {
      type: "gaussian"
      std: 0.005
    }
    bias_filler {
      type: "constant"
      value: 0.1
    }
  }
}
layer {
  name: "relu6"
  type: "ReLU"
  bottom: "fc6"
  top: "fc6"
}
layer {
  name: "drop6"
  type: "Dropout"
  bottom: "fc6"
  top: "fc6"
  dropout_param {
    dropout_ratio: 0.5
  }
}
layer {
  name: "fc7"
  type: "InnerProduct"
  bottom: "fc6"
  top: "fc7"
  param {
    lr_mult: 0
    decay_mult: 0
  }
  param {
    lr_mult: 0
    decay_mult: 0
  }
  inner_product_param {
    num_output: 4096
    weight_filler {
      type: "gaussian"
      std: 0.005
    }
    bias_filler {
      type: "constant"
      value: 0.1
    }
  }
}
layer {
  name: "fc7_n"
  type: "L2Norm"
  bottom: "fc7"
  top: "fc7_n"
}
layer {
  name: "conv1_p"
  type: "Convolution"
  bottom: "data"
  top: "conv1_p"
  param {
    lr_mult: 1
    decay_mult: 1
  }
  param {
    lr_mult: 2
    decay_mult: 0
  }
  convolution_param {
    num_output: 96
    kernel_size: 11
    stride: 4
    weight_filler {
      type: "gaussian"
      std: 0.01
    }
    bias_filler {
      type: "constant"
      value: 0
    }
  }
}
layer {
  name: "relu1_p"
  type: "ReLU"
  bottom: "conv1_p"
  top: "conv1_p"
}
layer {
  name: "norm1_p"
  type: "LRN"
  bottom: "conv1_p"
  top: "norm1_p"
  lrn_param {
    local_size: 5
    alpha: 0.0001
    beta: 0.75
  }
}
layer {
  name: "pool1_p"
  type: "Pooling"
  bottom: "norm1_p"
  top: "pool1_p"
  pooling_param {
    pool: MAX
    kernel_size: 3
    stride: 2
  }
}
layer {
  name: "conv2_p"
  type: "Convolution"
  bottom: "pool1_p"
  top: "conv2_p"
  param {
    lr_mult: 1
    decay_mult: 1
  }
  param {
    lr_mult: 2
    decay_mult: 0
  }
  convolution_param {
    num_output: 256
    pad: 2
    kernel_size: 5
    group: 2
    weight_filler {
      type: "gaussian"
      std: 0.01
    }
    bias_filler {
      type: "constant"
      value: 0.1
    }
  }
}
layer {
  name: "relu2_p"
  type: "ReLU"
  bottom: "conv2_p"
  top: "conv2_p"
}
layer {
  name: "norm2_p"
  type: "LRN"
  bottom: "conv2_p"
  top: "norm2_p"
  lrn_param {
    local_size: 5
    alpha: 0.0001
    beta: 0.75
  }
}
layer {
  name: "pool2_p"
  type: "Pooling"
  bottom: "norm2_p"
  top: "pool2_p"
  pooling_param {
    pool: MAX
    kernel_size: 3
    stride: 2
  }
}
layer {
  name: "conv3_p"
  type: "Convolution"
  bottom: "pool2_p"
  top: "conv3_p"
  param {
    lr_mult: 1
    decay_mult: 1
  }
  param {
    lr_mult: 2
    decay_mult: 0
  }
  convolution_param {
    num_output: 384
    pad: 1
    kernel_size: 3
    weight_filler {
      type: "gaussian"
      std: 0.01
    }
    bias_filler {
      type: "constant"
      value: 0
    }
  }
}
layer {
  name: "relu3_p"
  type: "ReLU"
  bottom: "conv3_p"
  top: "conv3_p"
}
layer {
  name: "conv4_p"
  type: "Convolution"
  bottom: "conv3_p"
  top: "conv4_p"
  param {
    lr_mult: 1
    decay_mult: 1
  }
  param {
    lr_mult: 2
    decay_mult: 0
  }
  convolution_param {
    num_output: 384
    pad: 1
    kernel_size: 3
    group: 2
    weight_filler {
      type: "gaussian"
      std: 0.01
    }
    bias_filler {
      type: "constant"
      value: 0.1
    }
  }
}
layer {
  name: "relu4_p"
  type: "ReLU"
  bottom: "conv4_p"
  top: "conv4_p"
}
layer {
  name: "conv5_p"
  type: "Convolution"
  bottom: "conv4_p"
  top: "conv5_p"
  param {
    lr_mult: 1
    decay_mult: 1
  }
  param {
    lr_mult: 2
    decay_mult: 0
  }
  convolution_param {
    num_output: 256
    pad: 1
    kernel_size: 3
    group: 2
    weight_filler {
      type: "gaussian"
      std: 0.01
    }
    bias_filler {
      type: "constant"
      value: 0.1
    }
  }
}
layer {
  name: "relu5_p"
  type: "ReLU"
  bottom: "conv5_p"
  top: "conv5_p"
}
layer {
  name: "pool5_p"
  type: "Pooling"
  bottom: "conv5_p"
  top: "pool5_p"
  pooling_param {
    pool: MAX
    kernel_size: 3
    stride: 2
  }
}
layer {
  name: "fc6_p"
  type: "InnerProduct"
  bottom: "pool5_p"
  top: "fc6_p"
  param {
    lr_mult: 1
    decay_mult: 1
  }
  param {
    lr_mult: 2
    decay_mult: 0
  }
  inner_product_param {
    num_output: 4096
    weight_filler {
      type: "gaussian"
      std: 0.005
    }
    bias_filler {
      type: "constant"
      value: 0.1
    }
  }
}
layer {
  name: "relu6_p"
  type: "ReLU"
  bottom: "fc6_p"
  top: "fc6_p"
}
layer {
  name: "drop6_p"
  type: "Dropout"
  bottom: "fc6_p"
  top: "fc6_p"
  dropout_param {
    dropout_ratio: 0.5
  }
}
layer {
  name: "fc7_p"
  type: "InnerProduct"
  bottom: "fc6_p"
  top: "fc7_p"
  param {
    lr_mult: 1
    decay_mult: 1
  }
  param {
    lr_mult: 2
    decay_mult: 0
  }
  inner_product_param {
    num_output: 4096
    weight_filler {
      type: "gaussian"
      std: 0.005
    }
    bias_filler {
      type: "constant"
      value: 0.1
    }
  }
}
layer {
  name: "relu7_p"
  type: "ReLU"
  bottom: "fc7_p"
  top: "fc7_p"
}
layer {
  name: "drop7_p"
  type: "Dropout"
  bottom: "fc7_p"
  top: "fc7_p"
  dropout_param {
    dropout_ratio: 0.5
  }
}
layer {
  name: "fc8_p"
  type: "InnerProduct"
  bottom: "fc7_p"
  top: "fc8_p"
  param {
    lr_mult: 1
    decay_mult: 1
  }
  param {
    lr_mult: 2
    decay_mult: 0
  }
  inner_product_param {
    num_output: 504
    weight_filler {
      type: "gaussian"
      std: 0.01
    }
    bias_filler {
      type: "constant"
      value: 0
    }
  }
}
layer {
  name: "fc7_pn"
  type: "L2Norm"
  bottom: "fc7_p"
  top: "fc7_pn"
}
layer {
  name: "loss_p1"
  type: "EuclideanLoss"
  bottom: "fc7_n"
  bottom: "fc7_pn"
  top: "loss_p1"
  loss_weight: -0.35
}
layer {
  name: "loss_p2"
  type: "SoftmaxWithLoss"
  bottom: "fc8_p"
  bottom: "label"
  top: "loss_p2"
  loss_weight: 0.65
}
I1023 21:58:06.655886 37954 layer_factory.hpp:77] Creating layer data
I1023 21:58:06.656790 37954 net.cpp:91] Creating Layer data
I1023 21:58:06.656857 37954 net.cpp:399] data -> data
I1023 21:58:06.656950 37954 net.cpp:399] data -> label
I1023 21:58:06.656998 37954 data_transformer.cpp:25] Loading mean file from: examples/imagenet/imagenet_mean.binaryproto
I1023 21:58:06.668396 38065 db_lmdb.cpp:35] Opened lmdb /work/03713/harshal1/maverick/vision_proj/data/train_lmdb
I1023 21:58:06.680987 37954 data_layer.cpp:41] output data size: 256,3,227,227
I1023 21:58:06.989472 37954 net.cpp:141] Setting up data
I1023 21:58:06.989603 37954 net.cpp:148] Top shape: 256 3 227 227 (39574272)
I1023 21:58:06.989617 37954 net.cpp:148] Top shape: 256 (256)
I1023 21:58:06.989634 37954 net.cpp:156] Memory required for data: 158298112
I1023 21:58:06.989647 37954 layer_factory.hpp:77] Creating layer data_data_0_split
I1023 21:58:06.989693 37954 net.cpp:91] Creating Layer data_data_0_split
I1023 21:58:06.989724 37954 net.cpp:425] data_data_0_split <- data
I1023 21:58:06.989750 37954 net.cpp:399] data_data_0_split -> data_data_0_split_0
I1023 21:58:06.989776 37954 net.cpp:399] data_data_0_split -> data_data_0_split_1
I1023 21:58:06.989859 37954 net.cpp:141] Setting up data_data_0_split
I1023 21:58:06.989871 37954 net.cpp:148] Top shape: 256 3 227 227 (39574272)
I1023 21:58:06.989874 37954 net.cpp:148] Top shape: 256 3 227 227 (39574272)
I1023 21:58:06.989877 37954 net.cpp:156] Memory required for data: 474892288
I1023 21:58:06.989881 37954 layer_factory.hpp:77] Creating layer conv1
I1023 21:58:06.989936 37954 net.cpp:91] Creating Layer conv1
I1023 21:58:06.989945 37954 net.cpp:425] conv1 <- data_data_0_split_0
I1023 21:58:06.989953 37954 net.cpp:399] conv1 -> conv1
I1023 21:58:07.296790 37954 net.cpp:141] Setting up conv1
I1023 21:58:07.296834 37954 net.cpp:148] Top shape: 256 96 55 55 (74342400)
I1023 21:58:07.296839 37954 net.cpp:156] Memory required for data: 772261888
I1023 21:58:07.296916 37954 layer_factory.hpp:77] Creating layer relu1
I1023 21:58:07.296995 37954 net.cpp:91] Creating Layer relu1
I1023 21:58:07.297003 37954 net.cpp:425] relu1 <- conv1
I1023 21:58:07.297013 37954 net.cpp:386] relu1 -> conv1 (in-place)
I1023 21:58:07.297364 37954 net.cpp:141] Setting up relu1
I1023 21:58:07.297375 37954 net.cpp:148] Top shape: 256 96 55 55 (74342400)
I1023 21:58:07.297391 37954 net.cpp:156] Memory required for data: 1069631488
I1023 21:58:07.297394 37954 layer_factory.hpp:77] Creating layer norm1
I1023 21:58:07.297446 37954 net.cpp:91] Creating Layer norm1
I1023 21:58:07.297453 37954 net.cpp:425] norm1 <- conv1
I1023 21:58:07.297461 37954 net.cpp:399] norm1 -> norm1
I1023 21:58:07.297720 37954 net.cpp:141] Setting up norm1
I1023 21:58:07.297744 37954 net.cpp:148] Top shape: 256 96 55 55 (74342400)
I1023 21:58:07.297749 37954 net.cpp:156] Memory required for data: 1367001088
I1023 21:58:07.297751 37954 layer_factory.hpp:77] Creating layer pool1
I1023 21:58:07.297760 37954 net.cpp:91] Creating Layer pool1
I1023 21:58:07.297763 37954 net.cpp:425] pool1 <- norm1
I1023 21:58:07.297771 37954 net.cpp:399] pool1 -> pool1
I1023 21:58:07.297873 37954 net.cpp:141] Setting up pool1
I1023 21:58:07.297886 37954 net.cpp:148] Top shape: 256 96 27 27 (17915904)
I1023 21:58:07.297889 37954 net.cpp:156] Memory required for data: 1438664704
I1023 21:58:07.297894 37954 layer_factory.hpp:77] Creating layer conv2
I1023 21:58:07.297909 37954 net.cpp:91] Creating Layer conv2
I1023 21:58:07.297914 37954 net.cpp:425] conv2 <- pool1
I1023 21:58:07.297921 37954 net.cpp:399] conv2 -> conv2
I1023 21:58:07.304678 37954 net.cpp:141] Setting up conv2
I1023 21:58:07.304692 37954 net.cpp:148] Top shape: 256 256 27 27 (47775744)
I1023 21:58:07.304707 37954 net.cpp:156] Memory required for data: 1629767680
I1023 21:58:07.304715 37954 layer_factory.hpp:77] Creating layer relu2
I1023 21:58:07.304723 37954 net.cpp:91] Creating Layer relu2
I1023 21:58:07.304726 37954 net.cpp:425] relu2 <- conv2
I1023 21:58:07.304734 37954 net.cpp:386] relu2 -> conv2 (in-place)
I1023 21:58:07.304885 37954 net.cpp:141] Setting up relu2
I1023 21:58:07.304898 37954 net.cpp:148] Top shape: 256 256 27 27 (47775744)
I1023 21:58:07.304900 37954 net.cpp:156] Memory required for data: 1820870656
I1023 21:58:07.304903 37954 layer_factory.hpp:77] Creating layer norm2
I1023 21:58:07.304911 37954 net.cpp:91] Creating Layer norm2
I1023 21:58:07.304914 37954 net.cpp:425] norm2 <- conv2
I1023 21:58:07.304922 37954 net.cpp:399] norm2 -> norm2
I1023 21:58:07.305220 37954 net.cpp:141] Setting up norm2
I1023 21:58:07.305244 37954 net.cpp:148] Top shape: 256 256 27 27 (47775744)
I1023 21:58:07.305248 37954 net.cpp:156] Memory required for data: 2011973632
I1023 21:58:07.305250 37954 layer_factory.hpp:77] Creating layer pool2
I1023 21:58:07.305259 37954 net.cpp:91] Creating Layer pool2
I1023 21:58:07.305263 37954 net.cpp:425] pool2 <- norm2
I1023 21:58:07.305269 37954 net.cpp:399] pool2 -> pool2
I1023 21:58:07.305317 37954 net.cpp:141] Setting up pool2
I1023 21:58:07.305325 37954 net.cpp:148] Top shape: 256 256 13 13 (11075584)
I1023 21:58:07.305326 37954 net.cpp:156] Memory required for data: 2056275968
I1023 21:58:07.305330 37954 layer_factory.hpp:77] Creating layer conv3
I1023 21:58:07.305341 37954 net.cpp:91] Creating Layer conv3
I1023 21:58:07.305346 37954 net.cpp:425] conv3 <- pool2
I1023 21:58:07.305353 37954 net.cpp:399] conv3 -> conv3
I1023 21:58:07.329948 37954 net.cpp:141] Setting up conv3
I1023 21:58:07.329974 37954 net.cpp:148] Top shape: 256 384 13 13 (16613376)
I1023 21:58:07.329978 37954 net.cpp:156] Memory required for data: 2122729472
I1023 21:58:07.329988 37954 layer_factory.hpp:77] Creating layer relu3
I1023 21:58:07.329995 37954 net.cpp:91] Creating Layer relu3
I1023 21:58:07.329998 37954 net.cpp:425] relu3 <- conv3
I1023 21:58:07.330006 37954 net.cpp:386] relu3 -> conv3 (in-place)
I1023 21:58:07.330153 37954 net.cpp:141] Setting up relu3
I1023 21:58:07.330164 37954 net.cpp:148] Top shape: 256 384 13 13 (16613376)
I1023 21:58:07.330168 37954 net.cpp:156] Memory required for data: 2189182976
I1023 21:58:07.330171 37954 layer_factory.hpp:77] Creating layer conv4
I1023 21:58:07.330198 37954 net.cpp:91] Creating Layer conv4
I1023 21:58:07.330201 37954 net.cpp:425] conv4 <- conv3
I1023 21:58:07.330210 37954 net.cpp:399] conv4 -> conv4
I1023 21:58:07.341505 37954 net.cpp:141] Setting up conv4
I1023 21:58:07.341522 37954 net.cpp:148] Top shape: 256 384 13 13 (16613376)
I1023 21:58:07.341538 37954 net.cpp:156] Memory required for data: 2255636480
I1023 21:58:07.341545 37954 layer_factory.hpp:77] Creating layer relu4
I1023 21:58:07.341555 37954 net.cpp:91] Creating Layer relu4
I1023 21:58:07.341560 37954 net.cpp:425] relu4 <- conv4
I1023 21:58:07.341565 37954 net.cpp:386] relu4 -> conv4 (in-place)
I1023 21:58:07.341719 37954 net.cpp:141] Setting up relu4
I1023 21:58:07.341732 37954 net.cpp:148] Top shape: 256 384 13 13 (16613376)
I1023 21:58:07.341734 37954 net.cpp:156] Memory required for data: 2322089984
I1023 21:58:07.341738 37954 layer_factory.hpp:77] Creating layer conv5
I1023 21:58:07.341752 37954 net.cpp:91] Creating Layer conv5
I1023 21:58:07.341755 37954 net.cpp:425] conv5 <- conv4
I1023 21:58:07.341761 37954 net.cpp:399] conv5 -> conv5
I1023 21:58:07.350016 37954 net.cpp:141] Setting up conv5
I1023 21:58:07.350030 37954 net.cpp:148] Top shape: 256 256 13 13 (11075584)
I1023 21:58:07.350046 37954 net.cpp:156] Memory required for data: 2366392320
I1023 21:58:07.350057 37954 layer_factory.hpp:77] Creating layer relu5
I1023 21:58:07.350065 37954 net.cpp:91] Creating Layer relu5
I1023 21:58:07.350069 37954 net.cpp:425] relu5 <- conv5
I1023 21:58:07.350076 37954 net.cpp:386] relu5 -> conv5 (in-place)
I1023 21:58:07.350229 37954 net.cpp:141] Setting up relu5
I1023 21:58:07.350242 37954 net.cpp:148] Top shape: 256 256 13 13 (11075584)
I1023 21:58:07.350245 37954 net.cpp:156] Memory required for data: 2410694656
I1023 21:58:07.350250 37954 layer_factory.hpp:77] Creating layer pool5
I1023 21:58:07.350260 37954 net.cpp:91] Creating Layer pool5
I1023 21:58:07.350262 37954 net.cpp:425] pool5 <- conv5
I1023 21:58:07.350281 37954 net.cpp:399] pool5 -> pool5
I1023 21:58:07.350325 37954 net.cpp:141] Setting up pool5
I1023 21:58:07.350333 37954 net.cpp:148] Top shape: 256 256 6 6 (2359296)
I1023 21:58:07.350337 37954 net.cpp:156] Memory required for data: 2420131840
I1023 21:58:07.350340 37954 layer_factory.hpp:77] Creating layer fc6
I1023 21:58:07.350352 37954 net.cpp:91] Creating Layer fc6
I1023 21:58:07.350355 37954 net.cpp:425] fc6 <- pool5
I1023 21:58:07.350363 37954 net.cpp:399] fc6 -> fc6
I1023 21:58:07.888516 37954 net.cpp:141] Setting up fc6
I1023 21:58:07.888561 37954 net.cpp:148] Top shape: 256 4096 (1048576)
I1023 21:58:07.888566 37954 net.cpp:156] Memory required for data: 2424326144
I1023 21:58:07.888576 37954 layer_factory.hpp:77] Creating layer relu6
I1023 21:58:07.888588 37954 net.cpp:91] Creating Layer relu6
I1023 21:58:07.888593 37954 net.cpp:425] relu6 <- fc6
I1023 21:58:07.888600 37954 net.cpp:386] relu6 -> fc6 (in-place)
I1023 21:58:07.889051 37954 net.cpp:141] Setting up relu6
I1023 21:58:07.889062 37954 net.cpp:148] Top shape: 256 4096 (1048576)
I1023 21:58:07.889065 37954 net.cpp:156] Memory required for data: 2428520448
I1023 21:58:07.889070 37954 layer_factory.hpp:77] Creating layer drop6
I1023 21:58:07.889153 37954 net.cpp:91] Creating Layer drop6
I1023 21:58:07.889161 37954 net.cpp:425] drop6 <- fc6
I1023 21:58:07.889170 37954 net.cpp:386] drop6 -> fc6 (in-place)
I1023 21:58:07.889238 37954 net.cpp:141] Setting up drop6
I1023 21:58:07.889247 37954 net.cpp:148] Top shape: 256 4096 (1048576)
I1023 21:58:07.889250 37954 net.cpp:156] Memory required for data: 2432714752
I1023 21:58:07.889253 37954 layer_factory.hpp:77] Creating layer fc7
I1023 21:58:07.889266 37954 net.cpp:91] Creating Layer fc7
I1023 21:58:07.889269 37954 net.cpp:425] fc7 <- fc6
I1023 21:58:07.889276 37954 net.cpp:399] fc7 -> fc7
I1023 21:58:08.123859 37954 net.cpp:141] Setting up fc7
I1023 21:58:08.123909 37954 net.cpp:148] Top shape: 256 4096 (1048576)
I1023 21:58:08.123914 37954 net.cpp:156] Memory required for data: 2436909056
I1023 21:58:08.123925 37954 layer_factory.hpp:77] Creating layer fc7_n
I1023 21:58:08.124040 37954 net.cpp:91] Creating Layer fc7_n
I1023 21:58:08.124047 37954 net.cpp:425] fc7_n <- fc7
I1023 21:58:08.124056 37954 net.cpp:399] fc7_n -> fc7_n
I1023 21:58:08.124092 37954 net.cpp:141] Setting up fc7_n
I1023 21:58:08.124101 37954 net.cpp:148] Top shape: 256 4096 (1048576)
I1023 21:58:08.124104 37954 net.cpp:156] Memory required for data: 2441103360
I1023 21:58:08.124109 37954 layer_factory.hpp:77] Creating layer conv1_p
I1023 21:58:08.124121 37954 net.cpp:91] Creating Layer conv1_p
I1023 21:58:08.124125 37954 net.cpp:425] conv1_p <- data_data_0_split_1
I1023 21:58:08.124132 37954 net.cpp:399] conv1_p -> conv1_p
I1023 21:58:08.125790 37954 net.cpp:141] Setting up conv1_p
I1023 21:58:08.125802 37954 net.cpp:148] Top shape: 256 96 55 55 (74342400)
I1023 21:58:08.125807 37954 net.cpp:156] Memory required for data: 2738472960
I1023 21:58:08.125813 37954 layer_factory.hpp:77] Creating layer relu1_p
I1023 21:58:08.125819 37954 net.cpp:91] Creating Layer relu1_p
I1023 21:58:08.125823 37954 net.cpp:425] relu1_p <- conv1_p
I1023 21:58:08.125830 37954 net.cpp:386] relu1_p -> conv1_p (in-place)
I1023 21:58:08.125979 37954 net.cpp:141] Setting up relu1_p
I1023 21:58:08.125989 37954 net.cpp:148] Top shape: 256 96 55 55 (74342400)
I1023 21:58:08.125994 37954 net.cpp:156] Memory required for data: 3035842560
I1023 21:58:08.125998 37954 layer_factory.hpp:77] Creating layer norm1_p
I1023 21:58:08.126005 37954 net.cpp:91] Creating Layer norm1_p
I1023 21:58:08.126009 37954 net.cpp:425] norm1_p <- conv1_p
I1023 21:58:08.126014 37954 net.cpp:399] norm1_p -> norm1_p
I1023 21:58:08.126317 37954 net.cpp:141] Setting up norm1_p
I1023 21:58:08.126327 37954 net.cpp:148] Top shape: 256 96 55 55 (74342400)
I1023 21:58:08.126330 37954 net.cpp:156] Memory required for data: 3333212160
I1023 21:58:08.126333 37954 layer_factory.hpp:77] Creating layer pool1_p
I1023 21:58:08.126340 37954 net.cpp:91] Creating Layer pool1_p
I1023 21:58:08.126344 37954 net.cpp:425] pool1_p <- norm1_p
I1023 21:58:08.126350 37954 net.cpp:399] pool1_p -> pool1_p
I1023 21:58:08.126399 37954 net.cpp:141] Setting up pool1_p
I1023 21:58:08.126405 37954 net.cpp:148] Top shape: 256 96 27 27 (17915904)
I1023 21:58:08.126408 37954 net.cpp:156] Memory required for data: 3404875776
I1023 21:58:08.126411 37954 layer_factory.hpp:77] Creating layer conv2_p
I1023 21:58:08.126425 37954 net.cpp:91] Creating Layer conv2_p
I1023 21:58:08.126428 37954 net.cpp:425] conv2_p <- pool1_p
I1023 21:58:08.126433 37954 net.cpp:399] conv2_p -> conv2_p
I1023 21:58:08.132150 37954 net.cpp:141] Setting up conv2_p
I1023 21:58:08.132161 37954 net.cpp:148] Top shape: 256 256 27 27 (47775744)
I1023 21:58:08.132176 37954 net.cpp:156] Memory required for data: 3595978752
I1023 21:58:08.132186 37954 layer_factory.hpp:77] Creating layer relu2_p
I1023 21:58:08.132195 37954 net.cpp:91] Creating Layer relu2_p
I1023 21:58:08.132200 37954 net.cpp:425] relu2_p <- conv2_p
I1023 21:58:08.132205 37954 net.cpp:386] relu2_p -> conv2_p (in-place)
I1023 21:58:08.132458 37954 net.cpp:141] Setting up relu2_p
I1023 21:58:08.132470 37954 net.cpp:148] Top shape: 256 256 27 27 (47775744)
I1023 21:58:08.132473 37954 net.cpp:156] Memory required for data: 3787081728
I1023 21:58:08.132477 37954 layer_factory.hpp:77] Creating layer norm2_p
I1023 21:58:08.132484 37954 net.cpp:91] Creating Layer norm2_p
I1023 21:58:08.132488 37954 net.cpp:425] norm2_p <- conv2_p
I1023 21:58:08.132494 37954 net.cpp:399] norm2_p -> norm2_p
I1023 21:58:08.132679 37954 net.cpp:141] Setting up norm2_p
I1023 21:58:08.132701 37954 net.cpp:148] Top shape: 256 256 27 27 (47775744)
I1023 21:58:08.132705 37954 net.cpp:156] Memory required for data: 3978184704
I1023 21:58:08.132709 37954 layer_factory.hpp:77] Creating layer pool2_p
I1023 21:58:08.132717 37954 net.cpp:91] Creating Layer pool2_p
I1023 21:58:08.132721 37954 net.cpp:425] pool2_p <- norm2_p
I1023 21:58:08.132726 37954 net.cpp:399] pool2_p -> pool2_p
I1023 21:58:08.132764 37954 net.cpp:141] Setting up pool2_p
I1023 21:58:08.132771 37954 net.cpp:148] Top shape: 256 256 13 13 (11075584)
I1023 21:58:08.132791 37954 net.cpp:156] Memory required for data: 4022487040
I1023 21:58:08.132794 37954 layer_factory.hpp:77] Creating layer conv3_p
I1023 21:58:08.132807 37954 net.cpp:91] Creating Layer conv3_p
I1023 21:58:08.132812 37954 net.cpp:425] conv3_p <- pool2_p
I1023 21:58:08.132819 37954 net.cpp:399] conv3_p -> conv3_p
I1023 21:58:08.146144 37954 net.cpp:141] Setting up conv3_p
I1023 21:58:08.146155 37954 net.cpp:148] Top shape: 256 384 13 13 (16613376)
I1023 21:58:08.146170 37954 net.cpp:156] Memory required for data: 4088940544
I1023 21:58:08.146176 37954 layer_factory.hpp:77] Creating layer relu3_p
I1023 21:58:08.146186 37954 net.cpp:91] Creating Layer relu3_p
I1023 21:58:08.146190 37954 net.cpp:425] relu3_p <- conv3_p
I1023 21:58:08.146195 37954 net.cpp:386] relu3_p -> conv3_p (in-place)
I1023 21:58:08.146450 37954 net.cpp:141] Setting up relu3_p
I1023 21:58:08.146461 37954 net.cpp:148] Top shape: 256 384 13 13 (16613376)
I1023 21:58:08.146463 37954 net.cpp:156] Memory required for data: 4155394048
I1023 21:58:08.146467 37954 layer_factory.hpp:77] Creating layer conv4_p
I1023 21:58:08.146483 37954 net.cpp:91] Creating Layer conv4_p
I1023 21:58:08.146488 37954 net.cpp:425] conv4_p <- conv3_p
I1023 21:58:08.146494 37954 net.cpp:399] conv4_p -> conv4_p
I1023 21:58:08.157302 37954 net.cpp:141] Setting up conv4_p
I1023 21:58:08.157328 37954 net.cpp:148] Top shape: 256 384 13 13 (16613376)
I1023 21:58:08.157332 37954 net.cpp:156] Memory required for data: 4221847552
I1023 21:58:08.157338 37954 layer_factory.hpp:77] Creating layer relu4_p
I1023 21:58:08.157346 37954 net.cpp:91] Creating Layer relu4_p
I1023 21:58:08.157348 37954 net.cpp:425] relu4_p <- conv4_p
I1023 21:58:08.157353 37954 net.cpp:386] relu4_p -> conv4_p (in-place)
I1023 21:58:08.157604 37954 net.cpp:141] Setting up relu4_p
I1023 21:58:08.157620 37954 net.cpp:148] Top shape: 256 384 13 13 (16613376)
I1023 21:58:08.157624 37954 net.cpp:156] Memory required for data: 4288301056
I1023 21:58:08.157640 37954 layer_factory.hpp:77] Creating layer conv5_p
I1023 21:58:08.157652 37954 net.cpp:91] Creating Layer conv5_p
I1023 21:58:08.157657 37954 net.cpp:425] conv5_p <- conv4_p
I1023 21:58:08.157663 37954 net.cpp:399] conv5_p -> conv5_p
I1023 21:58:08.165331 37954 net.cpp:141] Setting up conv5_p
I1023 21:58:08.165356 37954 net.cpp:148] Top shape: 256 256 13 13 (11075584)
I1023 21:58:08.165360 37954 net.cpp:156] Memory required for data: 4332603392
I1023 21:58:08.165366 37954 layer_factory.hpp:77] Creating layer relu5_p
I1023 21:58:08.165372 37954 net.cpp:91] Creating Layer relu5_p
I1023 21:58:08.165376 37954 net.cpp:425] relu5_p <- conv5_p
I1023 21:58:08.165381 37954 net.cpp:386] relu5_p -> conv5_p (in-place)
I1023 21:58:08.165643 37954 net.cpp:141] Setting up relu5_p
I1023 21:58:08.165653 37954 net.cpp:148] Top shape: 256 256 13 13 (11075584)
I1023 21:58:08.165657 37954 net.cpp:156] Memory required for data: 4376905728
I1023 21:58:08.165660 37954 layer_factory.hpp:77] Creating layer pool5_p
I1023 21:58:08.165668 37954 net.cpp:91] Creating Layer pool5_p
I1023 21:58:08.165671 37954 net.cpp:425] pool5_p <- conv5_p
I1023 21:58:08.165678 37954 net.cpp:399] pool5_p -> pool5_p
I1023 21:58:08.165733 37954 net.cpp:141] Setting up pool5_p
I1023 21:58:08.165745 37954 net.cpp:148] Top shape: 256 256 6 6 (2359296)
I1023 21:58:08.165747 37954 net.cpp:156] Memory required for data: 4386342912
I1023 21:58:08.165750 37954 layer_factory.hpp:77] Creating layer fc6_p
I1023 21:58:08.165771 37954 net.cpp:91] Creating Layer fc6_p
I1023 21:58:08.165776 37954 net.cpp:425] fc6_p <- pool5_p
I1023 21:58:08.165782 37954 net.cpp:399] fc6_p -> fc6_p
I1023 21:58:08.698952 37954 net.cpp:141] Setting up fc6_p
I1023 21:58:08.698997 37954 net.cpp:148] Top shape: 256 4096 (1048576)
I1023 21:58:08.699002 37954 net.cpp:156] Memory required for data: 4390537216
I1023 21:58:08.699012 37954 layer_factory.hpp:77] Creating layer relu6_p
I1023 21:58:08.699026 37954 net.cpp:91] Creating Layer relu6_p
I1023 21:58:08.699031 37954 net.cpp:425] relu6_p <- fc6_p
I1023 21:58:08.699076 37954 net.cpp:386] relu6_p -> fc6_p (in-place)
I1023 21:58:08.699549 37954 net.cpp:141] Setting up relu6_p
I1023 21:58:08.699571 37954 net.cpp:148] Top shape: 256 4096 (1048576)
I1023 21:58:08.699574 37954 net.cpp:156] Memory required for data: 4394731520
I1023 21:58:08.699579 37954 layer_factory.hpp:77] Creating layer drop6_p
I1023 21:58:08.699589 37954 net.cpp:91] Creating Layer drop6_p
I1023 21:58:08.699594 37954 net.cpp:425] drop6_p <- fc6_p
I1023 21:58:08.699597 37954 net.cpp:386] drop6_p -> fc6_p (in-place)
I1023 21:58:08.699625 37954 net.cpp:141] Setting up drop6_p
I1023 21:58:08.699633 37954 net.cpp:148] Top shape: 256 4096 (1048576)
I1023 21:58:08.699636 37954 net.cpp:156] Memory required for data: 4398925824
I1023 21:58:08.699640 37954 layer_factory.hpp:77] Creating layer fc7_p
I1023 21:58:08.699650 37954 net.cpp:91] Creating Layer fc7_p
I1023 21:58:08.699652 37954 net.cpp:425] fc7_p <- fc6_p
I1023 21:58:08.699659 37954 net.cpp:399] fc7_p -> fc7_p
I1023 21:58:08.935555 37954 net.cpp:141] Setting up fc7_p
I1023 21:58:08.935603 37954 net.cpp:148] Top shape: 256 4096 (1048576)
I1023 21:58:08.935611 37954 net.cpp:156] Memory required for data: 4403120128
I1023 21:58:08.935621 37954 layer_factory.hpp:77] Creating layer relu7_p
I1023 21:58:08.935633 37954 net.cpp:91] Creating Layer relu7_p
I1023 21:58:08.935638 37954 net.cpp:425] relu7_p <- fc7_p
I1023 21:58:08.935647 37954 net.cpp:386] relu7_p -> fc7_p (in-place)
I1023 21:58:08.935881 37954 net.cpp:141] Setting up relu7_p
I1023 21:58:08.935890 37954 net.cpp:148] Top shape: 256 4096 (1048576)
I1023 21:58:08.935894 37954 net.cpp:156] Memory required for data: 4407314432
I1023 21:58:08.935897 37954 layer_factory.hpp:77] Creating layer drop7_p
I1023 21:58:08.935907 37954 net.cpp:91] Creating Layer drop7_p
I1023 21:58:08.935911 37954 net.cpp:425] drop7_p <- fc7_p
I1023 21:58:08.935916 37954 net.cpp:386] drop7_p -> fc7_p (in-place)
I1023 21:58:08.935940 37954 net.cpp:141] Setting up drop7_p
I1023 21:58:08.935948 37954 net.cpp:148] Top shape: 256 4096 (1048576)
I1023 21:58:08.935951 37954 net.cpp:156] Memory required for data: 4411508736
I1023 21:58:08.935956 37954 layer_factory.hpp:77] Creating layer fc7_p_drop7_p_0_split
I1023 21:58:08.935961 37954 net.cpp:91] Creating Layer fc7_p_drop7_p_0_split
I1023 21:58:08.935977 37954 net.cpp:425] fc7_p_drop7_p_0_split <- fc7_p
I1023 21:58:08.935982 37954 net.cpp:399] fc7_p_drop7_p_0_split -> fc7_p_drop7_p_0_split_0
I1023 21:58:08.935991 37954 net.cpp:399] fc7_p_drop7_p_0_split -> fc7_p_drop7_p_0_split_1
I1023 21:58:08.936028 37954 net.cpp:141] Setting up fc7_p_drop7_p_0_split
I1023 21:58:08.936035 37954 net.cpp:148] Top shape: 256 4096 (1048576)
I1023 21:58:08.936038 37954 net.cpp:148] Top shape: 256 4096 (1048576)
I1023 21:58:08.936041 37954 net.cpp:156] Memory required for data: 4419897344
I1023 21:58:08.936044 37954 layer_factory.hpp:77] Creating layer fc8_p
I1023 21:58:08.936055 37954 net.cpp:91] Creating Layer fc8_p
I1023 21:58:08.936059 37954 net.cpp:425] fc8_p <- fc7_p_drop7_p_0_split_0
I1023 21:58:08.936064 37954 net.cpp:399] fc8_p -> fc8_p
I1023 21:58:08.964948 37954 net.cpp:141] Setting up fc8_p
I1023 21:58:08.964972 37954 net.cpp:148] Top shape: 256 504 (129024)
I1023 21:58:08.964975 37954 net.cpp:156] Memory required for data: 4420413440
I1023 21:58:08.964982 37954 layer_factory.hpp:77] Creating layer fc7_pn
I1023 21:58:08.964990 37954 net.cpp:91] Creating Layer fc7_pn
I1023 21:58:08.964994 37954 net.cpp:425] fc7_pn <- fc7_p_drop7_p_0_split_1
I1023 21:58:08.964999 37954 net.cpp:399] fc7_pn -> fc7_pn
I1023 21:58:08.965028 37954 net.cpp:141] Setting up fc7_pn
I1023 21:58:08.965034 37954 net.cpp:148] Top shape: 256 4096 (1048576)
I1023 21:58:08.965037 37954 net.cpp:156] Memory required for data: 4424607744
I1023 21:58:08.965040 37954 layer_factory.hpp:77] Creating layer loss_p1
I1023 21:58:08.965097 37954 net.cpp:91] Creating Layer loss_p1
I1023 21:58:08.965106 37954 net.cpp:425] loss_p1 <- fc7_n
I1023 21:58:08.965111 37954 net.cpp:425] loss_p1 <- fc7_pn
I1023 21:58:08.965116 37954 net.cpp:399] loss_p1 -> loss_p1
…
I1023 21:58:08.970448 37954 net.cpp:313] The NetState phase (1) differed from the phase (0) specified by a rule in layer data
I1023 21:58:08.971549 37954 net.cpp:49] Initializing net from parameters: 
name: "AlexNet"
state {
  phase: TEST
}
layer {
  name: "data"
  type: "Data"
  top: "data"
  top: "label"
  include {
    phase: TEST
  }
  transform_param {
    mirror: false
    crop_size: 227
    mean_file: "examples/imagenet/imagenet_mean.binaryproto"
  }
  data_param {
    source: "/work/03713/harshal1/maverick/vision_proj/data/val_lmdb"
    batch_size: 50
    backend: LMDB
  }
}
layer {
  name: "conv1"
  type: "Convolution"
  bottom: "data"
  top: "conv1"
  param {
    lr_mult: 0
    decay_mult: 0
  }
  param {
    lr_mult: 0
    decay_mult: 0
  }
  convolution_param {
    num_output: 96
    kernel_size: 11
    stride: 4
    weight_filler {
      type: "gaussian"
      std: 0.01
    }
    bias_filler {
      type: "constant"
      value: 0
    }
  }
}
layer {
  name: "relu1"
  type: "ReLU"
  bottom: "conv1"
  top: "conv1"
}
layer {
  name: "norm1"
  type: "LRN"
  bottom: "conv1"
  top: "norm1"
  lrn_param {
    local_size: 5
    alpha: 0.0001
    beta: 0.75
  }
}
layer {
  name: "pool1"
  type: "Pooling"
  bottom: "norm1"
  top: "pool1"
  pooling_param {
    pool: MAX
    kernel_size: 3
    stride: 2
  }
}
layer {
  name: "conv2"
  type: "Convolution"
  bottom: "pool1"
  top: "conv2"
  param {
    lr_mult: 0
    decay_mult: 0
  }
  param {
    lr_mult: 0
    decay_mult: 0
  }
  convolution_param {
    num_output: 256
    pad: 2
    kernel_size: 5
    group: 2
    weight_filler {
      type: "gaussian"
      std: 0.01
    }
    bias_filler {
      type: "constant"
      value: 0.1
    }
  }
}
layer {
  name: "relu2"
  type: "ReLU"
  bottom: "conv2"
  top: "conv2"
}
layer {
  name: "norm2"
  type: "LRN"
  bottom: "conv2"
  top: "norm2"
  lrn_param {
    local_size: 5
    alpha: 0.0001
    beta: 0.75
  }
}
layer {
  name: "pool2"
  type: "Pooling"
  bottom: "norm2"
  top: "pool2"
  pooling_param {
    pool: MAX
    kernel_size: 3
    stride: 2
  }
}
layer {
  name: "conv3"
  type: "Convolution"
  bottom: "pool2"
  top: "conv3"
  param {
    lr_mult: 0
    decay_mult: 0
  }
  param {
    lr_mult: 0
    decay_mult: 0
  }
  convolution_param {
    num_output: 384
    pad: 1
    kernel_size: 3
    weight_filler {
      type: "gaussian"
      std: 0.01
    }
    bias_filler {
      type: "constant"
      value: 0
    }
  }
}
layer {
  name: "relu3"
  type: "ReLU"
  bottom: "conv3"
  top: "conv3"
}
layer {
  name: "conv4"
  type: "Convolution"
  bottom: "conv3"
  top: "conv4"
  param {
    lr_mult: 0
    decay_mult: 0
  }
  param {
    lr_mult: 0
    decay_mult: 0
  }
  convolution_param {
    num_output: 384
    pad: 1
    kernel_size: 3
    group: 2
    weight_filler {
      type: "gaussian"
      std: 0.01
    }
    bias_filler {
      type: "constant"
      value: 0.1
    }
  }
}
layer {
  name: "relu4"
  type: "ReLU"
  bottom: "conv4"
  top: "conv4"
}
layer {
  name: "conv5"
  type: "Convolution"
  bottom: "conv4"
  top: "conv5"
  param {
    lr_mult: 0
    decay_mult: 0
  }
  param {
    lr_mult: 0
    decay_mult: 0
  }
  convolution_param {
    num_output: 256
    pad: 1
    kernel_size: 3
    group: 2
    weight_filler {
      type: "gaussian"
      std: 0.01
    }
    bias_filler {
      type: "constant"
      value: 0.1
    }
  }
}
layer {
  name: "relu5"
  type: "ReLU"
  bottom: "conv5"
  top: "conv5"
}
layer {
  name: "pool5"
  type: "Pooling"
  bottom: "conv5"
  top: "pool5"
  pooling_param {
    pool: MAX
    kernel_size: 3
    stride: 2
  }
}
layer {
  name: "fc6"
  type: "InnerProduct"
  bottom: "pool5"
  top: "fc6"
  param {
    lr_mult: 0
    decay_mult: 0
  }
  param {
    lr_mult: 0
    decay_mult: 0
  }
  inner_product_param {
    num_output: 4096
    weight_filler {
      type: "gaussian"
      std: 0.005
    }
    bias_filler {
      type: "constant"
      value: 0.1
    }
  }
}
layer {
  name: "relu6"
  type: "ReLU"
  bottom: "fc6"
  top: "fc6"
}
layer {
  name: "drop6"
  type: "Dropout"
  bottom: "fc6"
  top: "fc6"
  dropout_param {
    dropout_ratio: 0.5
  }
}
layer {
  name: "fc7"
  type: "InnerProduct"
  bottom: "fc6"
  top: "fc7"
  param {
    lr_mult: 0
    decay_mult: 0
  }
  param {
    lr_mult: 0
    decay_mult: 0
  }
  inner_product_param {
    num_output: 4096
    weight_filler {
      type: "gaussian"
      std: 0.005
    }
    bias_filler {
      type: "constant"
      value: 0.1
    }
  }
}
layer {
  name: "fc7_n"
  type: "L2Norm"
  bottom: "fc7"
  top: "fc7_n"
}
layer {
  name: "conv1_p"
  type: "Convolution"
  bottom: "data"
  top: "conv1_p"
  param {
    lr_mult: 1
    decay_mult: 1
  }
  param {
    lr_mult: 2
    decay_mult: 0
  }
  convolution_param {
    num_output: 96
    kernel_size: 11
    stride: 4
    weight_filler {
      type: "gaussian"
      std: 0.01
    }
    bias_filler {
      type: "constant"
      value: 0
    }
  }
}
layer {
  name: "relu1_p"
  type: "ReLU"
  bottom: "conv1_p"
  top: "conv1_p"
}
layer {
  name: "norm1_p"
  type: "LRN"
  bottom: "conv1_p"
  top: "norm1_p"
  lrn_param {
    local_size: 5
    alpha: 0.0001
    beta: 0.75
  }
}
layer {
  name: "pool1_p"
  type: "Pooling"
  bottom: "norm1_p"
  top: "pool1_p"
  pooling_param {
    pool: MAX
    kernel_size: 3
    stride: 2
  }
}
layer {
  name: "conv2_p"
  type: "Convolution"
  bottom: "pool1_p"
  top: "conv2_p"
  param {
    lr_mult: 1
    decay_mult: 1
  }
  param {
    lr_mult: 2
    decay_mult: 0
  }
  convolution_param {
    num_output: 256
    pad: 2
    kernel_size: 5
    group: 2
    weight_filler {
      type: "gaussian"
      std: 0.01
    }
    bias_filler {
      type: "constant"
      value: 0.1
    }
  }
}
layer {
  name: "relu2_p"
  type: "ReLU"
  bottom: "conv2_p"
  top: "conv2_p"
}
layer {
  name: "norm2_p"
  type: "LRN"
  bottom: "conv2_p"
  top: "norm2_p"
  lrn_param {
    local_size: 5
    alpha: 0.0001
    beta: 0.75
  }
}
layer {
  name: "pool2_p"
  type: "Pooling"
  bottom: "norm2_p"
  top: "pool2_p"
  pooling_param {
    pool: MAX
    kernel_size: 3
    stride: 2
  }
}
layer {
  name: "conv3_p"
  type: "Convolution"
  bottom: "pool2_p"
  top: "conv3_p"
  param {
    lr_mult: 1
    decay_mult: 1
  }
  param {
    lr_mult: 2
    decay_mult: 0
  }
  convolution_param {
    num_output: 384
    pad: 1
    kernel_size: 3
    weight_filler {
      type: "gaussian"
      std: 0.01
    }
    bias_filler {
      type: "constant"
      value: 0
    }
  }
}
layer {
  name: "relu3_p"
  type: "ReLU"
  bottom: "conv3_p"
  top: "conv3_p"
}
layer {
  name: "conv4_p"
  type: "Convolution"
  bottom: "conv3_p"
  top: "conv4_p"
  param {
    lr_mult: 1
    decay_mult: 1
  }
  param {
    lr_mult: 2
    decay_mult: 0
  }
  convolution_param {
    num_output: 384
    pad: 1
    kernel_size: 3
    group: 2
    weight_filler {
      type: "gaussian"
      std: 0.01
    }
    bias_filler {
      type: "constant"
      value: 0.1
    }
  }
}
layer {
  name: "relu4_p"
  type: "ReLU"
  bottom: "conv4_p"
  top: "conv4_p"
}
layer {
  name: "conv5_p"
  type: "Convolution"
  bottom: "conv4_p"
  top: "conv5_p"
  param {
    lr_mult: 1
    decay_mult: 1
  }
  param {
    lr_mult: 2
    decay_mult: 0
  }
  convolution_param {
    num_output: 256
    pad: 1
    kernel_size: 3
    group: 2
    weight_filler {
      type: "gaussian"
      std: 0.01
    }
    bias_filler {
      type: "constant"
      value: 0.1
    }
  }
}
layer {
  name: "relu5_p"
  type: "ReLU"
  bottom: "conv5_p"
  top: "conv5_p"
}
layer {
  name: "pool5_p"
  type: "Pooling"
  bottom: "conv5_p"
  top: "pool5_p"
  pooling_param {
    pool: MAX
    kernel_size: 3
    stride: 2
  }
}
layer {
  name: "fc6_p"
  type: "InnerProduct"
  bottom: "pool5_p"
  top: "fc6_p"
  param {
    lr_mult: 1
    decay_mult: 1
  }
  param {
    lr_mult: 2
    decay_mult: 0
  }
  inner_product_param {
    num_output: 4096
    weight_filler {
      type: "gaussian"
      std: 0.005
    }
    bias_filler {
      type: "constant"
      value: 0.1
    }
  }
}
layer {
  name: "relu6_p"
  type: "ReLU"
  bottom: "fc6_p"
  top: "fc6_p"
}
layer {
  name: "drop6_p"
  type: "Dropout"
  bottom: "fc6_p"
  top: "fc6_p"
  dropout_param {
    dropout_ratio: 0.5
  }
}
layer {
  name: "fc7_p"
  type: "InnerProduct"
  bottom: "fc6_p"
  top: "fc7_p"
  param {
    lr_mult: 1
    decay_mult: 1
  }
  param {
    lr_mult: 2
    decay_mult: 0
  }
  inner_product_param {
    num_output: 4096
    weight_filler {
      type: "gaussian"
      std: 0.005
    }
    bias_filler {
      type: "constant"
      value: 0.1
    }
  }
}
layer {
  name: "relu7_p"
  type: "ReLU"
  bottom: "fc7_p"
  top: "fc7_p"
}
layer {
  name: "drop7_p"
  type: "Dropout"
  bottom: "fc7_p"
  top: "fc7_p"
  dropout_param {
    dropout_ratio: 0.5
  }
}
layer {
  name: "fc8_p"
  type: "InnerProduct"
  bottom: "fc7_p"
  top: "fc8_p"
  param {
    lr_mult: 1
    decay_mult: 1
  }
  param {
    lr_mult: 2
    decay_mult: 0
  }
  inner_product_param {
    num_output: 504
    weight_filler {
      type: "gaussian"
      std: 0.01
    }
    bias_filler {
      type: "constant"
      value: 0
    }
  }
}
layer {
  name: "accuracy"
  type: "Accuracy"
  bottom: "fc8_p"
  bottom: "label"
  top: "accuracy"
  include {
    phase: TEST
  }
}
layer {
  name: "fc7_pn"
  type: "L2Norm"
  bottom: "fc7_p"
  top: "fc7_pn"
}
layer {
  name: "loss_p1"
  type: "EuclideanLoss"
  bottom: "fc7_n"
  bottom: "fc7_pn"
  top: "loss_p1"
  loss_weight: -0.35
}
layer {
  name: "loss_p2"
  type: "SoftmaxWithLoss"
  bottom: "fc8_p"
  bottom: "label"
  top: "loss_p2"
  loss_weight: 0.65
}
I1023 21:58:08.971768 37954 layer_factory.hpp:77] Creating layer data
I1023 21:58:08.971909 37954 net.cpp:91] Creating Layer data
I1023 21:58:08.971917 37954 net.cpp:399] data -> data
I1023 21:58:08.971931 37954 net.cpp:399] data -> label
I1023 21:58:08.971952 37954 data_transformer.cpp:25] Loading mean file from: examples/imagenet/imagenet_mean.binaryproto
I1023 21:58:08.983469 38067 db_lmdb.cpp:35] Opened lmdb /work/03713/harshal1/maverick/vision_proj/data/val_lmdb
I1023 21:58:08.984741 37954 data_layer.cpp:41] output data size: 50,3,227,227
I1023 21:58:09.042963 37954 net.cpp:141] Setting up data
I1023 21:58:09.042996 37954 net.cpp:148] Top shape: 50 3 227 227 (7729350)
I1023 21:58:09.043002 37954 net.cpp:148] Top shape: 50 (50)
I1023 21:58:09.043005 37954 net.cpp:156] Memory required for data: 30917600
I1023 21:58:09.043025 37954 layer_factory.hpp:77] Creating layer data_data_0_split
I1023 21:58:09.043042 37954 net.cpp:91] Creating Layer data_data_0_split
I1023 21:58:09.043047 37954 net.cpp:425] data_data_0_split <- data
I1023 21:58:09.043056 37954 net.cpp:399] data_data_0_split -> data_data_0_split_0
I1023 21:58:09.043068 37954 net.cpp:399] data_data_0_split -> data_data_0_split_1
I1023 21:58:09.043164 37954 net.cpp:141] Setting up data_data_0_split
I1023 21:58:09.043172 37954 net.cpp:148] Top shape: 50 3 227 227 (7729350)
I1023 21:58:09.043177 37954 net.cpp:148] Top shape: 50 3 227 227 (7729350)
I1023 21:58:09.043179 37954 net.cpp:156] Memory required for data: 92752400
I1023 21:58:09.043184 37954 layer_factory.hpp:77] Creating layer label_data_1_split
I1023 21:58:09.043193 37954 net.cpp:91] Creating Layer label_data_1_split
I1023 21:58:09.043238 37954 net.cpp:425] label_data_1_split <- label
I1023 21:58:09.043246 37954 net.cpp:399] label_data_1_split -> label_data_1_split_0
I1023 21:58:09.043252 37954 net.cpp:399] label_data_1_split -> label_data_1_split_1
I1023 21:58:09.043296 37954 net.cpp:141] Setting up label_data_1_split
I1023 21:58:09.043306 37954 net.cpp:148] Top shape: 50 (50)
I1023 21:58:09.043310 37954 net.cpp:148] Top shape: 50 (50)
I1023 21:58:09.043313 37954 net.cpp:156] Memory required for data: 92752800
I1023 21:58:09.043316 37954 layer_factory.hpp:77] Creating layer conv1
I1023 21:58:09.043331 37954 net.cpp:91] Creating Layer conv1
I1023 21:58:09.043335 37954 net.cpp:425] conv1 <- data_data_0_split_0
I1023 21:58:09.043342 37954 net.cpp:399] conv1 -> conv1
I1023 21:58:09.047790 37954 net.cpp:141] Setting up conv1
I1023 21:58:09.047814 37954 net.cpp:148] Top shape: 50 96 55 55 (14520000)
I1023 21:58:09.047818 37954 net.cpp:156] Memory required for data: 150832800
I1023 21:58:09.047830 37954 layer_factory.hpp:77] Creating layer relu1
I1023 21:58:09.047839 37954 net.cpp:91] Creating Layer relu1
I1023 21:58:09.047843 37954 net.cpp:425] relu1 <- conv1
I1023 21:58:09.047848 37954 net.cpp:386] relu1 -> conv1 (in-place)
I1023 21:58:09.048115 37954 net.cpp:141] Setting up relu1
I1023 21:58:09.048125 37954 net.cpp:148] Top shape: 50 96 55 55 (14520000)
I1023 21:58:09.048130 37954 net.cpp:156] Memory required for data: 208912800
I1023 21:58:09.048133 37954 layer_factory.hpp:77] Creating layer norm1
I1023 21:58:09.048142 37954 net.cpp:91] Creating Layer norm1
I1023 21:58:09.048146 37954 net.cpp:425] norm1 <- conv1
I1023 21:58:09.048152 37954 net.cpp:399] norm1 -> norm1
I1023 21:58:09.048444 37954 net.cpp:141] Setting up norm1
I1023 21:58:09.048467 37954 net.cpp:148] Top shape: 50 96 55 55 (14520000)
I1023 21:58:09.048470 37954 net.cpp:156] Memory required for data: 266992800
I1023 21:58:09.048475 37954 layer_factory.hpp:77] Creating layer pool1
I1023 21:58:09.048482 37954 net.cpp:91] Creating Layer pool1
I1023 21:58:09.048485 37954 net.cpp:425] pool1 <- norm1
I1023 21:58:09.048491 37954 net.cpp:399] pool1 -> pool1
I1023 21:58:09.048547 37954 net.cpp:141] Setting up pool1
I1023 21:58:09.048553 37954 net.cpp:148] Top shape: 50 96 27 27 (3499200)
I1023 21:58:09.048557 37954 net.cpp:156] Memory required for data: 280989600
I1023 21:58:09.048559 37954 layer_factory.hpp:77] Creating layer conv2
I1023 21:58:09.048570 37954 net.cpp:91] Creating Layer conv2
I1023 21:58:09.048574 37954 net.cpp:425] conv2 <- pool1
I1023 21:58:09.048581 37954 net.cpp:399] conv2 -> conv2
I1023 21:58:09.054791 37954 net.cpp:141] Setting up conv2
I1023 21:58:09.054817 37954 net.cpp:148] Top shape: 50 256 27 27 (9331200)
I1023 21:58:09.054821 37954 net.cpp:156] Memory required for data: 318314400
I1023 21:58:09.054831 37954 layer_factory.hpp:77] Creating layer relu2
I1023 21:58:09.054839 37954 net.cpp:91] Creating Layer relu2
I1023 21:58:09.054843 37954 net.cpp:425] relu2 <- conv2
I1023 21:58:09.054849 37954 net.cpp:386] relu2 -> conv2 (in-place)
I1023 21:58:09.055124 37954 net.cpp:141] Setting up relu2
I1023 21:58:09.055136 37954 net.cpp:148] Top shape: 50 256 27 27 (9331200)
I1023 21:58:09.055140 37954 net.cpp:156] Memory required for data: 355639200
I1023 21:58:09.055143 37954 layer_factory.hpp:77] Creating layer norm2
I1023 21:58:09.055151 37954 net.cpp:91] Creating Layer norm2
I1023 21:58:09.055155 37954 net.cpp:425] norm2 <- conv2
I1023 21:58:09.055161 37954 net.cpp:399] norm2 -> norm2
I1023 21:58:09.055348 37954 net.cpp:141] Setting up norm2
I1023 21:58:09.055361 37954 net.cpp:148] Top shape: 50 256 27 27 (9331200)
I1023 21:58:09.055364 37954 net.cpp:156] Memory required for data: 392964000
I1023 21:58:09.055368 37954 layer_factory.hpp:77] Creating layer pool2
I1023 21:58:09.055375 37954 net.cpp:91] Creating Layer pool2
I1023 21:58:09.055379 37954 net.cpp:425] pool2 <- norm2
I1023 21:58:09.055385 37954 net.cpp:399] pool2 -> pool2
I1023 21:58:09.055428 37954 net.cpp:141] Setting up pool2
I1023 21:58:09.055435 37954 net.cpp:148] Top shape: 50 256 13 13 (2163200)
I1023 21:58:09.055454 37954 net.cpp:156] Memory required for data: 401616800
I1023 21:58:09.055459 37954 layer_factory.hpp:77] Creating layer conv3
I1023 21:58:09.055469 37954 net.cpp:91] Creating Layer conv3
I1023 21:58:09.055474 37954 net.cpp:425] conv3 <- pool2
I1023 21:58:09.055481 37954 net.cpp:399] conv3 -> conv3
I1023 21:58:09.070246 37954 net.cpp:141] Setting up conv3
I1023 21:58:09.070287 37954 net.cpp:148] Top shape: 50 384 13 13 (3244800)
I1023 21:58:09.070292 37954 net.cpp:156] Memory required for data: 414596000
I1023 21:58:09.070307 37954 layer_factory.hpp:77] Creating layer relu3
I1023 21:58:09.070319 37954 net.cpp:91] Creating Layer relu3
I1023 21:58:09.070324 37954 net.cpp:425] relu3 <- conv3
I1023 21:58:09.070333 37954 net.cpp:386] relu3 -> conv3 (in-place)
I1023 21:58:09.070616 37954 net.cpp:141] Setting up relu3
I1023 21:58:09.070627 37954 net.cpp:148] Top shape: 50 384 13 13 (3244800)
I1023 21:58:09.070631 37954 net.cpp:156] Memory required for data: 427575200
I1023 21:58:09.070636 37954 layer_factory.hpp:77] Creating layer conv4
I1023 21:58:09.070662 37954 net.cpp:91] Creating Layer conv4
I1023 21:58:09.070665 37954 net.cpp:425] conv4 <- conv3
I1023 21:58:09.070673 37954 net.cpp:399] conv4 -> conv4
I1023 21:58:09.082355 37954 net.cpp:141] Setting up conv4
I1023 21:58:09.082382 37954 net.cpp:148] Top shape: 50 384 13 13 (3244800)
I1023 21:58:09.082386 37954 net.cpp:156] Memory required for data: 440554400
I1023 21:58:09.082393 37954 layer_factory.hpp:77] Creating layer relu4
I1023 21:58:09.082401 37954 net.cpp:91] Creating Layer relu4
I1023 21:58:09.082406 37954 net.cpp:425] relu4 <- conv4
I1023 21:58:09.082412 37954 net.cpp:386] relu4 -> conv4 (in-place)
I1023 21:58:09.082705 37954 net.cpp:141] Setting up relu4
I1023 21:58:09.082717 37954 net.cpp:148] Top shape: 50 384 13 13 (3244800)
I1023 21:58:09.082721 37954 net.cpp:156] Memory required for data: 453533600
I1023 21:58:09.082726 37954 layer_factory.hpp:77] Creating layer conv5
I1023 21:58:09.082737 37954 net.cpp:91] Creating Layer conv5
I1023 21:58:09.082741 37954 net.cpp:425] conv5 <- conv4
I1023 21:58:09.082749 37954 net.cpp:399] conv5 -> conv5
I1023 21:58:09.091084 37954 net.cpp:141] Setting up conv5
I1023 21:58:09.091099 37954 net.cpp:148] Top shape: 50 256 13 13 (2163200)
I1023 21:58:09.091115 37954 net.cpp:156] Memory required for data: 462186400
I1023 21:58:09.091127 37954 layer_factory.hpp:77] Creating layer relu5
I1023 21:58:09.091138 37954 net.cpp:91] Creating Layer relu5
I1023 21:58:09.091142 37954 net.cpp:425] relu5 <- conv5
I1023 21:58:09.091148 37954 net.cpp:386] relu5 -> conv5 (in-place)
I1023 21:58:09.091414 37954 net.cpp:141] Setting up relu5
I1023 21:58:09.091425 37954 net.cpp:148] Top shape: 50 256 13 13 (2163200)
I1023 21:58:09.091429 37954 net.cpp:156] Memory required for data: 470839200
I1023 21:58:09.091433 37954 layer_factory.hpp:77] Creating layer pool5
I1023 21:58:09.091441 37954 net.cpp:91] Creating Layer pool5
I1023 21:58:09.091445 37954 net.cpp:425] pool5 <- conv5
I1023 21:58:09.091452 37954 net.cpp:399] pool5 -> pool5
I1023 21:58:09.091501 37954 net.cpp:141] Setting up pool5
I1023 21:58:09.091509 37954 net.cpp:148] Top shape: 50 256 6 6 (460800)
I1023 21:58:09.091512 37954 net.cpp:156] Memory required for data: 472682400
I1023 21:58:09.091516 37954 layer_factory.hpp:77] Creating layer fc6
I1023 21:58:09.091526 37954 net.cpp:91] Creating Layer fc6
I1023 21:58:09.091531 37954 net.cpp:425] fc6 <- pool5
I1023 21:58:09.091536 37954 net.cpp:399] fc6 -> fc6
I1023 21:58:09.627846 37954 net.cpp:141] Setting up fc6
I1023 21:58:09.627893 37954 net.cpp:148] Top shape: 50 4096 (204800)
I1023 21:58:09.627897 37954 net.cpp:156] Memory required for data: 473501600
I1023 21:58:09.627907 37954 layer_factory.hpp:77] Creating layer relu6
I1023 21:58:09.627920 37954 net.cpp:91] Creating Layer relu6
I1023 21:58:09.627926 37954 net.cpp:425] relu6 <- fc6
I1023 21:58:09.627934 37954 net.cpp:386] relu6 -> fc6 (in-place)
I1023 21:58:09.628154 37954 net.cpp:141] Setting up relu6
I1023 21:58:09.628162 37954 net.cpp:148] Top shape: 50 4096 (204800)
I1023 21:58:09.628201 37954 net.cpp:156] Memory required for data: 474320800
I1023 21:58:09.628204 37954 layer_factory.hpp:77] Creating layer drop6
I1023 21:58:09.628214 37954 net.cpp:91] Creating Layer drop6
I1023 21:58:09.628217 37954 net.cpp:425] drop6 <- fc6
I1023 21:58:09.628223 37954 net.cpp:386] drop6 -> fc6 (in-place)
I1023 21:58:09.628257 37954 net.cpp:141] Setting up drop6
I1023 21:58:09.628263 37954 net.cpp:148] Top shape: 50 4096 (204800)
I1023 21:58:09.628267 37954 net.cpp:156] Memory required for data: 475140000
I1023 21:58:09.628269 37954 layer_factory.hpp:77] Creating layer fc7
I1023 21:58:09.628279 37954 net.cpp:91] Creating Layer fc7
I1023 21:58:09.628283 37954 net.cpp:425] fc7 <- fc6
I1023 21:58:09.628288 37954 net.cpp:399] fc7 -> fc7
I1023 21:58:09.864272 37954 net.cpp:141] Setting up fc7
I1023 21:58:09.864317 37954 net.cpp:148] Top shape: 50 4096 (204800)
I1023 21:58:09.864321 37954 net.cpp:156] Memory required for data: 475959200
I1023 21:58:09.864331 37954 layer_factory.hpp:77] Creating layer fc7_n
I1023 21:58:09.864343 37954 net.cpp:91] Creating Layer fc7_n
I1023 21:58:09.864348 37954 net.cpp:425] fc7_n <- fc7
I1023 21:58:09.864357 37954 net.cpp:399] fc7_n -> fc7_n
I1023 21:58:09.864393 37954 net.cpp:141] Setting up fc7_n
I1023 21:58:09.864400 37954 net.cpp:148] Top shape: 50 4096 (204800)
I1023 21:58:09.864403 37954 net.cpp:156] Memory required for data: 476778400
I1023 21:58:09.864406 37954 layer_factory.hpp:77] Creating layer conv1_p
I1023 21:58:09.864420 37954 net.cpp:91] Creating Layer conv1_p
I1023 21:58:09.864424 37954 net.cpp:425] conv1_p <- data_data_0_split_1
I1023 21:58:09.864431 37954 net.cpp:399] conv1_p -> conv1_p
I1023 21:58:09.866075 37954 net.cpp:141] Setting up conv1_p
I1023 21:58:09.866099 37954 net.cpp:148] Top shape: 50 96 55 55 (14520000)
I1023 21:58:09.866102 37954 net.cpp:156] Memory required for data: 534858400
I1023 21:58:09.866108 37954 layer_factory.hpp:77] Creating layer relu1_p
I1023 21:58:09.866117 37954 net.cpp:91] Creating Layer relu1_p
I1023 21:58:09.866122 37954 net.cpp:425] relu1_p <- conv1_p
I1023 21:58:09.866127 37954 net.cpp:386] relu1_p -> conv1_p (in-place)
I1023 21:58:09.866384 37954 net.cpp:141] Setting up relu1_p
I1023 21:58:09.866394 37954 net.cpp:148] Top shape: 50 96 55 55 (14520000)
I1023 21:58:09.866396 37954 net.cpp:156] Memory required for data: 592938400
I1023 21:58:09.866400 37954 layer_factory.hpp:77] Creating layer norm1_p
I1023 21:58:09.866410 37954 net.cpp:91] Creating Layer norm1_p
I1023 21:58:09.866413 37954 net.cpp:425] norm1_p <- conv1_p
I1023 21:58:09.866420 37954 net.cpp:399] norm1_p -> norm1_p
I1023 21:58:09.866593 37954 net.cpp:141] Setting up norm1_p
I1023 21:58:09.866603 37954 net.cpp:148] Top shape: 50 96 55 55 (14520000)
I1023 21:58:09.866610 37954 net.cpp:156] Memory required for data: 651018400
I1023 21:58:09.866614 37954 layer_factory.hpp:77] Creating layer pool1_p
I1023 21:58:09.866634 37954 net.cpp:91] Creating Layer pool1_p
I1023 21:58:09.866638 37954 net.cpp:425] pool1_p <- norm1_p
I1023 21:58:09.866644 37954 net.cpp:399] pool1_p -> pool1_p
I1023 21:58:09.866688 37954 net.cpp:141] Setting up pool1_p
I1023 21:58:09.866696 37954 net.cpp:148] Top shape: 50 96 27 27 (3499200)
I1023 21:58:09.866699 37954 net.cpp:156] Memory required for data: 665015200
I1023 21:58:09.866703 37954 layer_factory.hpp:77] Creating layer conv2_p
I1023 21:58:09.866714 37954 net.cpp:91] Creating Layer conv2_p
I1023 21:58:09.866729 37954 net.cpp:425] conv2_p <- pool1_p
I1023 21:58:09.866736 37954 net.cpp:399] conv2_p -> conv2_p
I1023 21:58:09.872711 37954 net.cpp:141] Setting up conv2_p
I1023 21:58:09.872723 37954 net.cpp:148] Top shape: 50 256 27 27 (9331200)
I1023 21:58:09.872740 37954 net.cpp:156] Memory required for data: 702340000
I1023 21:58:09.872752 37954 layer_factory.hpp:77] Creating layer relu2_p
I1023 21:58:09.872759 37954 net.cpp:91] Creating Layer relu2_p
I1023 21:58:09.872763 37954 net.cpp:425] relu2_p <- conv2_p
I1023 21:58:09.872769 37954 net.cpp:386] relu2_p -> conv2_p (in-place)
I1023 21:58:09.872930 37954 net.cpp:141] Setting up relu2_p
I1023 21:58:09.872973 37954 net.cpp:148] Top shape: 50 256 27 27 (9331200)
I1023 21:58:09.872977 37954 net.cpp:156] Memory required for data: 739664800
I1023 21:58:09.872980 37954 layer_factory.hpp:77] Creating layer norm2_p
I1023 21:58:09.872987 37954 net.cpp:91] Creating Layer norm2_p
I1023 21:58:09.872990 37954 net.cpp:425] norm2_p <- conv2_p
I1023 21:58:09.872997 37954 net.cpp:399] norm2_p -> norm2_p
I1023 21:58:09.873291 37954 net.cpp:141] Setting up norm2_p
I1023 21:58:09.873301 37954 net.cpp:148] Top shape: 50 256 27 27 (9331200)
I1023 21:58:09.873303 37954 net.cpp:156] Memory required for data: 776989600
I1023 21:58:09.873306 37954 layer_factory.hpp:77] Creating layer pool2_p
I1023 21:58:09.873316 37954 net.cpp:91] Creating Layer pool2_p
I1023 21:58:09.873319 37954 net.cpp:425] pool2_p <- norm2_p
I1023 21:58:09.873325 37954 net.cpp:399] pool2_p -> pool2_p
I1023 21:58:09.873368 37954 net.cpp:141] Setting up pool2_p
I1023 21:58:09.873376 37954 net.cpp:148] Top shape: 50 256 13 13 (2163200)
I1023 21:58:09.873379 37954 net.cpp:156] Memory required for data: 785642400
I1023 21:58:09.873383 37954 layer_factory.hpp:77] Creating layer conv3_p
I1023 21:58:09.873392 37954 net.cpp:91] Creating Layer conv3_p
I1023 21:58:09.873395 37954 net.cpp:425] conv3_p <- pool2_p
I1023 21:58:09.873404 37954 net.cpp:399] conv3_p -> conv3_p
I1023 21:58:09.886890 37954 net.cpp:141] Setting up conv3_p
I1023 21:58:09.886915 37954 net.cpp:148] Top shape: 50 384 13 13 (3244800)
I1023 21:58:09.886919 37954 net.cpp:156] Memory required for data: 798621600
I1023 21:58:09.886925 37954 layer_factory.hpp:77] Creating layer relu3_p
I1023 21:58:09.886937 37954 net.cpp:91] Creating Layer relu3_p
I1023 21:58:09.886941 37954 net.cpp:425] relu3_p <- conv3_p
I1023 21:58:09.886946 37954 net.cpp:386] relu3_p -> conv3_p (in-place)
I1023 21:58:09.887097 37954 net.cpp:141] Setting up relu3_p
I1023 21:58:09.887106 37954 net.cpp:148] Top shape: 50 384 13 13 (3244800)
I1023 21:58:09.887109 37954 net.cpp:156] Memory required for data: 811600800
I1023 21:58:09.887112 37954 layer_factory.hpp:77] Creating layer conv4_p
I1023 21:58:09.887125 37954 net.cpp:91] Creating Layer conv4_p
I1023 21:58:09.887130 37954 net.cpp:425] conv4_p <- conv3_p
I1023 21:58:09.887135 37954 net.cpp:399] conv4_p -> conv4_p
I1023 21:58:09.898105 37954 net.cpp:141] Setting up conv4_p
I1023 21:58:09.898116 37954 net.cpp:148] Top shape: 50 384 13 13 (3244800)
I1023 21:58:09.898133 37954 net.cpp:156] Memory required for data: 824580000
I1023 21:58:09.898138 37954 layer_factory.hpp:77] Creating layer relu4_p
I1023 21:58:09.898147 37954 net.cpp:91] Creating Layer relu4_p
I1023 21:58:09.898151 37954 net.cpp:425] relu4_p <- conv4_p
I1023 21:58:09.898156 37954 net.cpp:386] relu4_p -> conv4_p (in-place)
I1023 21:58:09.898311 37954 net.cpp:141] Setting up relu4_p
I1023 21:58:09.898321 37954 net.cpp:148] Top shape: 50 384 13 13 (3244800)
I1023 21:58:09.898324 37954 net.cpp:156] Memory required for data: 837559200
I1023 21:58:09.898327 37954 layer_factory.hpp:77] Creating layer conv5_p
I1023 21:58:09.898339 37954 net.cpp:91] Creating Layer conv5_p
I1023 21:58:09.898342 37954 net.cpp:425] conv5_p <- conv4_p
I1023 21:58:09.898350 37954 net.cpp:399] conv5_p -> conv5_p
I1023 21:58:09.906211 37954 net.cpp:141] Setting up conv5_p
I1023 21:58:09.906234 37954 net.cpp:148] Top shape: 50 256 13 13 (2163200)
I1023 21:58:09.906239 37954 net.cpp:156] Memory required for data: 846212000
I1023 21:58:09.906244 37954 layer_factory.hpp:77] Creating layer relu5_p
I1023 21:58:09.906252 37954 net.cpp:91] Creating Layer relu5_p
I1023 21:58:09.906256 37954 net.cpp:425] relu5_p <- conv5_p
I1023 21:58:09.906261 37954 net.cpp:386] relu5_p -> conv5_p (in-place)
I1023 21:58:09.906415 37954 net.cpp:141] Setting up relu5_p
I1023 21:58:09.906424 37954 net.cpp:148] Top shape: 50 256 13 13 (2163200)
I1023 21:58:09.906427 37954 net.cpp:156] Memory required for data: 854864800
I1023 21:58:09.906430 37954 layer_factory.hpp:77] Creating layer pool5_p
I1023 21:58:09.906436 37954 net.cpp:91] Creating Layer pool5_p
I1023 21:58:09.906453 37954 net.cpp:425] pool5_p <- conv5_p
I1023 21:58:09.906461 37954 net.cpp:399] pool5_p -> pool5_p
I1023 21:58:09.906508 37954 net.cpp:141] Setting up pool5_p
I1023 21:58:09.906517 37954 net.cpp:148] Top shape: 50 256 6 6 (460800)
I1023 21:58:09.906519 37954 net.cpp:156] Memory required for data: 856708000
I1023 21:58:09.906522 37954 layer_factory.hpp:77] Creating layer fc6_p
I1023 21:58:09.906534 37954 net.cpp:91] Creating Layer fc6_p
I1023 21:58:09.906538 37954 net.cpp:425] fc6_p <- pool5_p
I1023 21:58:09.906544 37954 net.cpp:399] fc6_p -> fc6_p
I1023 21:58:10.438700 37954 net.cpp:141] Setting up fc6_p
I1023 21:58:10.438745 37954 net.cpp:148] Top shape: 50 4096 (204800)
I1023 21:58:10.438750 37954 net.cpp:156] Memory required for data: 857527200
I1023 21:58:10.438761 37954 layer_factory.hpp:77] Creating layer relu6_p
I1023 21:58:10.438776 37954 net.cpp:91] Creating Layer relu6_p
I1023 21:58:10.438782 37954 net.cpp:425] relu6_p <- fc6_p
I1023 21:58:10.438791 37954 net.cpp:386] relu6_p -> fc6_p (in-place)
I1023 21:58:10.439265 37954 net.cpp:141] Setting up relu6_p
I1023 21:58:10.439275 37954 net.cpp:148] Top shape: 50 4096 (204800)
I1023 21:58:10.439277 37954 net.cpp:156] Memory required for data: 858346400
I1023 21:58:10.439292 37954 layer_factory.hpp:77] Creating layer drop6_p
I1023 21:58:10.439302 37954 net.cpp:91] Creating Layer drop6_p
I1023 21:58:10.439306 37954 net.cpp:425] drop6_p <- fc6_p
I1023 21:58:10.439311 37954 net.cpp:386] drop6_p -> fc6_p (in-place)
I1023 21:58:10.439347 37954 net.cpp:141] Setting up drop6_p
I1023 21:58:10.439354 37954 net.cpp:148] Top shape: 50 4096 (204800)
I1023 21:58:10.439357 37954 net.cpp:156] Memory required for data: 859165600
I1023 21:58:10.439359 37954 layer_factory.hpp:77] Creating layer fc7_p
I1023 21:58:10.439371 37954 net.cpp:91] Creating Layer fc7_p
I1023 21:58:10.439374 37954 net.cpp:425] fc7_p <- fc6_p
I1023 21:58:10.439380 37954 net.cpp:399] fc7_p -> fc7_p
I1023 21:58:10.675925 37954 net.cpp:141] Setting up fc7_p
I1023 21:58:10.675958 37954 net.cpp:148] Top shape: 50 4096 (204800)
I1023 21:58:10.675962 37954 net.cpp:156] Memory required for data: 859984800
I1023 21:58:10.675972 37954 layer_factory.hpp:77] Creating layer relu7_p
I1023 21:58:10.675987 37954 net.cpp:91] Creating Layer relu7_p
I1023 21:58:10.675993 37954 net.cpp:425] relu7_p <- fc7_p
I1023 21:58:10.676000 37954 net.cpp:386] relu7_p -> fc7_p (in-place)
I1023 21:58:10.676483 37954 net.cpp:141] Setting up relu7_p
I1023 21:58:10.676493 37954 net.cpp:148] Top shape: 50 4096 (204800)
I1023 21:58:10.676509 37954 net.cpp:156] Memory required for data: 860804000
I1023 21:58:10.676513 37954 layer_factory.hpp:77] Creating layer drop7_p
I1023 21:58:10.676522 37954 net.cpp:91] Creating Layer drop7_p
I1023 21:58:10.676525 37954 net.cpp:425] drop7_p <- fc7_p
I1023 21:58:10.676530 37954 net.cpp:386] drop7_p -> fc7_p (in-place)
I1023 21:58:10.676565 37954 net.cpp:141] Setting up drop7_p
I1023 21:58:10.676573 37954 net.cpp:148] Top shape: 50 4096 (204800)
I1023 21:58:10.676575 37954 net.cpp:156] Memory required for data: 861623200
I1023 21:58:10.676578 37954 layer_factory.hpp:77] Creating layer fc7_p_drop7_p_0_split
I1023 21:58:10.676585 37954 net.cpp:91] Creating Layer fc7_p_drop7_p_0_split
I1023 21:58:10.676589 37954 net.cpp:425] fc7_p_drop7_p_0_split <- fc7_p
I1023 21:58:10.676595 37954 net.cpp:399] fc7_p_drop7_p_0_split -> fc7_p_drop7_p_0_split_0
I1023 21:58:10.676604 37954 net.cpp:399] fc7_p_drop7_p_0_split -> fc7_p_drop7_p_0_split_1
I1023 21:58:10.676669 37954 net.cpp:141] Setting up fc7_p_drop7_p_0_split
I1023 21:58:10.676678 37954 net.cpp:148] Top shape: 50 4096 (204800)
I1023 21:58:10.676683 37954 net.cpp:148] Top shape: 50 4096 (204800)
I1023 21:58:10.676686 37954 net.cpp:156] Memory required for data: 863261600
I1023 21:58:10.676689 37954 layer_factory.hpp:77] Creating layer fc8_p
I1023 21:58:10.676699 37954 net.cpp:91] Creating Layer fc8_p
I1023 21:58:10.676702 37954 net.cpp:425] fc8_p <- fc7_p_drop7_p_0_split_0
I1023 21:58:10.676723 37954 net.cpp:399] fc8_p -> fc8_p
I1023 21:58:10.705524 37954 net.cpp:141] Setting up fc8_p
I1023 21:58:10.705569 37954 net.cpp:148] Top shape: 50 504 (25200)
I1023 21:58:10.705584 37954 net.cpp:156] Memory required for data: 863362400
I1023 21:58:10.705590 37954 layer_factory.hpp:77] Creating layer fc8_p_fc8_p_0_split
I1023 21:58:10.705598 37954 net.cpp:91] Creating Layer fc8_p_fc8_p_0_split
I1023 21:58:10.705602 37954 net.cpp:425] fc8_p_fc8_p_0_split <- fc8_p
I1023 21:58:10.705610 37954 net.cpp:399] fc8_p_fc8_p_0_split -> fc8_p_fc8_p_0_split_0
I1023 21:58:10.705618 37954 net.cpp:399] fc8_p_fc8_p_0_split -> fc8_p_fc8_p_0_split_1
I1023 21:58:10.705660 37954 net.cpp:141] Setting up fc8_p_fc8_p_0_split
I1023 21:58:10.705668 37954 net.cpp:148] Top shape: 50 504 (25200)
I1023 21:58:10.705684 37954 net.cpp:148] Top shape: 50 504 (25200)
I1023 21:58:10.705687 37954 net.cpp:156] Memory required for data: 863564000
I1023 21:58:10.705690 37954 layer_factory.hpp:77] Creating layer accuracy
I1023 21:58:10.705765 37954 net.cpp:91] Creating Layer accuracy
I1023 21:58:10.705772 37954 net.cpp:425] accuracy <- fc8_p_fc8_p_0_split_0
I1023 21:58:10.705778 37954 net.cpp:425] accuracy <- label_data_1_split_0
I1023 21:58:10.705786 37954 net.cpp:399] accuracy -> accuracy
I1023 21:58:10.705844 37954 net.cpp:141] Setting up accuracy
I1023 21:58:10.705853 37954 net.cpp:148] Top shape: (1)
I1023 21:58:10.705857 37954 net.cpp:156] Memory required for data: 863564004
I1023 21:58:10.705860 37954 layer_factory.hpp:77] Creating layer fc7_pn
I1023 21:58:10.705868 37954 net.cpp:91] Creating Layer fc7_pn
I1023 21:58:10.705870 37954 net.cpp:425] fc7_pn <- fc7_p_drop7_p_0_split_1
I1023 21:58:10.705876 37954 net.cpp:399] fc7_pn -> fc7_pn
I1023 21:58:10.705907 37954 net.cpp:141] Setting up fc7_pn
I1023 21:58:10.705914 37954 net.cpp:148] Top shape: 50 4096 (204800)
I1023 21:58:10.705917 37954 net.cpp:156] Memory required for data: 864383204
I1023 21:58:10.705921 37954 layer_factory.hpp:77] Creating layer loss_p1
I1023 21:58:10.705930 37954 net.cpp:91] Creating Layer loss_p1
I1023 21:58:10.705935 37954 net.cpp:425] loss_p1 <- fc7_n
I1023 21:58:10.705940 37954 net.cpp:425] loss_p1 <- fc7_pn
I1023 21:58:10.705945 37954 net.cpp:399] loss_p1 -> loss_p1
…
