…
I1028 01:25:47.801100 62912 net.cpp:313] The NetState phase (0) differed from the phase (1) specified by a rule in layer precision@5
I1028 01:25:47.802121 62912 net.cpp:49] Initializing net from parameters: 
name: "AlexNet"
state {
  phase: TRAIN
}
layer {
  name: "data"
  type: "Data"
  top: "data"
  top: "label"
  include {
    phase: TRAIN
  }
  transform_param {
    mirror: true
    crop_size: 227
    mean_file: "examples/imagenet/imagenet_mean.binaryproto"
  }
  data_param {
    source: "/work/03713/harshal1/maverick/vision_proj/data/train_lmdb"
    batch_size: 256
    backend: LMDB
  }
}
layer {
  name: "conv1"
  type: "Convolution"
  bottom: "data"
  top: "conv1"
  param {
    lr_mult: 0
    decay_mult: 0
  }
  param {
    lr_mult: 0
    decay_mult: 0
  }
  convolution_param {
    num_output: 96
    kernel_size: 11
    stride: 4
    weight_filler {
      type: "gaussian"
      std: 0.01
    }
    bias_filler {
      type: "constant"
      value: 0
    }
  }
}
layer {
  name: "relu1"
  type: "ReLU"
  bottom: "conv1"
  top: "conv1"
}
layer {
  name: "norm1"
  type: "LRN"
  bottom: "conv1"
  top: "norm1"
  lrn_param {
    local_size: 5
    alpha: 0.0001
    beta: 0.75
  }
}
layer {
  name: "pool1"
  type: "Pooling"
  bottom: "norm1"
  top: "pool1"
  pooling_param {
    pool: MAX
    kernel_size: 3
    stride: 2
  }
}
layer {
  name: "conv2"
  type: "Convolution"
  bottom: "pool1"
  top: "conv2"
  param {
    lr_mult: 0
    decay_mult: 0
  }
  param {
    lr_mult: 0
    decay_mult: 0
  }
  convolution_param {
    num_output: 256
    pad: 2
    kernel_size: 5
    group: 2
    weight_filler {
      type: "gaussian"
      std: 0.01
    }
    bias_filler {
      type: "constant"
      value: 0.1
    }
  }
}
layer {
  name: "relu2"
  type: "ReLU"
  bottom: "conv2"
  top: "conv2"
}
layer {
  name: "norm2"
  type: "LRN"
  bottom: "conv2"
  top: "norm2"
  lrn_param {
    local_size: 5
    alpha: 0.0001
    beta: 0.75
  }
}
layer {
  name: "pool2"
  type: "Pooling"
  bottom: "norm2"
  top: "pool2"
  pooling_param {
    pool: MAX
    kernel_size: 3
    stride: 2
  }
}
layer {
  name: "conv3"
  type: "Convolution"
  bottom: "pool2"
  top: "conv3"
  param {
    lr_mult: 0
    decay_mult: 0
  }
  param {
    lr_mult: 0
    decay_mult: 0
  }
  convolution_param {
    num_output: 384
    pad: 1
    kernel_size: 3
    weight_filler {
      type: "gaussian"
      std: 0.01
    }
    bias_filler {
      type: "constant"
      value: 0
    }
  }
}
layer {
  name: "relu3"
  type: "ReLU"
  bottom: "conv3"
  top: "conv3"
}
layer {
  name: "conv4"
  type: "Convolution"
  bottom: "conv3"
  top: "conv4"
  param {
    lr_mult: 0
    decay_mult: 0
  }
  param {
    lr_mult: 0
    decay_mult: 0
  }
  convolution_param {
    num_output: 384
    pad: 1
    kernel_size: 3
    group: 2
    weight_filler {
      type: "gaussian"
      std: 0.01
    }
    bias_filler {
      type: "constant"
      value: 0.1
    }
  }
}
layer {
  name: "relu4"
  type: "ReLU"
  bottom: "conv4"
  top: "conv4"
}
layer {
  name: "conv5"
  type: "Convolution"
  bottom: "conv4"
  top: "conv5"
  param {
    lr_mult: 0
    decay_mult: 0
  }
  param {
    lr_mult: 0
    decay_mult: 0
  }
  convolution_param {
    num_output: 256
    pad: 1
    kernel_size: 3
    group: 2
    weight_filler {
      type: "gaussian"
      std: 0.01
    }
    bias_filler {
      type: "constant"
      value: 0.1
    }
  }
}
layer {
  name: "relu5"
  type: "ReLU"
  bottom: "conv5"
  top: "conv5"
}
layer {
  name: "pool5"
  type: "Pooling"
  bottom: "conv5"
  top: "pool5"
  pooling_param {
    pool: MAX
    kernel_size: 3
    stride: 2
  }
}
layer {
  name: "fc6"
  type: "InnerProduct"
  bottom: "pool5"
  top: "fc6"
  param {
    lr_mult: 0
    decay_mult: 0
  }
  param {
    lr_mult: 0
    decay_mult: 0
  }
  inner_product_param {
    num_output: 4096
    weight_filler {
      type: "gaussian"
      std: 0.005
    }
    bias_filler {
      type: "constant"
      value: 0.1
    }
  }
}
layer {
  name: "relu6"
  type: "ReLU"
  bottom: "fc6"
  top: "fc6"
}
layer {
  name: "drop6"
  type: "Dropout"
  bottom: "fc6"
  top: "fc6"
  dropout_param {
    dropout_ratio: 0.5
  }
}
layer {
  name: "fc7"
  type: "InnerProduct"
  bottom: "fc6"
  top: "fc7"
  param {
    lr_mult: 0
    decay_mult: 0
  }
  param {
    lr_mult: 0
    decay_mult: 0
  }
  inner_product_param {
    num_output: 4096
    weight_filler {
      type: "gaussian"
      std: 0.005
    }
    bias_filler {
      type: "constant"
      value: 0.1
    }
  }
}
layer {
  name: "fc7_n"
  type: "L2Norm"
  bottom: "fc7"
  top: "fc7_n"
}
layer {
  name: "conv1_p"
  type: "Convolution"
  bottom: "data"
  top: "conv1_p"
  param {
    lr_mult: 1
    decay_mult: 1
  }
  param {
    lr_mult: 2
    decay_mult: 0
  }
  convolution_param {
    num_output: 96
    kernel_size: 11
    stride: 4
    weight_filler {
      type: "gaussian"
      std: 0.01
    }
    bias_filler {
      type: "constant"
      value: 0
    }
  }
}
layer {
  name: "relu1_p"
  type: "ReLU"
  bottom: "conv1_p"
  top: "conv1_p"
}
layer {
  name: "norm1_p"
  type: "LRN"
  bottom: "conv1_p"
  top: "norm1_p"
  lrn_param {
    local_size: 5
    alpha: 0.0001
    beta: 0.75
  }
}
layer {
  name: "pool1_p"
  type: "Pooling"
  bottom: "norm1_p"
  top: "pool1_p"
  pooling_param {
    pool: MAX
    kernel_size: 3
    stride: 2
  }
}
layer {
  name: "conv2_p"
  type: "Convolution"
  bottom: "pool1_p"
  top: "conv2_p"
  param {
    lr_mult: 1
    decay_mult: 1
  }
  param {
    lr_mult: 2
    decay_mult: 0
  }
  convolution_param {
    num_output: 256
    pad: 2
    kernel_size: 5
    group: 2
    weight_filler {
      type: "gaussian"
      std: 0.01
    }
    bias_filler {
      type: "constant"
      value: 0.1
    }
  }
}
layer {
  name: "relu2_p"
  type: "ReLU"
  bottom: "conv2_p"
  top: "conv2_p"
}
layer {
  name: "norm2_p"
  type: "LRN"
  bottom: "conv2_p"
  top: "norm2_p"
  lrn_param {
    local_size: 5
    alpha: 0.0001
    beta: 0.75
  }
}
layer {
  name: "pool2_p"
  type: "Pooling"
  bottom: "norm2_p"
  top: "pool2_p"
  pooling_param {
    pool: MAX
    kernel_size: 3
    stride: 2
  }
}
layer {
  name: "conv3_p"
  type: "Convolution"
  bottom: "pool2_p"
  top: "conv3_p"
  param {
    lr_mult: 1
    decay_mult: 1
  }
  param {
    lr_mult: 2
    decay_mult: 0
  }
  convolution_param {
    num_output: 384
    pad: 1
    kernel_size: 3
    weight_filler {
      type: "gaussian"
      std: 0.01
    }
    bias_filler {
      type: "constant"
      value: 0
    }
  }
}
layer {
  name: "relu3_p"
  type: "ReLU"
  bottom: "conv3_p"
  top: "conv3_p"
}
layer {
  name: "conv4_p"
  type: "Convolution"
  bottom: "conv3_p"
  top: "conv4_p"
  param {
    lr_mult: 1
    decay_mult: 1
  }
  param {
    lr_mult: 2
    decay_mult: 0
  }
  convolution_param {
    num_output: 384
    pad: 1
    kernel_size: 3
    group: 2
    weight_filler {
      type: "gaussian"
      std: 0.01
    }
    bias_filler {
      type: "constant"
      value: 0.1
    }
  }
}
layer {
  name: "relu4_p"
  type: "ReLU"
  bottom: "conv4_p"
  top: "conv4_p"
}
layer {
  name: "conv5_p"
  type: "Convolution"
  bottom: "conv4_p"
  top: "conv5_p"
  param {
    lr_mult: 1
    decay_mult: 1
  }
  param {
    lr_mult: 2
    decay_mult: 0
  }
  convolution_param {
    num_output: 256
    pad: 1
    kernel_size: 3
    group: 2
    weight_filler {
      type: "gaussian"
      std: 0.01
    }
    bias_filler {
      type: "constant"
      value: 0.1
    }
  }
}
layer {
  name: "relu5_p"
  type: "ReLU"
  bottom: "conv5_p"
  top: "conv5_p"
}
layer {
  name: "pool5_p"
  type: "Pooling"
  bottom: "conv5_p"
  top: "pool5_p"
  pooling_param {
    pool: MAX
    kernel_size: 3
    stride: 2
  }
}
layer {
  name: "fc6_p"
  type: "InnerProduct"
  bottom: "pool5_p"
  top: "fc6_p"
  param {
    lr_mult: 1
    decay_mult: 1
  }
  param {
    lr_mult: 2
    decay_mult: 0
  }
  inner_product_param {
    num_output: 4096
    weight_filler {
      type: "gaussian"
      std: 0.005
    }
    bias_filler {
      type: "constant"
      value: 0.1
    }
  }
}
layer {
  name: "relu6_p"
  type: "ReLU"
  bottom: "fc6_p"
  top: "fc6_p"
}
layer {
  name: "drop6_p"
  type: "Dropout"
  bottom: "fc6_p"
  top: "fc6_p"
  dropout_param {
    dropout_ratio: 0.5
  }
}
layer {
  name: "fc7_p"
  type: "InnerProduct"
  bottom: "fc6_p"
  top: "fc7_p"
  param {
    lr_mult: 1
    decay_mult: 1
  }
  param {
    lr_mult: 2
    decay_mult: 0
  }
  inner_product_param {
    num_output: 4096
    weight_filler {
      type: "gaussian"
      std: 0.005
    }
    bias_filler {
      type: "constant"
      value: 0.1
    }
  }
}
layer {
  name: "relu7_p"
  type: "ReLU"
  bottom: "fc7_p"
  top: "fc7_p"
}
layer {
  name: "drop7_p"
  type: "Dropout"
  bottom: "fc7_p"
  top: "fc7_p"
  dropout_param {
    dropout_ratio: 0.5
  }
}
layer {
  name: "fc8_p"
  type: "InnerProduct"
  bottom: "fc7_p"
  top: "fc8_p"
  param {
    lr_mult: 1
    decay_mult: 1
  }
  param {
    lr_mult: 2
    decay_mult: 0
  }
  inner_product_param {
    num_output: 504
    weight_filler {
      type: "gaussian"
      std: 0.01
    }
    bias_filler {
      type: "constant"
      value: 0
    }
  }
}
layer {
  name: "fc7_pn"
  type: "L2Norm"
  bottom: "fc7_p"
  top: "fc7_pn"
}
layer {
  name: "loss_p1"
  type: "EuclideanLoss"
  bottom: "fc7_n"
  bottom: "fc7_pn"
  top: "loss_p1"
  loss_weight: -0.35
}
layer {
  name: "loss_p2"
  type: "SoftmaxWithLoss"
  bottom: "fc8_p"
  bottom: "label"
  top: "loss_p2"
  loss_weight: 0.65
}
I1028 01:25:47.802513 62912 layer_factory.hpp:77] Creating layer data
I1028 01:25:47.803342 62912 net.cpp:91] Creating Layer data
I1028 01:25:47.803416 62912 net.cpp:399] data -> data
I1028 01:25:47.803524 62912 net.cpp:399] data -> label
I1028 01:25:47.803565 62912 data_transformer.cpp:25] Loading mean file from: examples/imagenet/imagenet_mean.binaryproto
I1028 01:25:47.813841 63023 db_lmdb.cpp:35] Opened lmdb /work/03713/harshal1/maverick/vision_proj/data/train_lmdb
I1028 01:25:47.825987 62912 data_layer.cpp:41] output data size: 256,3,227,227
I1028 01:25:48.131472 62912 net.cpp:141] Setting up data
I1028 01:25:48.131577 62912 net.cpp:148] Top shape: 256 3 227 227 (39574272)
I1028 01:25:48.131587 62912 net.cpp:148] Top shape: 256 (256)
I1028 01:25:48.131590 62912 net.cpp:156] Memory required for data: 158298112
I1028 01:25:48.131608 62912 layer_factory.hpp:77] Creating layer data_data_0_split
I1028 01:25:48.131654 62912 net.cpp:91] Creating Layer data_data_0_split
I1028 01:25:48.131690 62912 net.cpp:425] data_data_0_split <- data
I1028 01:25:48.131716 62912 net.cpp:399] data_data_0_split -> data_data_0_split_0
I1028 01:25:48.131732 62912 net.cpp:399] data_data_0_split -> data_data_0_split_1
I1028 01:25:48.131819 62912 net.cpp:141] Setting up data_data_0_split
I1028 01:25:48.131830 62912 net.cpp:148] Top shape: 256 3 227 227 (39574272)
I1028 01:25:48.131834 62912 net.cpp:148] Top shape: 256 3 227 227 (39574272)
I1028 01:25:48.131837 62912 net.cpp:156] Memory required for data: 474892288
I1028 01:25:48.131841 62912 layer_factory.hpp:77] Creating layer conv1
I1028 01:25:48.131901 62912 net.cpp:91] Creating Layer conv1
I1028 01:25:48.131922 62912 net.cpp:425] conv1 <- data_data_0_split_0
I1028 01:25:48.131929 62912 net.cpp:399] conv1 -> conv1
I1028 01:25:48.396598 62912 net.cpp:141] Setting up conv1
I1028 01:25:48.396646 62912 net.cpp:148] Top shape: 256 96 55 55 (74342400)
I1028 01:25:48.396651 62912 net.cpp:156] Memory required for data: 772261888
I1028 01:25:48.396773 62912 layer_factory.hpp:77] Creating layer relu1
I1028 01:25:48.396819 62912 net.cpp:91] Creating Layer relu1
I1028 01:25:48.396829 62912 net.cpp:425] relu1 <- conv1
I1028 01:25:48.396839 62912 net.cpp:386] relu1 -> conv1 (in-place)
I1028 01:25:48.397153 62912 net.cpp:141] Setting up relu1
I1028 01:25:48.397178 62912 net.cpp:148] Top shape: 256 96 55 55 (74342400)
I1028 01:25:48.397181 62912 net.cpp:156] Memory required for data: 1069631488
I1028 01:25:48.397186 62912 layer_factory.hpp:77] Creating layer norm1
I1028 01:25:48.397248 62912 net.cpp:91] Creating Layer norm1
I1028 01:25:48.397254 62912 net.cpp:425] norm1 <- conv1
I1028 01:25:48.397260 62912 net.cpp:399] norm1 -> norm1
I1028 01:25:48.397521 62912 net.cpp:141] Setting up norm1
I1028 01:25:48.397532 62912 net.cpp:148] Top shape: 256 96 55 55 (74342400)
I1028 01:25:48.397536 62912 net.cpp:156] Memory required for data: 1367001088
I1028 01:25:48.397541 62912 layer_factory.hpp:77] Creating layer pool1
I1028 01:25:48.397549 62912 net.cpp:91] Creating Layer pool1
I1028 01:25:48.397553 62912 net.cpp:425] pool1 <- norm1
I1028 01:25:48.397559 62912 net.cpp:399] pool1 -> pool1
I1028 01:25:48.397655 62912 net.cpp:141] Setting up pool1
I1028 01:25:48.397666 62912 net.cpp:148] Top shape: 256 96 27 27 (17915904)
I1028 01:25:48.397670 62912 net.cpp:156] Memory required for data: 1438664704
I1028 01:25:48.397673 62912 layer_factory.hpp:77] Creating layer conv2
I1028 01:25:48.397691 62912 net.cpp:91] Creating Layer conv2
I1028 01:25:48.397694 62912 net.cpp:425] conv2 <- pool1
I1028 01:25:48.397701 62912 net.cpp:399] conv2 -> conv2
I1028 01:25:48.404880 62912 net.cpp:141] Setting up conv2
I1028 01:25:48.404911 62912 net.cpp:148] Top shape: 256 256 27 27 (47775744)
I1028 01:25:48.404917 62912 net.cpp:156] Memory required for data: 1629767680
I1028 01:25:48.404927 62912 layer_factory.hpp:77] Creating layer relu2
I1028 01:25:48.404935 62912 net.cpp:91] Creating Layer relu2
I1028 01:25:48.404939 62912 net.cpp:425] relu2 <- conv2
I1028 01:25:48.404947 62912 net.cpp:386] relu2 -> conv2 (in-place)
I1028 01:25:48.405130 62912 net.cpp:141] Setting up relu2
I1028 01:25:48.405143 62912 net.cpp:148] Top shape: 256 256 27 27 (47775744)
I1028 01:25:48.405148 62912 net.cpp:156] Memory required for data: 1820870656
I1028 01:25:48.405151 62912 layer_factory.hpp:77] Creating layer norm2
I1028 01:25:48.405160 62912 net.cpp:91] Creating Layer norm2
I1028 01:25:48.405164 62912 net.cpp:425] norm2 <- conv2
I1028 01:25:48.405174 62912 net.cpp:399] norm2 -> norm2
I1028 01:25:48.405488 62912 net.cpp:141] Setting up norm2
I1028 01:25:48.405500 62912 net.cpp:148] Top shape: 256 256 27 27 (47775744)
I1028 01:25:48.405504 62912 net.cpp:156] Memory required for data: 2011973632
I1028 01:25:48.405508 62912 layer_factory.hpp:77] Creating layer pool2
I1028 01:25:48.405517 62912 net.cpp:91] Creating Layer pool2
I1028 01:25:48.405522 62912 net.cpp:425] pool2 <- norm2
I1028 01:25:48.405527 62912 net.cpp:399] pool2 -> pool2
I1028 01:25:48.405578 62912 net.cpp:141] Setting up pool2
I1028 01:25:48.405586 62912 net.cpp:148] Top shape: 256 256 13 13 (11075584)
I1028 01:25:48.405588 62912 net.cpp:156] Memory required for data: 2056275968
I1028 01:25:48.405592 62912 layer_factory.hpp:77] Creating layer conv3
I1028 01:25:48.405604 62912 net.cpp:91] Creating Layer conv3
I1028 01:25:48.405609 62912 net.cpp:425] conv3 <- pool2
I1028 01:25:48.405618 62912 net.cpp:399] conv3 -> conv3
I1028 01:25:48.420680 62912 net.cpp:141] Setting up conv3
I1028 01:25:48.420717 62912 net.cpp:148] Top shape: 256 384 13 13 (16613376)
I1028 01:25:48.420722 62912 net.cpp:156] Memory required for data: 2122729472
I1028 01:25:48.420737 62912 layer_factory.hpp:77] Creating layer relu3
I1028 01:25:48.420750 62912 net.cpp:91] Creating Layer relu3
I1028 01:25:48.420755 62912 net.cpp:425] relu3 <- conv3
I1028 01:25:48.420763 62912 net.cpp:386] relu3 -> conv3 (in-place)
I1028 01:25:48.420931 62912 net.cpp:141] Setting up relu3
I1028 01:25:48.420944 62912 net.cpp:148] Top shape: 256 384 13 13 (16613376)
I1028 01:25:48.420979 62912 net.cpp:156] Memory required for data: 2189182976
I1028 01:25:48.420984 62912 layer_factory.hpp:77] Creating layer conv4
I1028 01:25:48.421000 62912 net.cpp:91] Creating Layer conv4
I1028 01:25:48.421005 62912 net.cpp:425] conv4 <- conv3
I1028 01:25:48.421011 62912 net.cpp:399] conv4 -> conv4
I1028 01:25:48.433290 62912 net.cpp:141] Setting up conv4
I1028 01:25:48.433323 62912 net.cpp:148] Top shape: 256 384 13 13 (16613376)
I1028 01:25:48.433327 62912 net.cpp:156] Memory required for data: 2255636480
I1028 01:25:48.433336 62912 layer_factory.hpp:77] Creating layer relu4
I1028 01:25:48.433346 62912 net.cpp:91] Creating Layer relu4
I1028 01:25:48.433351 62912 net.cpp:425] relu4 <- conv4
I1028 01:25:48.433357 62912 net.cpp:386] relu4 -> conv4 (in-place)
I1028 01:25:48.433535 62912 net.cpp:141] Setting up relu4
I1028 01:25:48.433547 62912 net.cpp:148] Top shape: 256 384 13 13 (16613376)
I1028 01:25:48.433550 62912 net.cpp:156] Memory required for data: 2322089984
I1028 01:25:48.433554 62912 layer_factory.hpp:77] Creating layer conv5
I1028 01:25:48.433568 62912 net.cpp:91] Creating Layer conv5
I1028 01:25:48.433573 62912 net.cpp:425] conv5 <- conv4
I1028 01:25:48.433583 62912 net.cpp:399] conv5 -> conv5
I1028 01:25:48.442399 62912 net.cpp:141] Setting up conv5
I1028 01:25:48.442414 62912 net.cpp:148] Top shape: 256 256 13 13 (11075584)
I1028 01:25:48.442430 62912 net.cpp:156] Memory required for data: 2366392320
I1028 01:25:48.442442 62912 layer_factory.hpp:77] Creating layer relu5
I1028 01:25:48.442454 62912 net.cpp:91] Creating Layer relu5
I1028 01:25:48.442458 62912 net.cpp:425] relu5 <- conv5
I1028 01:25:48.442464 62912 net.cpp:386] relu5 -> conv5 (in-place)
I1028 01:25:48.442632 62912 net.cpp:141] Setting up relu5
I1028 01:25:48.442646 62912 net.cpp:148] Top shape: 256 256 13 13 (11075584)
I1028 01:25:48.442651 62912 net.cpp:156] Memory required for data: 2410694656
I1028 01:25:48.442654 62912 layer_factory.hpp:77] Creating layer pool5
I1028 01:25:48.442665 62912 net.cpp:91] Creating Layer pool5
I1028 01:25:48.442669 62912 net.cpp:425] pool5 <- conv5
I1028 01:25:48.442678 62912 net.cpp:399] pool5 -> pool5
I1028 01:25:48.442723 62912 net.cpp:141] Setting up pool5
I1028 01:25:48.442734 62912 net.cpp:148] Top shape: 256 256 6 6 (2359296)
I1028 01:25:48.442739 62912 net.cpp:156] Memory required for data: 2420131840
I1028 01:25:48.442741 62912 layer_factory.hpp:77] Creating layer fc6
I1028 01:25:48.442751 62912 net.cpp:91] Creating Layer fc6
I1028 01:25:48.442755 62912 net.cpp:425] fc6 <- pool5
I1028 01:25:48.442764 62912 net.cpp:399] fc6 -> fc6
I1028 01:25:48.978647 62912 net.cpp:141] Setting up fc6
I1028 01:25:48.978695 62912 net.cpp:148] Top shape: 256 4096 (1048576)
I1028 01:25:48.978699 62912 net.cpp:156] Memory required for data: 2424326144
I1028 01:25:48.978711 62912 layer_factory.hpp:77] Creating layer relu6
I1028 01:25:48.978726 62912 net.cpp:91] Creating Layer relu6
I1028 01:25:48.978732 62912 net.cpp:425] relu6 <- fc6
I1028 01:25:48.978741 62912 net.cpp:386] relu6 -> fc6 (in-place)
I1028 01:25:48.979171 62912 net.cpp:141] Setting up relu6
I1028 01:25:48.979195 62912 net.cpp:148] Top shape: 256 4096 (1048576)
I1028 01:25:48.979198 62912 net.cpp:156] Memory required for data: 2428520448
I1028 01:25:48.979202 62912 layer_factory.hpp:77] Creating layer drop6
I1028 01:25:48.979275 62912 net.cpp:91] Creating Layer drop6
I1028 01:25:48.979281 62912 net.cpp:425] drop6 <- fc6
I1028 01:25:48.979287 62912 net.cpp:386] drop6 -> fc6 (in-place)
I1028 01:25:48.979346 62912 net.cpp:141] Setting up drop6
I1028 01:25:48.979354 62912 net.cpp:148] Top shape: 256 4096 (1048576)
I1028 01:25:48.979358 62912 net.cpp:156] Memory required for data: 2432714752
I1028 01:25:48.979362 62912 layer_factory.hpp:77] Creating layer fc7
I1028 01:25:48.979372 62912 net.cpp:91] Creating Layer fc7
I1028 01:25:48.979377 62912 net.cpp:425] fc7 <- fc6
I1028 01:25:48.979384 62912 net.cpp:399] fc7 -> fc7
I1028 01:25:49.211482 62912 net.cpp:141] Setting up fc7
I1028 01:25:49.211532 62912 net.cpp:148] Top shape: 256 4096 (1048576)
I1028 01:25:49.211572 62912 net.cpp:156] Memory required for data: 2436909056
I1028 01:25:49.211585 62912 layer_factory.hpp:77] Creating layer fc7_n
I1028 01:25:49.211661 62912 net.cpp:91] Creating Layer fc7_n
I1028 01:25:49.211668 62912 net.cpp:425] fc7_n <- fc7
I1028 01:25:49.211683 62912 net.cpp:399] fc7_n -> fc7_n
I1028 01:25:49.211720 62912 net.cpp:141] Setting up fc7_n
I1028 01:25:49.211730 62912 net.cpp:148] Top shape: 256 4096 (1048576)
I1028 01:25:49.211731 62912 net.cpp:156] Memory required for data: 2441103360
I1028 01:25:49.211735 62912 layer_factory.hpp:77] Creating layer conv1_p
I1028 01:25:49.211755 62912 net.cpp:91] Creating Layer conv1_p
I1028 01:25:49.211758 62912 net.cpp:425] conv1_p <- data_data_0_split_1
I1028 01:25:49.211766 62912 net.cpp:399] conv1_p -> conv1_p
I1028 01:25:49.213323 62912 net.cpp:141] Setting up conv1_p
I1028 01:25:49.213348 62912 net.cpp:148] Top shape: 256 96 55 55 (74342400)
I1028 01:25:49.213351 62912 net.cpp:156] Memory required for data: 2738472960
I1028 01:25:49.213357 62912 layer_factory.hpp:77] Creating layer relu1_p
I1028 01:25:49.213366 62912 net.cpp:91] Creating Layer relu1_p
I1028 01:25:49.213369 62912 net.cpp:425] relu1_p <- conv1_p
I1028 01:25:49.213374 62912 net.cpp:386] relu1_p -> conv1_p (in-place)
I1028 01:25:49.213524 62912 net.cpp:141] Setting up relu1_p
I1028 01:25:49.213533 62912 net.cpp:148] Top shape: 256 96 55 55 (74342400)
I1028 01:25:49.213537 62912 net.cpp:156] Memory required for data: 3035842560
I1028 01:25:49.213541 62912 layer_factory.hpp:77] Creating layer norm1_p
I1028 01:25:49.213552 62912 net.cpp:91] Creating Layer norm1_p
I1028 01:25:49.213557 62912 net.cpp:425] norm1_p <- conv1_p
I1028 01:25:49.213562 62912 net.cpp:399] norm1_p -> norm1_p
I1028 01:25:49.213832 62912 net.cpp:141] Setting up norm1_p
I1028 01:25:49.213856 62912 net.cpp:148] Top shape: 256 96 55 55 (74342400)
I1028 01:25:49.213860 62912 net.cpp:156] Memory required for data: 3333212160
I1028 01:25:49.213863 62912 layer_factory.hpp:77] Creating layer pool1_p
I1028 01:25:49.213871 62912 net.cpp:91] Creating Layer pool1_p
I1028 01:25:49.213874 62912 net.cpp:425] pool1_p <- norm1_p
I1028 01:25:49.213879 62912 net.cpp:399] pool1_p -> pool1_p
I1028 01:25:49.213934 62912 net.cpp:141] Setting up pool1_p
I1028 01:25:49.213942 62912 net.cpp:148] Top shape: 256 96 27 27 (17915904)
I1028 01:25:49.213944 62912 net.cpp:156] Memory required for data: 3404875776
I1028 01:25:49.213948 62912 layer_factory.hpp:77] Creating layer conv2_p
I1028 01:25:49.213958 62912 net.cpp:91] Creating Layer conv2_p
I1028 01:25:49.213963 62912 net.cpp:425] conv2_p <- pool1_p
I1028 01:25:49.213981 62912 net.cpp:399] conv2_p -> conv2_p
I1028 01:25:49.219640 62912 net.cpp:141] Setting up conv2_p
I1028 01:25:49.219665 62912 net.cpp:148] Top shape: 256 256 27 27 (47775744)
I1028 01:25:49.219668 62912 net.cpp:156] Memory required for data: 3595978752
I1028 01:25:49.219679 62912 layer_factory.hpp:77] Creating layer relu2_p
I1028 01:25:49.219688 62912 net.cpp:91] Creating Layer relu2_p
I1028 01:25:49.219692 62912 net.cpp:425] relu2_p <- conv2_p
I1028 01:25:49.219697 62912 net.cpp:386] relu2_p -> conv2_p (in-place)
I1028 01:25:49.219965 62912 net.cpp:141] Setting up relu2_p
I1028 01:25:49.219979 62912 net.cpp:148] Top shape: 256 256 27 27 (47775744)
I1028 01:25:49.219982 62912 net.cpp:156] Memory required for data: 3787081728
I1028 01:25:49.219986 62912 layer_factory.hpp:77] Creating layer norm2_p
I1028 01:25:49.219993 62912 net.cpp:91] Creating Layer norm2_p
I1028 01:25:49.219997 62912 net.cpp:425] norm2_p <- conv2_p
I1028 01:25:49.220002 62912 net.cpp:399] norm2_p -> norm2_p
I1028 01:25:49.220180 62912 net.cpp:141] Setting up norm2_p
I1028 01:25:49.220190 62912 net.cpp:148] Top shape: 256 256 27 27 (47775744)
I1028 01:25:49.220192 62912 net.cpp:156] Memory required for data: 3978184704
I1028 01:25:49.220196 62912 layer_factory.hpp:77] Creating layer pool2_p
I1028 01:25:49.220204 62912 net.cpp:91] Creating Layer pool2_p
I1028 01:25:49.220208 62912 net.cpp:425] pool2_p <- norm2_p
I1028 01:25:49.220213 62912 net.cpp:399] pool2_p -> pool2_p
I1028 01:25:49.220265 62912 net.cpp:141] Setting up pool2_p
I1028 01:25:49.220274 62912 net.cpp:148] Top shape: 256 256 13 13 (11075584)
I1028 01:25:49.220278 62912 net.cpp:156] Memory required for data: 4022487040
I1028 01:25:49.220280 62912 layer_factory.hpp:77] Creating layer conv3_p
I1028 01:25:49.220291 62912 net.cpp:91] Creating Layer conv3_p
I1028 01:25:49.220295 62912 net.cpp:425] conv3_p <- pool2_p
I1028 01:25:49.220304 62912 net.cpp:399] conv3_p -> conv3_p
I1028 01:25:49.233554 62912 net.cpp:141] Setting up conv3_p
I1028 01:25:49.233566 62912 net.cpp:148] Top shape: 256 384 13 13 (16613376)
I1028 01:25:49.233580 62912 net.cpp:156] Memory required for data: 4088940544
I1028 01:25:49.233587 62912 layer_factory.hpp:77] Creating layer relu3_p
I1028 01:25:49.233597 62912 net.cpp:91] Creating Layer relu3_p
I1028 01:25:49.233600 62912 net.cpp:425] relu3_p <- conv3_p
I1028 01:25:49.233605 62912 net.cpp:386] relu3_p -> conv3_p (in-place)
I1028 01:25:49.233850 62912 net.cpp:141] Setting up relu3_p
I1028 01:25:49.233860 62912 net.cpp:148] Top shape: 256 384 13 13 (16613376)
I1028 01:25:49.233862 62912 net.cpp:156] Memory required for data: 4155394048
I1028 01:25:49.233866 62912 layer_factory.hpp:77] Creating layer conv4_p
I1028 01:25:49.233883 62912 net.cpp:91] Creating Layer conv4_p
I1028 01:25:49.233887 62912 net.cpp:425] conv4_p <- conv3_p
I1028 01:25:49.233898 62912 net.cpp:399] conv4_p -> conv4_p
I1028 01:25:49.244624 62912 net.cpp:141] Setting up conv4_p
I1028 01:25:49.244635 62912 net.cpp:148] Top shape: 256 384 13 13 (16613376)
I1028 01:25:49.244650 62912 net.cpp:156] Memory required for data: 4221847552
I1028 01:25:49.244658 62912 layer_factory.hpp:77] Creating layer relu4_p
I1028 01:25:49.244666 62912 net.cpp:91] Creating Layer relu4_p
I1028 01:25:49.244669 62912 net.cpp:425] relu4_p <- conv4_p
I1028 01:25:49.244675 62912 net.cpp:386] relu4_p -> conv4_p (in-place)
I1028 01:25:49.244940 62912 net.cpp:141] Setting up relu4_p
I1028 01:25:49.244953 62912 net.cpp:148] Top shape: 256 384 13 13 (16613376)
I1028 01:25:49.244956 62912 net.cpp:156] Memory required for data: 4288301056
I1028 01:25:49.244961 62912 layer_factory.hpp:77] Creating layer conv5_p
I1028 01:25:49.244972 62912 net.cpp:91] Creating Layer conv5_p
I1028 01:25:49.244976 62912 net.cpp:425] conv5_p <- conv4_p
I1028 01:25:49.244983 62912 net.cpp:399] conv5_p -> conv5_p
I1028 01:25:49.252678 62912 net.cpp:141] Setting up conv5_p
I1028 01:25:49.252703 62912 net.cpp:148] Top shape: 256 256 13 13 (11075584)
I1028 01:25:49.252707 62912 net.cpp:156] Memory required for data: 4332603392
I1028 01:25:49.252712 62912 layer_factory.hpp:77] Creating layer relu5_p
I1028 01:25:49.252719 62912 net.cpp:91] Creating Layer relu5_p
I1028 01:25:49.252723 62912 net.cpp:425] relu5_p <- conv5_p
I1028 01:25:49.252728 62912 net.cpp:386] relu5_p -> conv5_p (in-place)
I1028 01:25:49.252995 62912 net.cpp:141] Setting up relu5_p
I1028 01:25:49.253008 62912 net.cpp:148] Top shape: 256 256 13 13 (11075584)
I1028 01:25:49.253011 62912 net.cpp:156] Memory required for data: 4376905728
I1028 01:25:49.253015 62912 layer_factory.hpp:77] Creating layer pool5_p
I1028 01:25:49.253021 62912 net.cpp:91] Creating Layer pool5_p
I1028 01:25:49.253026 62912 net.cpp:425] pool5_p <- conv5_p
I1028 01:25:49.253031 62912 net.cpp:399] pool5_p -> pool5_p
I1028 01:25:49.253073 62912 net.cpp:141] Setting up pool5_p
I1028 01:25:49.253082 62912 net.cpp:148] Top shape: 256 256 6 6 (2359296)
I1028 01:25:49.253085 62912 net.cpp:156] Memory required for data: 4386342912
I1028 01:25:49.253088 62912 layer_factory.hpp:77] Creating layer fc6_p
I1028 01:25:49.253099 62912 net.cpp:91] Creating Layer fc6_p
I1028 01:25:49.253103 62912 net.cpp:425] fc6_p <- pool5_p
I1028 01:25:49.253109 62912 net.cpp:399] fc6_p -> fc6_p
I1028 01:25:49.784627 62912 net.cpp:141] Setting up fc6_p
I1028 01:25:49.784677 62912 net.cpp:148] Top shape: 256 4096 (1048576)
I1028 01:25:49.784680 62912 net.cpp:156] Memory required for data: 4390537216
I1028 01:25:49.784693 62912 layer_factory.hpp:77] Creating layer relu6_p
I1028 01:25:49.784746 62912 net.cpp:91] Creating Layer relu6_p
I1028 01:25:49.784752 62912 net.cpp:425] relu6_p <- fc6_p
I1028 01:25:49.784765 62912 net.cpp:386] relu6_p -> fc6_p (in-place)
I1028 01:25:49.785233 62912 net.cpp:141] Setting up relu6_p
I1028 01:25:49.785254 62912 net.cpp:148] Top shape: 256 4096 (1048576)
I1028 01:25:49.785257 62912 net.cpp:156] Memory required for data: 4394731520
I1028 01:25:49.785261 62912 layer_factory.hpp:77] Creating layer drop6_p
I1028 01:25:49.785270 62912 net.cpp:91] Creating Layer drop6_p
I1028 01:25:49.785274 62912 net.cpp:425] drop6_p <- fc6_p
I1028 01:25:49.785281 62912 net.cpp:386] drop6_p -> fc6_p (in-place)
I1028 01:25:49.785305 62912 net.cpp:141] Setting up drop6_p
I1028 01:25:49.785311 62912 net.cpp:148] Top shape: 256 4096 (1048576)
I1028 01:25:49.785316 62912 net.cpp:156] Memory required for data: 4398925824
I1028 01:25:49.785320 62912 layer_factory.hpp:77] Creating layer fc7_p
I1028 01:25:49.785331 62912 net.cpp:91] Creating Layer fc7_p
I1028 01:25:49.785334 62912 net.cpp:425] fc7_p <- fc6_p
I1028 01:25:49.785339 62912 net.cpp:399] fc7_p -> fc7_p
I1028 01:25:50.020231 62912 net.cpp:141] Setting up fc7_p
I1028 01:25:50.020282 62912 net.cpp:148] Top shape: 256 4096 (1048576)
I1028 01:25:50.020287 62912 net.cpp:156] Memory required for data: 4403120128
I1028 01:25:50.020299 62912 layer_factory.hpp:77] Creating layer relu7_p
I1028 01:25:50.020319 62912 net.cpp:91] Creating Layer relu7_p
I1028 01:25:50.020326 62912 net.cpp:425] relu7_p <- fc7_p
I1028 01:25:50.020335 62912 net.cpp:386] relu7_p -> fc7_p (in-place)
I1028 01:25:50.020572 62912 net.cpp:141] Setting up relu7_p
I1028 01:25:50.020582 62912 net.cpp:148] Top shape: 256 4096 (1048576)
I1028 01:25:50.020586 62912 net.cpp:156] Memory required for data: 4407314432
I1028 01:25:50.020589 62912 layer_factory.hpp:77] Creating layer drop7_p
I1028 01:25:50.020598 62912 net.cpp:91] Creating Layer drop7_p
I1028 01:25:50.020601 62912 net.cpp:425] drop7_p <- fc7_p
I1028 01:25:50.020608 62912 net.cpp:386] drop7_p -> fc7_p (in-place)
I1028 01:25:50.020632 62912 net.cpp:141] Setting up drop7_p
I1028 01:25:50.020638 62912 net.cpp:148] Top shape: 256 4096 (1048576)
I1028 01:25:50.020642 62912 net.cpp:156] Memory required for data: 4411508736
I1028 01:25:50.020644 62912 layer_factory.hpp:77] Creating layer fc7_p_drop7_p_0_split
I1028 01:25:50.020653 62912 net.cpp:91] Creating Layer fc7_p_drop7_p_0_split
I1028 01:25:50.020658 62912 net.cpp:425] fc7_p_drop7_p_0_split <- fc7_p
I1028 01:25:50.020663 62912 net.cpp:399] fc7_p_drop7_p_0_split -> fc7_p_drop7_p_0_split_0
I1028 01:25:50.020669 62912 net.cpp:399] fc7_p_drop7_p_0_split -> fc7_p_drop7_p_0_split_1
I1028 01:25:50.020709 62912 net.cpp:141] Setting up fc7_p_drop7_p_0_split
I1028 01:25:50.020716 62912 net.cpp:148] Top shape: 256 4096 (1048576)
I1028 01:25:50.020720 62912 net.cpp:148] Top shape: 256 4096 (1048576)
I1028 01:25:50.020722 62912 net.cpp:156] Memory required for data: 4419897344
I1028 01:25:50.020725 62912 layer_factory.hpp:77] Creating layer fc8_p
I1028 01:25:50.020736 62912 net.cpp:91] Creating Layer fc8_p
I1028 01:25:50.020740 62912 net.cpp:425] fc8_p <- fc7_p_drop7_p_0_split_0
I1028 01:25:50.020747 62912 net.cpp:399] fc8_p -> fc8_p
I1028 01:25:50.049512 62912 net.cpp:141] Setting up fc8_p
I1028 01:25:50.049522 62912 net.cpp:148] Top shape: 256 504 (129024)
I1028 01:25:50.049538 62912 net.cpp:156] Memory required for data: 4420413440
I1028 01:25:50.049545 62912 layer_factory.hpp:77] Creating layer fc7_pn
I1028 01:25:50.049551 62912 net.cpp:91] Creating Layer fc7_pn
I1028 01:25:50.049556 62912 net.cpp:425] fc7_pn <- fc7_p_drop7_p_0_split_1
I1028 01:25:50.049563 62912 net.cpp:399] fc7_pn -> fc7_pn
I1028 01:25:50.049593 62912 net.cpp:141] Setting up fc7_pn
I1028 01:25:50.049600 62912 net.cpp:148] Top shape: 256 4096 (1048576)
I1028 01:25:50.049603 62912 net.cpp:156] Memory required for data: 4424607744
I1028 01:25:50.049607 62912 layer_factory.hpp:77] Creating layer loss_p1
I1028 01:25:50.049666 62912 net.cpp:91] Creating Layer loss_p1
I1028 01:25:50.049674 62912 net.cpp:425] loss_p1 <- fc7_n
I1028 01:25:50.049710 62912 net.cpp:425] loss_p1 <- fc7_pn
I1028 01:25:50.049716 62912 net.cpp:399] loss_p1 -> loss_p1
…
I1028 01:25:50.054559 62912 net.cpp:313] The NetState phase (1) differed from the phase (0) specified by a rule in layer data
I1028 01:25:50.055578 62912 net.cpp:49] Initializing net from parameters: 
name: "AlexNet"
state {
  phase: TEST
}
layer {
  name: "data"
  type: "Data"
  top: "data"
  top: "label"
  include {
    phase: TEST
  }
  transform_param {
    mirror: false
    crop_size: 227
    mean_file: "examples/imagenet/imagenet_mean.binaryproto"
  }
  data_param {
    source: "/work/03713/harshal1/maverick/vision_proj/data/val_lmdb"
    batch_size: 50
    backend: LMDB
  }
}
layer {
  name: "conv1"
  type: "Convolution"
  bottom: "data"
  top: "conv1"
  param {
    lr_mult: 0
    decay_mult: 0
  }
  param {
    lr_mult: 0
    decay_mult: 0
  }
  convolution_param {
    num_output: 96
    kernel_size: 11
    stride: 4
    weight_filler {
      type: "gaussian"
      std: 0.01
    }
    bias_filler {
      type: "constant"
      value: 0
    }
  }
}
layer {
  name: "relu1"
  type: "ReLU"
  bottom: "conv1"
  top: "conv1"
}
layer {
  name: "norm1"
  type: "LRN"
  bottom: "conv1"
  top: "norm1"
  lrn_param {
    local_size: 5
    alpha: 0.0001
    beta: 0.75
  }
}
layer {
  name: "pool1"
  type: "Pooling"
  bottom: "norm1"
  top: "pool1"
  pooling_param {
    pool: MAX
    kernel_size: 3
    stride: 2
  }
}
layer {
  name: "conv2"
  type: "Convolution"
  bottom: "pool1"
  top: "conv2"
  param {
    lr_mult: 0
    decay_mult: 0
  }
  param {
    lr_mult: 0
    decay_mult: 0
  }
  convolution_param {
    num_output: 256
    pad: 2
    kernel_size: 5
    group: 2
    weight_filler {
      type: "gaussian"
      std: 0.01
    }
    bias_filler {
      type: "constant"
      value: 0.1
    }
  }
}
layer {
  name: "relu2"
  type: "ReLU"
  bottom: "conv2"
  top: "conv2"
}
layer {
  name: "norm2"
  type: "LRN"
  bottom: "conv2"
  top: "norm2"
  lrn_param {
    local_size: 5
    alpha: 0.0001
    beta: 0.75
  }
}
layer {
  name: "pool2"
  type: "Pooling"
  bottom: "norm2"
  top: "pool2"
  pooling_param {
    pool: MAX
    kernel_size: 3
    stride: 2
  }
}
layer {
  name: "conv3"
  type: "Convolution"
  bottom: "pool2"
  top: "conv3"
  param {
    lr_mult: 0
    decay_mult: 0
  }
  param {
    lr_mult: 0
    decay_mult: 0
  }
  convolution_param {
    num_output: 384
    pad: 1
    kernel_size: 3
    weight_filler {
      type: "gaussian"
      std: 0.01
    }
    bias_filler {
      type: "constant"
      value: 0
    }
  }
}
layer {
  name: "relu3"
  type: "ReLU"
  bottom: "conv3"
  top: "conv3"
}
layer {
  name: "conv4"
  type: "Convolution"
  bottom: "conv3"
  top: "conv4"
  param {
    lr_mult: 0
    decay_mult: 0
  }
  param {
    lr_mult: 0
    decay_mult: 0
  }
  convolution_param {
    num_output: 384
    pad: 1
    kernel_size: 3
    group: 2
    weight_filler {
      type: "gaussian"
      std: 0.01
    }
    bias_filler {
      type: "constant"
      value: 0.1
    }
  }
}
layer {
  name: "relu4"
  type: "ReLU"
  bottom: "conv4"
  top: "conv4"
}
layer {
  name: "conv5"
  type: "Convolution"
  bottom: "conv4"
  top: "conv5"
  param {
    lr_mult: 0
    decay_mult: 0
  }
  param {
    lr_mult: 0
    decay_mult: 0
  }
  convolution_param {
    num_output: 256
    pad: 1
    kernel_size: 3
    group: 2
    weight_filler {
      type: "gaussian"
      std: 0.01
    }
    bias_filler {
      type: "constant"
      value: 0.1
    }
  }
}
layer {
  name: "relu5"
  type: "ReLU"
  bottom: "conv5"
  top: "conv5"
}
layer {
  name: "pool5"
  type: "Pooling"
  bottom: "conv5"
  top: "pool5"
  pooling_param {
    pool: MAX
    kernel_size: 3
    stride: 2
  }
}
layer {
  name: "fc6"
  type: "InnerProduct"
  bottom: "pool5"
  top: "fc6"
  param {
    lr_mult: 0
    decay_mult: 0
  }
  param {
    lr_mult: 0
    decay_mult: 0
  }
  inner_product_param {
    num_output: 4096
    weight_filler {
      type: "gaussian"
      std: 0.005
    }
    bias_filler {
      type: "constant"
      value: 0.1
    }
  }
}
layer {
  name: "relu6"
  type: "ReLU"
  bottom: "fc6"
  top: "fc6"
}
layer {
  name: "drop6"
  type: "Dropout"
  bottom: "fc6"
  top: "fc6"
  dropout_param {
    dropout_ratio: 0.5
  }
}
layer {
  name: "fc7"
  type: "InnerProduct"
  bottom: "fc6"
  top: "fc7"
  param {
    lr_mult: 0
    decay_mult: 0
  }
  param {
    lr_mult: 0
    decay_mult: 0
  }
  inner_product_param {
    num_output: 4096
    weight_filler {
      type: "gaussian"
      std: 0.005
    }
    bias_filler {
      type: "constant"
      value: 0.1
    }
  }
}
layer {
  name: "fc7_n"
  type: "L2Norm"
  bottom: "fc7"
  top: "fc7_n"
}
layer {
  name: "conv1_p"
  type: "Convolution"
  bottom: "data"
  top: "conv1_p"
  param {
    lr_mult: 1
    decay_mult: 1
  }
  param {
    lr_mult: 2
    decay_mult: 0
  }
  convolution_param {
    num_output: 96
    kernel_size: 11
    stride: 4
    weight_filler {
      type: "gaussian"
      std: 0.01
    }
    bias_filler {
      type: "constant"
      value: 0
    }
  }
}
layer {
  name: "relu1_p"
  type: "ReLU"
  bottom: "conv1_p"
  top: "conv1_p"
}
layer {
  name: "norm1_p"
  type: "LRN"
  bottom: "conv1_p"
  top: "norm1_p"
  lrn_param {
    local_size: 5
    alpha: 0.0001
    beta: 0.75
  }
}
layer {
  name: "pool1_p"
  type: "Pooling"
  bottom: "norm1_p"
  top: "pool1_p"
  pooling_param {
    pool: MAX
    kernel_size: 3
    stride: 2
  }
}
layer {
  name: "conv2_p"
  type: "Convolution"
  bottom: "pool1_p"
  top: "conv2_p"
  param {
    lr_mult: 1
    decay_mult: 1
  }
  param {
    lr_mult: 2
    decay_mult: 0
  }
  convolution_param {
    num_output: 256
    pad: 2
    kernel_size: 5
    group: 2
    weight_filler {
      type: "gaussian"
      std: 0.01
    }
    bias_filler {
      type: "constant"
      value: 0.1
    }
  }
}
layer {
  name: "relu2_p"
  type: "ReLU"
  bottom: "conv2_p"
  top: "conv2_p"
}
layer {
  name: "norm2_p"
  type: "LRN"
  bottom: "conv2_p"
  top: "norm2_p"
  lrn_param {
    local_size: 5
    alpha: 0.0001
    beta: 0.75
  }
}
layer {
  name: "pool2_p"
  type: "Pooling"
  bottom: "norm2_p"
  top: "pool2_p"
  pooling_param {
    pool: MAX
    kernel_size: 3
    stride: 2
  }
}
layer {
  name: "conv3_p"
  type: "Convolution"
  bottom: "pool2_p"
  top: "conv3_p"
  param {
    lr_mult: 1
    decay_mult: 1
  }
  param {
    lr_mult: 2
    decay_mult: 0
  }
  convolution_param {
    num_output: 384
    pad: 1
    kernel_size: 3
    weight_filler {
      type: "gaussian"
      std: 0.01
    }
    bias_filler {
      type: "constant"
      value: 0
    }
  }
}
layer {
  name: "relu3_p"
  type: "ReLU"
  bottom: "conv3_p"
  top: "conv3_p"
}
layer {
  name: "conv4_p"
  type: "Convolution"
  bottom: "conv3_p"
  top: "conv4_p"
  param {
    lr_mult: 1
    decay_mult: 1
  }
  param {
    lr_mult: 2
    decay_mult: 0
  }
  convolution_param {
    num_output: 384
    pad: 1
    kernel_size: 3
    group: 2
    weight_filler {
      type: "gaussian"
      std: 0.01
    }
    bias_filler {
      type: "constant"
      value: 0.1
    }
  }
}
layer {
  name: "relu4_p"
  type: "ReLU"
  bottom: "conv4_p"
  top: "conv4_p"
}
layer {
  name: "conv5_p"
  type: "Convolution"
  bottom: "conv4_p"
  top: "conv5_p"
  param {
    lr_mult: 1
    decay_mult: 1
  }
  param {
    lr_mult: 2
    decay_mult: 0
  }
  convolution_param {
    num_output: 256
    pad: 1
    kernel_size: 3
    group: 2
    weight_filler {
      type: "gaussian"
      std: 0.01
    }
    bias_filler {
      type: "constant"
      value: 0.1
    }
  }
}
layer {
  name: "relu5_p"
  type: "ReLU"
  bottom: "conv5_p"
  top: "conv5_p"
}
layer {
  name: "pool5_p"
  type: "Pooling"
  bottom: "conv5_p"
  top: "pool5_p"
  pooling_param {
    pool: MAX
    kernel_size: 3
    stride: 2
  }
}
layer {
  name: "fc6_p"
  type: "InnerProduct"
  bottom: "pool5_p"
  top: "fc6_p"
  param {
    lr_mult: 1
    decay_mult: 1
  }
  param {
    lr_mult: 2
    decay_mult: 0
  }
  inner_product_param {
    num_output: 4096
    weight_filler {
      type: "gaussian"
      std: 0.005
    }
    bias_filler {
      type: "constant"
      value: 0.1
    }
  }
}
layer {
  name: "relu6_p"
  type: "ReLU"
  bottom: "fc6_p"
  top: "fc6_p"
}
layer {
  name: "drop6_p"
  type: "Dropout"
  bottom: "fc6_p"
  top: "fc6_p"
  dropout_param {
    dropout_ratio: 0.5
  }
}
layer {
  name: "fc7_p"
  type: "InnerProduct"
  bottom: "fc6_p"
  top: "fc7_p"
  param {
    lr_mult: 1
    decay_mult: 1
  }
  param {
    lr_mult: 2
    decay_mult: 0
  }
  inner_product_param {
    num_output: 4096
    weight_filler {
      type: "gaussian"
      std: 0.005
    }
    bias_filler {
      type: "constant"
      value: 0.1
    }
  }
}
layer {
  name: "relu7_p"
  type: "ReLU"
  bottom: "fc7_p"
  top: "fc7_p"
}
layer {
  name: "drop7_p"
  type: "Dropout"
  bottom: "fc7_p"
  top: "fc7_p"
  dropout_param {
    dropout_ratio: 0.5
  }
}
layer {
  name: "fc8_p"
  type: "InnerProduct"
  bottom: "fc7_p"
  top: "fc8_p"
  param {
    lr_mult: 1
    decay_mult: 1
  }
  param {
    lr_mult: 2
    decay_mult: 0
  }
  inner_product_param {
    num_output: 504
    weight_filler {
      type: "gaussian"
      std: 0.01
    }
    bias_filler {
      type: "constant"
      value: 0
    }
  }
}
layer {
  name: "precision@1"
  type: "Accuracy"
  bottom: "fc8_p"
  bottom: "label"
  top: "precision@1"
  include {
    phase: TEST
  }
}
layer {
  name: "precision@5"
  type: "Accuracy"
  bottom: "fc8_p"
  bottom: "label"
  top: "precision@5"
  include {
    phase: TEST
  }
  accuracy_param {
    top_k: 5
  }
}
layer {
  name: "fc7_pn"
  type: "L2Norm"
  bottom: "fc7_p"
  top: "fc7_pn"
}
layer {
  name: "loss_p1"
  type: "EuclideanLoss"
  bottom: "fc7_n"
  bottom: "fc7_pn"
  top: "loss_p1"
  loss_weight: -0.35
}
layer {
  name: "loss_p2"
  type: "SoftmaxWithLoss"
  bottom: "fc8_p"
  bottom: "label"
  top: "loss_p2"
  loss_weight: 0.65
}
I1028 01:25:50.055783 62912 layer_factory.hpp:77] Creating layer data
I1028 01:25:50.055929 62912 net.cpp:91] Creating Layer data
I1028 01:25:50.055941 62912 net.cpp:399] data -> data
I1028 01:25:50.055950 62912 net.cpp:399] data -> label
I1028 01:25:50.055958 62912 data_transformer.cpp:25] Loading mean file from: examples/imagenet/imagenet_mean.binaryproto
I1028 01:25:50.067203 63025 db_lmdb.cpp:35] Opened lmdb /work/03713/harshal1/maverick/vision_proj/data/val_lmdb
I1028 01:25:50.068464 62912 data_layer.cpp:41] output data size: 50,3,227,227
I1028 01:25:50.127619 62912 net.cpp:141] Setting up data
I1028 01:25:50.127655 62912 net.cpp:148] Top shape: 50 3 227 227 (7729350)
I1028 01:25:50.127660 62912 net.cpp:148] Top shape: 50 (50)
I1028 01:25:50.127665 62912 net.cpp:156] Memory required for data: 30917600
I1028 01:25:50.127672 62912 layer_factory.hpp:77] Creating layer data_data_0_split
I1028 01:25:50.127693 62912 net.cpp:91] Creating Layer data_data_0_split
I1028 01:25:50.127698 62912 net.cpp:425] data_data_0_split <- data
I1028 01:25:50.127708 62912 net.cpp:399] data_data_0_split -> data_data_0_split_0
I1028 01:25:50.127725 62912 net.cpp:399] data_data_0_split -> data_data_0_split_1
I1028 01:25:50.127820 62912 net.cpp:141] Setting up data_data_0_split
I1028 01:25:50.127830 62912 net.cpp:148] Top shape: 50 3 227 227 (7729350)
I1028 01:25:50.127872 62912 net.cpp:148] Top shape: 50 3 227 227 (7729350)
I1028 01:25:50.127876 62912 net.cpp:156] Memory required for data: 92752400
I1028 01:25:50.127881 62912 layer_factory.hpp:77] Creating layer label_data_1_split
I1028 01:25:50.127888 62912 net.cpp:91] Creating Layer label_data_1_split
I1028 01:25:50.127897 62912 net.cpp:425] label_data_1_split <- label
I1028 01:25:50.127904 62912 net.cpp:399] label_data_1_split -> label_data_1_split_0
I1028 01:25:50.127912 62912 net.cpp:399] label_data_1_split -> label_data_1_split_1
I1028 01:25:50.127918 62912 net.cpp:399] label_data_1_split -> label_data_1_split_2
I1028 01:25:50.127979 62912 net.cpp:141] Setting up label_data_1_split
I1028 01:25:50.127990 62912 net.cpp:148] Top shape: 50 (50)
I1028 01:25:50.127993 62912 net.cpp:148] Top shape: 50 (50)
I1028 01:25:50.127996 62912 net.cpp:148] Top shape: 50 (50)
I1028 01:25:50.128000 62912 net.cpp:156] Memory required for data: 92753000
I1028 01:25:50.128003 62912 layer_factory.hpp:77] Creating layer conv1
I1028 01:25:50.128021 62912 net.cpp:91] Creating Layer conv1
I1028 01:25:50.128026 62912 net.cpp:425] conv1 <- data_data_0_split_0
I1028 01:25:50.128033 62912 net.cpp:399] conv1 -> conv1
I1028 01:25:50.132396 62912 net.cpp:141] Setting up conv1
I1028 01:25:50.132410 62912 net.cpp:148] Top shape: 50 96 55 55 (14520000)
I1028 01:25:50.132426 62912 net.cpp:156] Memory required for data: 150833000
I1028 01:25:50.132438 62912 layer_factory.hpp:77] Creating layer relu1
I1028 01:25:50.132447 62912 net.cpp:91] Creating Layer relu1
I1028 01:25:50.132452 62912 net.cpp:425] relu1 <- conv1
I1028 01:25:50.132457 62912 net.cpp:386] relu1 -> conv1 (in-place)
I1028 01:25:50.132733 62912 net.cpp:141] Setting up relu1
I1028 01:25:50.132745 62912 net.cpp:148] Top shape: 50 96 55 55 (14520000)
I1028 01:25:50.132750 62912 net.cpp:156] Memory required for data: 208913000
I1028 01:25:50.132753 62912 layer_factory.hpp:77] Creating layer norm1
I1028 01:25:50.132763 62912 net.cpp:91] Creating Layer norm1
I1028 01:25:50.132768 62912 net.cpp:425] norm1 <- conv1
I1028 01:25:50.132774 62912 net.cpp:399] norm1 -> norm1
I1028 01:25:50.133080 62912 net.cpp:141] Setting up norm1
I1028 01:25:50.133092 62912 net.cpp:148] Top shape: 50 96 55 55 (14520000)
I1028 01:25:50.133096 62912 net.cpp:156] Memory required for data: 266993000
I1028 01:25:50.133100 62912 layer_factory.hpp:77] Creating layer pool1
I1028 01:25:50.133110 62912 net.cpp:91] Creating Layer pool1
I1028 01:25:50.133113 62912 net.cpp:425] pool1 <- norm1
I1028 01:25:50.133119 62912 net.cpp:399] pool1 -> pool1
I1028 01:25:50.133164 62912 net.cpp:141] Setting up pool1
I1028 01:25:50.133172 62912 net.cpp:148] Top shape: 50 96 27 27 (3499200)
I1028 01:25:50.133177 62912 net.cpp:156] Memory required for data: 280989800
I1028 01:25:50.133179 62912 layer_factory.hpp:77] Creating layer conv2
I1028 01:25:50.133190 62912 net.cpp:91] Creating Layer conv2
I1028 01:25:50.133194 62912 net.cpp:425] conv2 <- pool1
I1028 01:25:50.133203 62912 net.cpp:399] conv2 -> conv2
I1028 01:25:50.139619 62912 net.cpp:141] Setting up conv2
I1028 01:25:50.139645 62912 net.cpp:148] Top shape: 50 256 27 27 (9331200)
I1028 01:25:50.139649 62912 net.cpp:156] Memory required for data: 318314600
I1028 01:25:50.139659 62912 layer_factory.hpp:77] Creating layer relu2
I1028 01:25:50.139668 62912 net.cpp:91] Creating Layer relu2
I1028 01:25:50.139673 62912 net.cpp:425] relu2 <- conv2
I1028 01:25:50.139679 62912 net.cpp:386] relu2 -> conv2 (in-place)
I1028 01:25:50.139972 62912 net.cpp:141] Setting up relu2
I1028 01:25:50.139986 62912 net.cpp:148] Top shape: 50 256 27 27 (9331200)
I1028 01:25:50.139988 62912 net.cpp:156] Memory required for data: 355639400
I1028 01:25:50.139992 62912 layer_factory.hpp:77] Creating layer norm2
I1028 01:25:50.140000 62912 net.cpp:91] Creating Layer norm2
I1028 01:25:50.140004 62912 net.cpp:425] norm2 <- conv2
I1028 01:25:50.140012 62912 net.cpp:399] norm2 -> norm2
I1028 01:25:50.140199 62912 net.cpp:141] Setting up norm2
I1028 01:25:50.140210 62912 net.cpp:148] Top shape: 50 256 27 27 (9331200)
I1028 01:25:50.140229 62912 net.cpp:156] Memory required for data: 392964200
I1028 01:25:50.140234 62912 layer_factory.hpp:77] Creating layer pool2
I1028 01:25:50.140242 62912 net.cpp:91] Creating Layer pool2
I1028 01:25:50.140246 62912 net.cpp:425] pool2 <- norm2
I1028 01:25:50.140252 62912 net.cpp:399] pool2 -> pool2
I1028 01:25:50.140296 62912 net.cpp:141] Setting up pool2
I1028 01:25:50.140305 62912 net.cpp:148] Top shape: 50 256 13 13 (2163200)
I1028 01:25:50.140308 62912 net.cpp:156] Memory required for data: 401617000
I1028 01:25:50.140312 62912 layer_factory.hpp:77] Creating layer conv3
I1028 01:25:50.140323 62912 net.cpp:91] Creating Layer conv3
I1028 01:25:50.140328 62912 net.cpp:425] conv3 <- pool2
I1028 01:25:50.140336 62912 net.cpp:399] conv3 -> conv3
I1028 01:25:50.155567 62912 net.cpp:141] Setting up conv3
I1028 01:25:50.155607 62912 net.cpp:148] Top shape: 50 384 13 13 (3244800)
I1028 01:25:50.155611 62912 net.cpp:156] Memory required for data: 414596200
I1028 01:25:50.155628 62912 layer_factory.hpp:77] Creating layer relu3
I1028 01:25:50.155643 62912 net.cpp:91] Creating Layer relu3
I1028 01:25:50.155648 62912 net.cpp:425] relu3 <- conv3
I1028 01:25:50.155658 62912 net.cpp:386] relu3 -> conv3 (in-place)
I1028 01:25:50.155951 62912 net.cpp:141] Setting up relu3
I1028 01:25:50.155966 62912 net.cpp:148] Top shape: 50 384 13 13 (3244800)
I1028 01:25:50.155969 62912 net.cpp:156] Memory required for data: 427575400
I1028 01:25:50.155973 62912 layer_factory.hpp:77] Creating layer conv4
I1028 01:25:50.155989 62912 net.cpp:91] Creating Layer conv4
I1028 01:25:50.155993 62912 net.cpp:425] conv4 <- conv3
I1028 01:25:50.156002 62912 net.cpp:399] conv4 -> conv4
I1028 01:25:50.168009 62912 net.cpp:141] Setting up conv4
I1028 01:25:50.168037 62912 net.cpp:148] Top shape: 50 384 13 13 (3244800)
I1028 01:25:50.168042 62912 net.cpp:156] Memory required for data: 440554600
I1028 01:25:50.168050 62912 layer_factory.hpp:77] Creating layer relu4
I1028 01:25:50.168059 62912 net.cpp:91] Creating Layer relu4
I1028 01:25:50.168063 62912 net.cpp:425] relu4 <- conv4
I1028 01:25:50.168071 62912 net.cpp:386] relu4 -> conv4 (in-place)
I1028 01:25:50.168339 62912 net.cpp:141] Setting up relu4
I1028 01:25:50.168351 62912 net.cpp:148] Top shape: 50 384 13 13 (3244800)
I1028 01:25:50.168355 62912 net.cpp:156] Memory required for data: 453533800
I1028 01:25:50.168359 62912 layer_factory.hpp:77] Creating layer conv5
I1028 01:25:50.168371 62912 net.cpp:91] Creating Layer conv5
I1028 01:25:50.168376 62912 net.cpp:425] conv5 <- conv4
I1028 01:25:50.168383 62912 net.cpp:399] conv5 -> conv5
I1028 01:25:50.176946 62912 net.cpp:141] Setting up conv5
I1028 01:25:50.176975 62912 net.cpp:148] Top shape: 50 256 13 13 (2163200)
I1028 01:25:50.176980 62912 net.cpp:156] Memory required for data: 462186600
I1028 01:25:50.176992 62912 layer_factory.hpp:77] Creating layer relu5
I1028 01:25:50.177004 62912 net.cpp:91] Creating Layer relu5
I1028 01:25:50.177008 62912 net.cpp:425] relu5 <- conv5
I1028 01:25:50.177016 62912 net.cpp:386] relu5 -> conv5 (in-place)
I1028 01:25:50.177289 62912 net.cpp:141] Setting up relu5
I1028 01:25:50.177299 62912 net.cpp:148] Top shape: 50 256 13 13 (2163200)
I1028 01:25:50.177304 62912 net.cpp:156] Memory required for data: 470839400
I1028 01:25:50.177307 62912 layer_factory.hpp:77] Creating layer pool5
I1028 01:25:50.177316 62912 net.cpp:91] Creating Layer pool5
I1028 01:25:50.177320 62912 net.cpp:425] pool5 <- conv5
I1028 01:25:50.177327 62912 net.cpp:399] pool5 -> pool5
I1028 01:25:50.177381 62912 net.cpp:141] Setting up pool5
I1028 01:25:50.177391 62912 net.cpp:148] Top shape: 50 256 6 6 (460800)
I1028 01:25:50.177393 62912 net.cpp:156] Memory required for data: 472682600
I1028 01:25:50.177397 62912 layer_factory.hpp:77] Creating layer fc6
I1028 01:25:50.177412 62912 net.cpp:91] Creating Layer fc6
I1028 01:25:50.177415 62912 net.cpp:425] fc6 <- pool5
I1028 01:25:50.177423 62912 net.cpp:399] fc6 -> fc6
I1028 01:25:50.730541 62912 net.cpp:141] Setting up fc6
I1028 01:25:50.730592 62912 net.cpp:148] Top shape: 50 4096 (204800)
I1028 01:25:50.730633 62912 net.cpp:156] Memory required for data: 473501800
I1028 01:25:50.730648 62912 layer_factory.hpp:77] Creating layer relu6
I1028 01:25:50.730665 62912 net.cpp:91] Creating Layer relu6
I1028 01:25:50.730671 62912 net.cpp:425] relu6 <- fc6
I1028 01:25:50.730681 62912 net.cpp:386] relu6 -> fc6 (in-place)
I1028 01:25:50.730931 62912 net.cpp:141] Setting up relu6
I1028 01:25:50.730942 62912 net.cpp:148] Top shape: 50 4096 (204800)
I1028 01:25:50.730944 62912 net.cpp:156] Memory required for data: 474321000
I1028 01:25:50.730948 62912 layer_factory.hpp:77] Creating layer drop6
I1028 01:25:50.730958 62912 net.cpp:91] Creating Layer drop6
I1028 01:25:50.730962 62912 net.cpp:425] drop6 <- fc6
I1028 01:25:50.730968 62912 net.cpp:386] drop6 -> fc6 (in-place)
I1028 01:25:50.731001 62912 net.cpp:141] Setting up drop6
I1028 01:25:50.731009 62912 net.cpp:148] Top shape: 50 4096 (204800)
I1028 01:25:50.731012 62912 net.cpp:156] Memory required for data: 475140200
I1028 01:25:50.731015 62912 layer_factory.hpp:77] Creating layer fc7
I1028 01:25:50.731027 62912 net.cpp:91] Creating Layer fc7
I1028 01:25:50.731030 62912 net.cpp:425] fc7 <- fc6
I1028 01:25:50.731037 62912 net.cpp:399] fc7 -> fc7
I1028 01:25:50.967649 62912 net.cpp:141] Setting up fc7
I1028 01:25:50.967700 62912 net.cpp:148] Top shape: 50 4096 (204800)
I1028 01:25:50.967706 62912 net.cpp:156] Memory required for data: 475959400
I1028 01:25:50.967718 62912 layer_factory.hpp:77] Creating layer fc7_n
I1028 01:25:50.967736 62912 net.cpp:91] Creating Layer fc7_n
I1028 01:25:50.967741 62912 net.cpp:425] fc7_n <- fc7
I1028 01:25:50.967753 62912 net.cpp:399] fc7_n -> fc7_n
I1028 01:25:50.967792 62912 net.cpp:141] Setting up fc7_n
I1028 01:25:50.967799 62912 net.cpp:148] Top shape: 50 4096 (204800)
I1028 01:25:50.967803 62912 net.cpp:156] Memory required for data: 476778600
I1028 01:25:50.967805 62912 layer_factory.hpp:77] Creating layer conv1_p
I1028 01:25:50.967824 62912 net.cpp:91] Creating Layer conv1_p
I1028 01:25:50.967828 62912 net.cpp:425] conv1_p <- data_data_0_split_1
I1028 01:25:50.967835 62912 net.cpp:399] conv1_p -> conv1_p
I1028 01:25:50.969449 62912 net.cpp:141] Setting up conv1_p
I1028 01:25:50.969460 62912 net.cpp:148] Top shape: 50 96 55 55 (14520000)
I1028 01:25:50.969475 62912 net.cpp:156] Memory required for data: 534858600
I1028 01:25:50.969482 62912 layer_factory.hpp:77] Creating layer relu1_p
I1028 01:25:50.969491 62912 net.cpp:91] Creating Layer relu1_p
I1028 01:25:50.969494 62912 net.cpp:425] relu1_p <- conv1_p
I1028 01:25:50.969501 62912 net.cpp:386] relu1_p -> conv1_p (in-place)
I1028 01:25:50.969755 62912 net.cpp:141] Setting up relu1_p
I1028 01:25:50.969766 62912 net.cpp:148] Top shape: 50 96 55 55 (14520000)
I1028 01:25:50.969769 62912 net.cpp:156] Memory required for data: 592938600
I1028 01:25:50.969774 62912 layer_factory.hpp:77] Creating layer norm1_p
I1028 01:25:50.969784 62912 net.cpp:91] Creating Layer norm1_p
I1028 01:25:50.969787 62912 net.cpp:425] norm1_p <- conv1_p
I1028 01:25:50.969794 62912 net.cpp:399] norm1_p -> norm1_p
I1028 01:25:50.969990 62912 net.cpp:141] Setting up norm1_p
I1028 01:25:50.970001 62912 net.cpp:148] Top shape: 50 96 55 55 (14520000)
I1028 01:25:50.970005 62912 net.cpp:156] Memory required for data: 651018600
I1028 01:25:50.970008 62912 layer_factory.hpp:77] Creating layer pool1_p
I1028 01:25:50.970016 62912 net.cpp:91] Creating Layer pool1_p
I1028 01:25:50.970021 62912 net.cpp:425] pool1_p <- norm1_p
I1028 01:25:50.970026 62912 net.cpp:399] pool1_p -> pool1_p
I1028 01:25:50.970070 62912 net.cpp:141] Setting up pool1_p
I1028 01:25:50.970077 62912 net.cpp:148] Top shape: 50 96 27 27 (3499200)
I1028 01:25:50.970082 62912 net.cpp:156] Memory required for data: 665015400
I1028 01:25:50.970084 62912 layer_factory.hpp:77] Creating layer conv2_p
I1028 01:25:50.970095 62912 net.cpp:91] Creating Layer conv2_p
I1028 01:25:50.970099 62912 net.cpp:425] conv2_p <- pool1_p
I1028 01:25:50.970106 62912 net.cpp:399] conv2_p -> conv2_p
I1028 01:25:50.976050 62912 net.cpp:141] Setting up conv2_p
I1028 01:25:50.976091 62912 net.cpp:148] Top shape: 50 256 27 27 (9331200)
I1028 01:25:50.976107 62912 net.cpp:156] Memory required for data: 702340200
I1028 01:25:50.976121 62912 layer_factory.hpp:77] Creating layer relu2_p
I1028 01:25:50.976130 62912 net.cpp:91] Creating Layer relu2_p
I1028 01:25:50.976133 62912 net.cpp:425] relu2_p <- conv2_p
I1028 01:25:50.976140 62912 net.cpp:386] relu2_p -> conv2_p (in-place)
I1028 01:25:50.976294 62912 net.cpp:141] Setting up relu2_p
I1028 01:25:50.976305 62912 net.cpp:148] Top shape: 50 256 27 27 (9331200)
I1028 01:25:50.976307 62912 net.cpp:156] Memory required for data: 739665000
I1028 01:25:50.976310 62912 layer_factory.hpp:77] Creating layer norm2_p
I1028 01:25:50.976317 62912 net.cpp:91] Creating Layer norm2_p
I1028 01:25:50.976321 62912 net.cpp:425] norm2_p <- conv2_p
I1028 01:25:50.976327 62912 net.cpp:399] norm2_p -> norm2_p
I1028 01:25:50.976632 62912 net.cpp:141] Setting up norm2_p
I1028 01:25:50.976642 62912 net.cpp:148] Top shape: 50 256 27 27 (9331200)
I1028 01:25:50.976645 62912 net.cpp:156] Memory required for data: 776989800
I1028 01:25:50.976649 62912 layer_factory.hpp:77] Creating layer pool2_p
I1028 01:25:50.976655 62912 net.cpp:91] Creating Layer pool2_p
I1028 01:25:50.976658 62912 net.cpp:425] pool2_p <- norm2_p
I1028 01:25:50.976665 62912 net.cpp:399] pool2_p -> pool2_p
I1028 01:25:50.976719 62912 net.cpp:141] Setting up pool2_p
I1028 01:25:50.976725 62912 net.cpp:148] Top shape: 50 256 13 13 (2163200)
I1028 01:25:50.976728 62912 net.cpp:156] Memory required for data: 785642600
I1028 01:25:50.976732 62912 layer_factory.hpp:77] Creating layer conv3_p
I1028 01:25:50.976744 62912 net.cpp:91] Creating Layer conv3_p
I1028 01:25:50.976748 62912 net.cpp:425] conv3_p <- pool2_p
I1028 01:25:50.976754 62912 net.cpp:399] conv3_p -> conv3_p
I1028 01:25:50.990119 62912 net.cpp:141] Setting up conv3_p
I1028 01:25:50.990130 62912 net.cpp:148] Top shape: 50 384 13 13 (3244800)
I1028 01:25:50.990147 62912 net.cpp:156] Memory required for data: 798621800
I1028 01:25:50.990154 62912 layer_factory.hpp:77] Creating layer relu3_p
I1028 01:25:50.990164 62912 net.cpp:91] Creating Layer relu3_p
I1028 01:25:50.990167 62912 net.cpp:425] relu3_p <- conv3_p
I1028 01:25:50.990175 62912 net.cpp:386] relu3_p -> conv3_p (in-place)
I1028 01:25:50.990326 62912 net.cpp:141] Setting up relu3_p
I1028 01:25:50.990335 62912 net.cpp:148] Top shape: 50 384 13 13 (3244800)
I1028 01:25:50.990339 62912 net.cpp:156] Memory required for data: 811601000
I1028 01:25:50.990342 62912 layer_factory.hpp:77] Creating layer conv4_p
I1028 01:25:50.990353 62912 net.cpp:91] Creating Layer conv4_p
I1028 01:25:50.990357 62912 net.cpp:425] conv4_p <- conv3_p
I1028 01:25:50.990365 62912 net.cpp:399] conv4_p -> conv4_p
I1028 01:25:51.001267 62912 net.cpp:141] Setting up conv4_p
I1028 01:25:51.001291 62912 net.cpp:148] Top shape: 50 384 13 13 (3244800)
I1028 01:25:51.001294 62912 net.cpp:156] Memory required for data: 824580200
I1028 01:25:51.001301 62912 layer_factory.hpp:77] Creating layer relu4_p
I1028 01:25:51.001309 62912 net.cpp:91] Creating Layer relu4_p
I1028 01:25:51.001313 62912 net.cpp:425] relu4_p <- conv4_p
I1028 01:25:51.001318 62912 net.cpp:386] relu4_p -> conv4_p (in-place)
I1028 01:25:51.001471 62912 net.cpp:141] Setting up relu4_p
I1028 01:25:51.001482 62912 net.cpp:148] Top shape: 50 384 13 13 (3244800)
I1028 01:25:51.001484 62912 net.cpp:156] Memory required for data: 837559400
I1028 01:25:51.001488 62912 layer_factory.hpp:77] Creating layer conv5_p
I1028 01:25:51.001499 62912 net.cpp:91] Creating Layer conv5_p
I1028 01:25:51.001503 62912 net.cpp:425] conv5_p <- conv4_p
I1028 01:25:51.001510 62912 net.cpp:399] conv5_p -> conv5_p
I1028 01:25:51.009323 62912 net.cpp:141] Setting up conv5_p
I1028 01:25:51.009335 62912 net.cpp:148] Top shape: 50 256 13 13 (2163200)
I1028 01:25:51.009349 62912 net.cpp:156] Memory required for data: 846212200
I1028 01:25:51.009356 62912 layer_factory.hpp:77] Creating layer relu5_p
I1028 01:25:51.009364 62912 net.cpp:91] Creating Layer relu5_p
I1028 01:25:51.009383 62912 net.cpp:425] relu5_p <- conv5_p
I1028 01:25:51.009390 62912 net.cpp:386] relu5_p -> conv5_p (in-place)
I1028 01:25:51.009543 62912 net.cpp:141] Setting up relu5_p
I1028 01:25:51.009554 62912 net.cpp:148] Top shape: 50 256 13 13 (2163200)
I1028 01:25:51.009557 62912 net.cpp:156] Memory required for data: 854865000
I1028 01:25:51.009562 62912 layer_factory.hpp:77] Creating layer pool5_p
I1028 01:25:51.009567 62912 net.cpp:91] Creating Layer pool5_p
I1028 01:25:51.009572 62912 net.cpp:425] pool5_p <- conv5_p
I1028 01:25:51.009578 62912 net.cpp:399] pool5_p -> pool5_p
I1028 01:25:51.009624 62912 net.cpp:141] Setting up pool5_p
I1028 01:25:51.009631 62912 net.cpp:148] Top shape: 50 256 6 6 (460800)
I1028 01:25:51.009634 62912 net.cpp:156] Memory required for data: 856708200
I1028 01:25:51.009637 62912 layer_factory.hpp:77] Creating layer fc6_p
I1028 01:25:51.009649 62912 net.cpp:91] Creating Layer fc6_p
I1028 01:25:51.009652 62912 net.cpp:425] fc6_p <- pool5_p
I1028 01:25:51.009659 62912 net.cpp:399] fc6_p -> fc6_p
I1028 01:25:51.540937 62912 net.cpp:141] Setting up fc6_p
I1028 01:25:51.540988 62912 net.cpp:148] Top shape: 50 4096 (204800)
I1028 01:25:51.540993 62912 net.cpp:156] Memory required for data: 857527400
I1028 01:25:51.541004 62912 layer_factory.hpp:77] Creating layer relu6_p
I1028 01:25:51.541023 62912 net.cpp:91] Creating Layer relu6_p
I1028 01:25:51.541028 62912 net.cpp:425] relu6_p <- fc6_p
I1028 01:25:51.541040 62912 net.cpp:386] relu6_p -> fc6_p (in-place)
I1028 01:25:51.541527 62912 net.cpp:141] Setting up relu6_p
I1028 01:25:51.541535 62912 net.cpp:148] Top shape: 50 4096 (204800)
I1028 01:25:51.541551 62912 net.cpp:156] Memory required for data: 858346600
I1028 01:25:51.541554 62912 layer_factory.hpp:77] Creating layer drop6_p
I1028 01:25:51.541566 62912 net.cpp:91] Creating Layer drop6_p
I1028 01:25:51.541570 62912 net.cpp:425] drop6_p <- fc6_p
I1028 01:25:51.541575 62912 net.cpp:386] drop6_p -> fc6_p (in-place)
I1028 01:25:51.541610 62912 net.cpp:141] Setting up drop6_p
I1028 01:25:51.541616 62912 net.cpp:148] Top shape: 50 4096 (204800)
I1028 01:25:51.541620 62912 net.cpp:156] Memory required for data: 859165800
I1028 01:25:51.541623 62912 layer_factory.hpp:77] Creating layer fc7_p
I1028 01:25:51.541633 62912 net.cpp:91] Creating Layer fc7_p
I1028 01:25:51.541637 62912 net.cpp:425] fc7_p <- fc6_p
I1028 01:25:51.541646 62912 net.cpp:399] fc7_p -> fc7_p
I1028 01:25:51.777567 62912 net.cpp:141] Setting up fc7_p
I1028 01:25:51.777617 62912 net.cpp:148] Top shape: 50 4096 (204800)
I1028 01:25:51.777621 62912 net.cpp:156] Memory required for data: 859985000
I1028 01:25:51.777634 62912 layer_factory.hpp:77] Creating layer relu7_p
I1028 01:25:51.777652 62912 net.cpp:91] Creating Layer relu7_p
I1028 01:25:51.777657 62912 net.cpp:425] relu7_p <- fc7_p
I1028 01:25:51.777669 62912 net.cpp:386] relu7_p -> fc7_p (in-place)
I1028 01:25:51.778141 62912 net.cpp:141] Setting up relu7_p
I1028 01:25:51.778151 62912 net.cpp:148] Top shape: 50 4096 (204800)
I1028 01:25:51.778154 62912 net.cpp:156] Memory required for data: 860804200
I1028 01:25:51.778157 62912 layer_factory.hpp:77] Creating layer drop7_p
I1028 01:25:51.778167 62912 net.cpp:91] Creating Layer drop7_p
I1028 01:25:51.778170 62912 net.cpp:425] drop7_p <- fc7_p
I1028 01:25:51.778178 62912 net.cpp:386] drop7_p -> fc7_p (in-place)
I1028 01:25:51.778214 62912 net.cpp:141] Setting up drop7_p
I1028 01:25:51.778223 62912 net.cpp:148] Top shape: 50 4096 (204800)
I1028 01:25:51.778225 62912 net.cpp:156] Memory required for data: 861623400
I1028 01:25:51.778228 62912 layer_factory.hpp:77] Creating layer fc7_p_drop7_p_0_split
I1028 01:25:51.778235 62912 net.cpp:91] Creating Layer fc7_p_drop7_p_0_split
I1028 01:25:51.778239 62912 net.cpp:425] fc7_p_drop7_p_0_split <- fc7_p
I1028 01:25:51.778244 62912 net.cpp:399] fc7_p_drop7_p_0_split -> fc7_p_drop7_p_0_split_0
I1028 01:25:51.778262 62912 net.cpp:399] fc7_p_drop7_p_0_split -> fc7_p_drop7_p_0_split_1
I1028 01:25:51.778306 62912 net.cpp:141] Setting up fc7_p_drop7_p_0_split
I1028 01:25:51.778316 62912 net.cpp:148] Top shape: 50 4096 (204800)
I1028 01:25:51.778352 62912 net.cpp:148] Top shape: 50 4096 (204800)
I1028 01:25:51.778357 62912 net.cpp:156] Memory required for data: 863261800
I1028 01:25:51.778359 62912 layer_factory.hpp:77] Creating layer fc8_p
I1028 01:25:51.778370 62912 net.cpp:91] Creating Layer fc8_p
I1028 01:25:51.778374 62912 net.cpp:425] fc8_p <- fc7_p_drop7_p_0_split_0
I1028 01:25:51.778383 62912 net.cpp:399] fc8_p -> fc8_p
I1028 01:25:51.807173 62912 net.cpp:141] Setting up fc8_p
I1028 01:25:51.807183 62912 net.cpp:148] Top shape: 50 504 (25200)
I1028 01:25:51.807199 62912 net.cpp:156] Memory required for data: 863362600
I1028 01:25:51.807205 62912 layer_factory.hpp:77] Creating layer fc8_p_fc8_p_0_split
I1028 01:25:51.807212 62912 net.cpp:91] Creating Layer fc8_p_fc8_p_0_split
I1028 01:25:51.807216 62912 net.cpp:425] fc8_p_fc8_p_0_split <- fc8_p
I1028 01:25:51.807224 62912 net.cpp:399] fc8_p_fc8_p_0_split -> fc8_p_fc8_p_0_split_0
I1028 01:25:51.807230 62912 net.cpp:399] fc8_p_fc8_p_0_split -> fc8_p_fc8_p_0_split_1
I1028 01:25:51.807236 62912 net.cpp:399] fc8_p_fc8_p_0_split -> fc8_p_fc8_p_0_split_2
I1028 01:25:51.807288 62912 net.cpp:141] Setting up fc8_p_fc8_p_0_split
I1028 01:25:51.807296 62912 net.cpp:148] Top shape: 50 504 (25200)
I1028 01:25:51.807299 62912 net.cpp:148] Top shape: 50 504 (25200)
I1028 01:25:51.807303 62912 net.cpp:148] Top shape: 50 504 (25200)
I1028 01:25:51.807306 62912 net.cpp:156] Memory required for data: 863665000
I1028 01:25:51.807308 62912 layer_factory.hpp:77] Creating layer precision@1
I1028 01:25:51.807368 62912 net.cpp:91] Creating Layer precision@1
I1028 01:25:51.807374 62912 net.cpp:425] precision@1 <- fc8_p_fc8_p_0_split_0
I1028 01:25:51.807380 62912 net.cpp:425] precision@1 <- label_data_1_split_0
I1028 01:25:51.807385 62912 net.cpp:399] precision@1 -> precision@1
…
