…
I1028 02:50:53.534430 63928 net.cpp:313] The NetState phase (0) differed from the phase (1) specified by a rule in layer precision@5
I1028 02:50:53.535537 63928 net.cpp:49] Initializing net from parameters: 
name: "AlexNet"
state {
  phase: TRAIN
}
layer {
  name: "data"
  type: "Data"
  top: "data"
  top: "label"
  include {
    phase: TRAIN
  }
  transform_param {
    mirror: true
    crop_size: 227
    mean_file: "examples/imagenet/imagenet_mean.binaryproto"
  }
  data_param {
    source: "/work/03713/harshal1/maverick/vision_proj/data/train_lmdb"
    batch_size: 256
    backend: LMDB
  }
}
layer {
  name: "conv1"
  type: "Convolution"
  bottom: "data"
  top: "conv1"
  param {
    lr_mult: 0
    decay_mult: 0
  }
  param {
    lr_mult: 0
    decay_mult: 0
  }
  convolution_param {
    num_output: 96
    kernel_size: 11
    stride: 4
    weight_filler {
      type: "gaussian"
      std: 0.01
    }
    bias_filler {
      type: "constant"
      value: 0
    }
  }
}
layer {
  name: "relu1"
  type: "ReLU"
  bottom: "conv1"
  top: "conv1"
}
layer {
  name: "norm1"
  type: "LRN"
  bottom: "conv1"
  top: "norm1"
  lrn_param {
    local_size: 5
    alpha: 0.0001
    beta: 0.75
  }
}
layer {
  name: "pool1"
  type: "Pooling"
  bottom: "norm1"
  top: "pool1"
  pooling_param {
    pool: MAX
    kernel_size: 3
    stride: 2
  }
}
layer {
  name: "conv2"
  type: "Convolution"
  bottom: "pool1"
  top: "conv2"
  param {
    lr_mult: 0
    decay_mult: 0
  }
  param {
    lr_mult: 0
    decay_mult: 0
  }
  convolution_param {
    num_output: 256
    pad: 2
    kernel_size: 5
    group: 2
    weight_filler {
      type: "gaussian"
      std: 0.01
    }
    bias_filler {
      type: "constant"
      value: 0.1
    }
  }
}
layer {
  name: "relu2"
  type: "ReLU"
  bottom: "conv2"
  top: "conv2"
}
layer {
  name: "norm2"
  type: "LRN"
  bottom: "conv2"
  top: "norm2"
  lrn_param {
    local_size: 5
    alpha: 0.0001
    beta: 0.75
  }
}
layer {
  name: "pool2"
  type: "Pooling"
  bottom: "norm2"
  top: "pool2"
  pooling_param {
    pool: MAX
    kernel_size: 3
    stride: 2
  }
}
layer {
  name: "conv3"
  type: "Convolution"
  bottom: "pool2"
  top: "conv3"
  param {
    lr_mult: 0
    decay_mult: 0
  }
  param {
    lr_mult: 0
    decay_mult: 0
  }
  convolution_param {
    num_output: 384
    pad: 1
    kernel_size: 3
    weight_filler {
      type: "gaussian"
      std: 0.01
    }
    bias_filler {
      type: "constant"
      value: 0
    }
  }
}
layer {
  name: "relu3"
  type: "ReLU"
  bottom: "conv3"
  top: "conv3"
}
layer {
  name: "conv4"
  type: "Convolution"
  bottom: "conv3"
  top: "conv4"
  param {
    lr_mult: 0
    decay_mult: 0
  }
  param {
    lr_mult: 0
    decay_mult: 0
  }
  convolution_param {
    num_output: 384
    pad: 1
    kernel_size: 3
    group: 2
    weight_filler {
      type: "gaussian"
      std: 0.01
    }
    bias_filler {
      type: "constant"
      value: 0.1
    }
  }
}
layer {
  name: "relu4"
  type: "ReLU"
  bottom: "conv4"
  top: "conv4"
}
layer {
  name: "conv5"
  type: "Convolution"
  bottom: "conv4"
  top: "conv5"
  param {
    lr_mult: 0
    decay_mult: 0
  }
  param {
    lr_mult: 0
    decay_mult: 0
  }
  convolution_param {
    num_output: 256
    pad: 1
    kernel_size: 3
    group: 2
    weight_filler {
      type: "gaussian"
      std: 0.01
    }
    bias_filler {
      type: "constant"
      value: 0.1
    }
  }
}
layer {
  name: "relu5"
  type: "ReLU"
  bottom: "conv5"
  top: "conv5"
}
layer {
  name: "pool5"
  type: "Pooling"
  bottom: "conv5"
  top: "pool5"
  pooling_param {
    pool: MAX
    kernel_size: 3
    stride: 2
  }
}
layer {
  name: "fc6"
  type: "InnerProduct"
  bottom: "pool5"
  top: "fc6"
  param {
    lr_mult: 0
    decay_mult: 0
  }
  param {
    lr_mult: 0
    decay_mult: 0
  }
  inner_product_param {
    num_output: 4096
    weight_filler {
      type: "gaussian"
      std: 0.005
    }
    bias_filler {
      type: "constant"
      value: 0.1
    }
  }
}
layer {
  name: "relu6"
  type: "ReLU"
  bottom: "fc6"
  top: "fc6"
}
layer {
  name: "drop6"
  type: "Dropout"
  bottom: "fc6"
  top: "fc6"
  dropout_param {
    dropout_ratio: 0.5
  }
}
layer {
  name: "fc7"
  type: "InnerProduct"
  bottom: "fc6"
  top: "fc7"
  param {
    lr_mult: 0
    decay_mult: 0
  }
  param {
    lr_mult: 0
    decay_mult: 0
  }
  inner_product_param {
    num_output: 4096
    weight_filler {
      type: "gaussian"
      std: 0.005
    }
    bias_filler {
      type: "constant"
      value: 0.1
    }
  }
}
layer {
  name: "fc7_n"
  type: "L2Norm"
  bottom: "fc7"
  top: "fc7_n"
}
layer {
  name: "conv1_p"
  type: "Convolution"
  bottom: "data"
  top: "conv1_p"
  param {
    lr_mult: 1
    decay_mult: 1
  }
  param {
    lr_mult: 2
    decay_mult: 0
  }
  convolution_param {
    num_output: 96
    kernel_size: 11
    stride: 4
    weight_filler {
      type: "gaussian"
      std: 0.01
    }
    bias_filler {
      type: "constant"
      value: 0
    }
  }
}
layer {
  name: "relu1_p"
  type: "ReLU"
  bottom: "conv1_p"
  top: "conv1_p"
}
layer {
  name: "norm1_p"
  type: "LRN"
  bottom: "conv1_p"
  top: "norm1_p"
  lrn_param {
    local_size: 5
    alpha: 0.0001
    beta: 0.75
  }
}
layer {
  name: "pool1_p"
  type: "Pooling"
  bottom: "norm1_p"
  top: "pool1_p"
  pooling_param {
    pool: MAX
    kernel_size: 3
    stride: 2
  }
}
layer {
  name: "conv2_p"
  type: "Convolution"
  bottom: "pool1_p"
  top: "conv2_p"
  param {
    lr_mult: 1
    decay_mult: 1
  }
  param {
    lr_mult: 2
    decay_mult: 0
  }
  convolution_param {
    num_output: 256
    pad: 2
    kernel_size: 5
    group: 2
    weight_filler {
      type: "gaussian"
      std: 0.01
    }
    bias_filler {
      type: "constant"
      value: 0.1
    }
  }
}
layer {
  name: "relu2_p"
  type: "ReLU"
  bottom: "conv2_p"
  top: "conv2_p"
}
layer {
  name: "norm2_p"
  type: "LRN"
  bottom: "conv2_p"
  top: "norm2_p"
  lrn_param {
    local_size: 5
    alpha: 0.0001
    beta: 0.75
  }
}
layer {
  name: "pool2_p"
  type: "Pooling"
  bottom: "norm2_p"
  top: "pool2_p"
  pooling_param {
    pool: MAX
    kernel_size: 3
    stride: 2
  }
}
layer {
  name: "conv3_p"
  type: "Convolution"
  bottom: "pool2_p"
  top: "conv3_p"
  param {
    lr_mult: 1
    decay_mult: 1
  }
  param {
    lr_mult: 2
    decay_mult: 0
  }
  convolution_param {
    num_output: 384
    pad: 1
    kernel_size: 3
    weight_filler {
      type: "gaussian"
      std: 0.01
    }
    bias_filler {
      type: "constant"
      value: 0
    }
  }
}
layer {
  name: "relu3_p"
  type: "ReLU"
  bottom: "conv3_p"
  top: "conv3_p"
}
layer {
  name: "conv4_p"
  type: "Convolution"
  bottom: "conv3_p"
  top: "conv4_p"
  param {
    lr_mult: 1
    decay_mult: 1
  }
  param {
    lr_mult: 2
    decay_mult: 0
  }
  convolution_param {
    num_output: 384
    pad: 1
    kernel_size: 3
    group: 2
    weight_filler {
      type: "gaussian"
      std: 0.01
    }
    bias_filler {
      type: "constant"
      value: 0.1
    }
  }
}
layer {
  name: "relu4_p"
  type: "ReLU"
  bottom: "conv4_p"
  top: "conv4_p"
}
layer {
  name: "conv5_p"
  type: "Convolution"
  bottom: "conv4_p"
  top: "conv5_p"
  param {
    lr_mult: 1
    decay_mult: 1
  }
  param {
    lr_mult: 2
    decay_mult: 0
  }
  convolution_param {
    num_output: 256
    pad: 1
    kernel_size: 3
    group: 2
    weight_filler {
      type: "gaussian"
      std: 0.01
    }
    bias_filler {
      type: "constant"
      value: 0.1
    }
  }
}
layer {
  name: "relu5_p"
  type: "ReLU"
  bottom: "conv5_p"
  top: "conv5_p"
}
layer {
  name: "pool5_p"
  type: "Pooling"
  bottom: "conv5_p"
  top: "pool5_p"
  pooling_param {
    pool: MAX
    kernel_size: 3
    stride: 2
  }
}
layer {
  name: "fc6_p"
  type: "InnerProduct"
  bottom: "pool5_p"
  top: "fc6_p"
  param {
    lr_mult: 1
    decay_mult: 1
  }
  param {
    lr_mult: 2
    decay_mult: 0
  }
  inner_product_param {
    num_output: 4096
    weight_filler {
      type: "gaussian"
      std: 0.005
    }
    bias_filler {
      type: "constant"
      value: 0.1
    }
  }
}
layer {
  name: "relu6_p"
  type: "ReLU"
  bottom: "fc6_p"
  top: "fc6_p"
}
layer {
  name: "drop6_p"
  type: "Dropout"
  bottom: "fc6_p"
  top: "fc6_p"
  dropout_param {
    dropout_ratio: 0.5
  }
}
layer {
  name: "fc7_p"
  type: "InnerProduct"
  bottom: "fc6_p"
  top: "fc7_p"
  param {
    lr_mult: 1
    decay_mult: 1
  }
  param {
    lr_mult: 2
    decay_mult: 0
  }
  inner_product_param {
    num_output: 4096
    weight_filler {
      type: "gaussian"
      std: 0.005
    }
    bias_filler {
      type: "constant"
      value: 0.1
    }
  }
}
layer {
  name: "relu7_p"
  type: "ReLU"
  bottom: "fc7_p"
  top: "fc7_p"
}
layer {
  name: "drop7_p"
  type: "Dropout"
  bottom: "fc7_p"
  top: "fc7_p"
  dropout_param {
    dropout_ratio: 0.5
  }
}
layer {
  name: "fc8_p"
  type: "InnerProduct"
  bottom: "fc7_p"
  top: "fc8_p"
  param {
    lr_mult: 10
    decay_mult: 1
  }
  param {
    lr_mult: 20
    decay_mult: 0
  }
  inner_product_param {
    num_output: 504
    weight_filler {
      type: "gaussian"
      std: 0.01
    }
    bias_filler {
      type: "constant"
      value: 0
    }
  }
}
layer {
  name: "fc7_pn"
  type: "L2Norm"
  bottom: "fc7_p"
  top: "fc7_pn"
}
layer {
  name: "loss_p1"
  type: "EuclideanLoss"
  bottom: "fc7_n"
  bottom: "fc7_pn"
  top: "loss_p1"
  loss_weight: -0.35
}
layer {
  name: "loss_p2"
  type: "SoftmaxWithLoss"
  bottom: "fc8_p"
  bottom: "label"
  top: "loss_p2"
  loss_weight: 0.65
}
I1028 02:50:53.535931 63928 layer_factory.hpp:77] Creating layer data
I1028 02:50:53.536801 63928 net.cpp:91] Creating Layer data
I1028 02:50:53.536854 63928 net.cpp:399] data -> data
I1028 02:50:53.536967 63928 net.cpp:399] data -> label
I1028 02:50:53.537024 63928 data_transformer.cpp:25] Loading mean file from: examples/imagenet/imagenet_mean.binaryproto
I1028 02:50:53.547641 64039 db_lmdb.cpp:35] Opened lmdb /work/03713/harshal1/maverick/vision_proj/data/train_lmdb
I1028 02:50:53.559206 63928 data_layer.cpp:41] output data size: 256,3,227,227
I1028 02:50:53.860445 63928 net.cpp:141] Setting up data
I1028 02:50:53.860577 63928 net.cpp:148] Top shape: 256 3 227 227 (39574272)
I1028 02:50:53.860585 63928 net.cpp:148] Top shape: 256 (256)
I1028 02:50:53.860589 63928 net.cpp:156] Memory required for data: 158298112
I1028 02:50:53.860607 63928 layer_factory.hpp:77] Creating layer data_data_0_split
I1028 02:50:53.860653 63928 net.cpp:91] Creating Layer data_data_0_split
I1028 02:50:53.860687 63928 net.cpp:425] data_data_0_split <- data
I1028 02:50:53.860715 63928 net.cpp:399] data_data_0_split -> data_data_0_split_0
I1028 02:50:53.860733 63928 net.cpp:399] data_data_0_split -> data_data_0_split_1
I1028 02:50:53.860812 63928 net.cpp:141] Setting up data_data_0_split
I1028 02:50:53.860824 63928 net.cpp:148] Top shape: 256 3 227 227 (39574272)
I1028 02:50:53.860828 63928 net.cpp:148] Top shape: 256 3 227 227 (39574272)
I1028 02:50:53.860831 63928 net.cpp:156] Memory required for data: 474892288
I1028 02:50:53.860836 63928 layer_factory.hpp:77] Creating layer conv1
I1028 02:50:53.860893 63928 net.cpp:91] Creating Layer conv1
I1028 02:50:53.860916 63928 net.cpp:425] conv1 <- data_data_0_split_0
I1028 02:50:53.860924 63928 net.cpp:399] conv1 -> conv1
I1028 02:50:54.256157 63928 net.cpp:141] Setting up conv1
I1028 02:50:54.256207 63928 net.cpp:148] Top shape: 256 96 55 55 (74342400)
I1028 02:50:54.256249 63928 net.cpp:156] Memory required for data: 772261888
I1028 02:50:54.256342 63928 layer_factory.hpp:77] Creating layer relu1
I1028 02:50:54.256386 63928 net.cpp:91] Creating Layer relu1
I1028 02:50:54.256397 63928 net.cpp:425] relu1 <- conv1
I1028 02:50:54.256403 63928 net.cpp:386] relu1 -> conv1 (in-place)
I1028 02:50:54.256724 63928 net.cpp:141] Setting up relu1
I1028 02:50:54.256736 63928 net.cpp:148] Top shape: 256 96 55 55 (74342400)
I1028 02:50:54.256738 63928 net.cpp:156] Memory required for data: 1069631488
I1028 02:50:54.256742 63928 layer_factory.hpp:77] Creating layer norm1
I1028 02:50:54.256791 63928 net.cpp:91] Creating Layer norm1
I1028 02:50:54.256799 63928 net.cpp:425] norm1 <- conv1
I1028 02:50:54.256805 63928 net.cpp:399] norm1 -> norm1
I1028 02:50:54.257061 63928 net.cpp:141] Setting up norm1
I1028 02:50:54.257071 63928 net.cpp:148] Top shape: 256 96 55 55 (74342400)
I1028 02:50:54.257074 63928 net.cpp:156] Memory required for data: 1367001088
I1028 02:50:54.257077 63928 layer_factory.hpp:77] Creating layer pool1
I1028 02:50:54.257086 63928 net.cpp:91] Creating Layer pool1
I1028 02:50:54.257089 63928 net.cpp:425] pool1 <- norm1
I1028 02:50:54.257094 63928 net.cpp:399] pool1 -> pool1
I1028 02:50:54.257206 63928 net.cpp:141] Setting up pool1
I1028 02:50:54.257216 63928 net.cpp:148] Top shape: 256 96 27 27 (17915904)
I1028 02:50:54.257220 63928 net.cpp:156] Memory required for data: 1438664704
I1028 02:50:54.257222 63928 layer_factory.hpp:77] Creating layer conv2
I1028 02:50:54.257243 63928 net.cpp:91] Creating Layer conv2
I1028 02:50:54.257247 63928 net.cpp:425] conv2 <- pool1
I1028 02:50:54.257254 63928 net.cpp:399] conv2 -> conv2
I1028 02:50:54.263963 63928 net.cpp:141] Setting up conv2
I1028 02:50:54.263978 63928 net.cpp:148] Top shape: 256 256 27 27 (47775744)
I1028 02:50:54.263994 63928 net.cpp:156] Memory required for data: 1629767680
I1028 02:50:54.264003 63928 layer_factory.hpp:77] Creating layer relu2
I1028 02:50:54.264011 63928 net.cpp:91] Creating Layer relu2
I1028 02:50:54.264014 63928 net.cpp:425] relu2 <- conv2
I1028 02:50:54.264019 63928 net.cpp:386] relu2 -> conv2 (in-place)
I1028 02:50:54.264171 63928 net.cpp:141] Setting up relu2
I1028 02:50:54.264181 63928 net.cpp:148] Top shape: 256 256 27 27 (47775744)
I1028 02:50:54.264184 63928 net.cpp:156] Memory required for data: 1820870656
I1028 02:50:54.264188 63928 layer_factory.hpp:77] Creating layer norm2
I1028 02:50:54.264197 63928 net.cpp:91] Creating Layer norm2
I1028 02:50:54.264201 63928 net.cpp:425] norm2 <- conv2
I1028 02:50:54.264209 63928 net.cpp:399] norm2 -> norm2
I1028 02:50:54.264493 63928 net.cpp:141] Setting up norm2
I1028 02:50:54.264504 63928 net.cpp:148] Top shape: 256 256 27 27 (47775744)
I1028 02:50:54.264519 63928 net.cpp:156] Memory required for data: 2011973632
I1028 02:50:54.264523 63928 layer_factory.hpp:77] Creating layer pool2
I1028 02:50:54.264530 63928 net.cpp:91] Creating Layer pool2
I1028 02:50:54.264539 63928 net.cpp:425] pool2 <- norm2
I1028 02:50:54.264544 63928 net.cpp:399] pool2 -> pool2
I1028 02:50:54.264590 63928 net.cpp:141] Setting up pool2
I1028 02:50:54.264596 63928 net.cpp:148] Top shape: 256 256 13 13 (11075584)
I1028 02:50:54.264600 63928 net.cpp:156] Memory required for data: 2056275968
I1028 02:50:54.264602 63928 layer_factory.hpp:77] Creating layer conv3
I1028 02:50:54.264616 63928 net.cpp:91] Creating Layer conv3
I1028 02:50:54.264619 63928 net.cpp:425] conv3 <- pool2
I1028 02:50:54.264626 63928 net.cpp:399] conv3 -> conv3
I1028 02:50:54.278403 63928 net.cpp:141] Setting up conv3
I1028 02:50:54.278415 63928 net.cpp:148] Top shape: 256 384 13 13 (16613376)
I1028 02:50:54.278419 63928 net.cpp:156] Memory required for data: 2122729472
I1028 02:50:54.278427 63928 layer_factory.hpp:77] Creating layer relu3
I1028 02:50:54.278435 63928 net.cpp:91] Creating Layer relu3
I1028 02:50:54.278439 63928 net.cpp:425] relu3 <- conv3
I1028 02:50:54.278446 63928 net.cpp:386] relu3 -> conv3 (in-place)
I1028 02:50:54.278601 63928 net.cpp:141] Setting up relu3
I1028 02:50:54.278610 63928 net.cpp:148] Top shape: 256 384 13 13 (16613376)
I1028 02:50:54.278640 63928 net.cpp:156] Memory required for data: 2189182976
I1028 02:50:54.278643 63928 layer_factory.hpp:77] Creating layer conv4
I1028 02:50:54.278658 63928 net.cpp:91] Creating Layer conv4
I1028 02:50:54.278662 63928 net.cpp:425] conv4 <- conv3
I1028 02:50:54.278668 63928 net.cpp:399] conv4 -> conv4
I1028 02:50:54.300581 63928 net.cpp:141] Setting up conv4
I1028 02:50:54.300609 63928 net.cpp:148] Top shape: 256 384 13 13 (16613376)
I1028 02:50:54.300612 63928 net.cpp:156] Memory required for data: 2255636480
I1028 02:50:54.300619 63928 layer_factory.hpp:77] Creating layer relu4
I1028 02:50:54.300627 63928 net.cpp:91] Creating Layer relu4
I1028 02:50:54.300631 63928 net.cpp:425] relu4 <- conv4
I1028 02:50:54.300639 63928 net.cpp:386] relu4 -> conv4 (in-place)
I1028 02:50:54.300789 63928 net.cpp:141] Setting up relu4
I1028 02:50:54.300801 63928 net.cpp:148] Top shape: 256 384 13 13 (16613376)
I1028 02:50:54.300804 63928 net.cpp:156] Memory required for data: 2322089984
I1028 02:50:54.300807 63928 layer_factory.hpp:77] Creating layer conv5
I1028 02:50:54.300819 63928 net.cpp:91] Creating Layer conv5
I1028 02:50:54.300823 63928 net.cpp:425] conv5 <- conv4
I1028 02:50:54.300829 63928 net.cpp:399] conv5 -> conv5
I1028 02:50:54.309007 63928 net.cpp:141] Setting up conv5
I1028 02:50:54.309034 63928 net.cpp:148] Top shape: 256 256 13 13 (11075584)
I1028 02:50:54.309038 63928 net.cpp:156] Memory required for data: 2366392320
I1028 02:50:54.309049 63928 layer_factory.hpp:77] Creating layer relu5
I1028 02:50:54.309057 63928 net.cpp:91] Creating Layer relu5
I1028 02:50:54.309061 63928 net.cpp:425] relu5 <- conv5
I1028 02:50:54.309067 63928 net.cpp:386] relu5 -> conv5 (in-place)
I1028 02:50:54.309217 63928 net.cpp:141] Setting up relu5
I1028 02:50:54.309226 63928 net.cpp:148] Top shape: 256 256 13 13 (11075584)
I1028 02:50:54.309229 63928 net.cpp:156] Memory required for data: 2410694656
I1028 02:50:54.309233 63928 layer_factory.hpp:77] Creating layer pool5
I1028 02:50:54.309247 63928 net.cpp:91] Creating Layer pool5
I1028 02:50:54.309252 63928 net.cpp:425] pool5 <- conv5
I1028 02:50:54.309258 63928 net.cpp:399] pool5 -> pool5
I1028 02:50:54.309299 63928 net.cpp:141] Setting up pool5
I1028 02:50:54.309308 63928 net.cpp:148] Top shape: 256 256 6 6 (2359296)
I1028 02:50:54.309310 63928 net.cpp:156] Memory required for data: 2420131840
I1028 02:50:54.309314 63928 layer_factory.hpp:77] Creating layer fc6
I1028 02:50:54.309325 63928 net.cpp:91] Creating Layer fc6
I1028 02:50:54.309329 63928 net.cpp:425] fc6 <- pool5
I1028 02:50:54.309334 63928 net.cpp:399] fc6 -> fc6
I1028 02:50:54.841773 63928 net.cpp:141] Setting up fc6
I1028 02:50:54.841821 63928 net.cpp:148] Top shape: 256 4096 (1048576)
I1028 02:50:54.841826 63928 net.cpp:156] Memory required for data: 2424326144
I1028 02:50:54.841838 63928 layer_factory.hpp:77] Creating layer relu6
I1028 02:50:54.841856 63928 net.cpp:91] Creating Layer relu6
I1028 02:50:54.841861 63928 net.cpp:425] relu6 <- fc6
I1028 02:50:54.841871 63928 net.cpp:386] relu6 -> fc6 (in-place)
I1028 02:50:54.842355 63928 net.cpp:141] Setting up relu6
I1028 02:50:54.842365 63928 net.cpp:148] Top shape: 256 4096 (1048576)
I1028 02:50:54.842368 63928 net.cpp:156] Memory required for data: 2428520448
I1028 02:50:54.842372 63928 layer_factory.hpp:77] Creating layer drop6
I1028 02:50:54.842447 63928 net.cpp:91] Creating Layer drop6
I1028 02:50:54.842453 63928 net.cpp:425] drop6 <- fc6
I1028 02:50:54.842463 63928 net.cpp:386] drop6 -> fc6 (in-place)
I1028 02:50:54.842531 63928 net.cpp:141] Setting up drop6
I1028 02:50:54.842543 63928 net.cpp:148] Top shape: 256 4096 (1048576)
I1028 02:50:54.842546 63928 net.cpp:156] Memory required for data: 2432714752
I1028 02:50:54.842550 63928 layer_factory.hpp:77] Creating layer fc7
I1028 02:50:54.842561 63928 net.cpp:91] Creating Layer fc7
I1028 02:50:54.842564 63928 net.cpp:425] fc7 <- fc6
I1028 02:50:54.842572 63928 net.cpp:399] fc7 -> fc7
I1028 02:50:55.075062 63928 net.cpp:141] Setting up fc7
I1028 02:50:55.075119 63928 net.cpp:148] Top shape: 256 4096 (1048576)
I1028 02:50:55.075161 63928 net.cpp:156] Memory required for data: 2436909056
I1028 02:50:55.075176 63928 layer_factory.hpp:77] Creating layer fc7_n
I1028 02:50:55.075255 63928 net.cpp:91] Creating Layer fc7_n
I1028 02:50:55.075263 63928 net.cpp:425] fc7_n <- fc7
I1028 02:50:55.075275 63928 net.cpp:399] fc7_n -> fc7_n
I1028 02:50:55.075314 63928 net.cpp:141] Setting up fc7_n
I1028 02:50:55.075325 63928 net.cpp:148] Top shape: 256 4096 (1048576)
I1028 02:50:55.075328 63928 net.cpp:156] Memory required for data: 2441103360
I1028 02:50:55.075332 63928 layer_factory.hpp:77] Creating layer conv1_p
I1028 02:50:55.075351 63928 net.cpp:91] Creating Layer conv1_p
I1028 02:50:55.075356 63928 net.cpp:425] conv1_p <- data_data_0_split_1
I1028 02:50:55.075362 63928 net.cpp:399] conv1_p -> conv1_p
I1028 02:50:55.076974 63928 net.cpp:141] Setting up conv1_p
I1028 02:50:55.076985 63928 net.cpp:148] Top shape: 256 96 55 55 (74342400)
I1028 02:50:55.077000 63928 net.cpp:156] Memory required for data: 2738472960
I1028 02:50:55.077006 63928 layer_factory.hpp:77] Creating layer relu1_p
I1028 02:50:55.077018 63928 net.cpp:91] Creating Layer relu1_p
I1028 02:50:55.077021 63928 net.cpp:425] relu1_p <- conv1_p
I1028 02:50:55.077025 63928 net.cpp:386] relu1_p -> conv1_p (in-place)
I1028 02:50:55.077175 63928 net.cpp:141] Setting up relu1_p
I1028 02:50:55.077186 63928 net.cpp:148] Top shape: 256 96 55 55 (74342400)
I1028 02:50:55.077189 63928 net.cpp:156] Memory required for data: 3035842560
I1028 02:50:55.077193 63928 layer_factory.hpp:77] Creating layer norm1_p
I1028 02:50:55.077203 63928 net.cpp:91] Creating Layer norm1_p
I1028 02:50:55.077206 63928 net.cpp:425] norm1_p <- conv1_p
I1028 02:50:55.077214 63928 net.cpp:399] norm1_p -> norm1_p
I1028 02:50:55.077488 63928 net.cpp:141] Setting up norm1_p
I1028 02:50:55.077510 63928 net.cpp:148] Top shape: 256 96 55 55 (74342400)
I1028 02:50:55.077513 63928 net.cpp:156] Memory required for data: 3333212160
I1028 02:50:55.077517 63928 layer_factory.hpp:77] Creating layer pool1_p
I1028 02:50:55.077527 63928 net.cpp:91] Creating Layer pool1_p
I1028 02:50:55.077530 63928 net.cpp:425] pool1_p <- norm1_p
I1028 02:50:55.077535 63928 net.cpp:399] pool1_p -> pool1_p
I1028 02:50:55.077586 63928 net.cpp:141] Setting up pool1_p
I1028 02:50:55.077592 63928 net.cpp:148] Top shape: 256 96 27 27 (17915904)
I1028 02:50:55.077594 63928 net.cpp:156] Memory required for data: 3404875776
I1028 02:50:55.077599 63928 layer_factory.hpp:77] Creating layer conv2_p
I1028 02:50:55.077608 63928 net.cpp:91] Creating Layer conv2_p
I1028 02:50:55.077612 63928 net.cpp:425] conv2_p <- pool1_p
I1028 02:50:55.077620 63928 net.cpp:399] conv2_p -> conv2_p
I1028 02:50:55.083353 63928 net.cpp:141] Setting up conv2_p
I1028 02:50:55.083364 63928 net.cpp:148] Top shape: 256 256 27 27 (47775744)
I1028 02:50:55.083379 63928 net.cpp:156] Memory required for data: 3595978752
I1028 02:50:55.083392 63928 layer_factory.hpp:77] Creating layer relu2_p
I1028 02:50:55.083400 63928 net.cpp:91] Creating Layer relu2_p
I1028 02:50:55.083403 63928 net.cpp:425] relu2_p <- conv2_p
I1028 02:50:55.083408 63928 net.cpp:386] relu2_p -> conv2_p (in-place)
I1028 02:50:55.083662 63928 net.cpp:141] Setting up relu2_p
I1028 02:50:55.083673 63928 net.cpp:148] Top shape: 256 256 27 27 (47775744)
I1028 02:50:55.083675 63928 net.cpp:156] Memory required for data: 3787081728
I1028 02:50:55.083679 63928 layer_factory.hpp:77] Creating layer norm2_p
I1028 02:50:55.083688 63928 net.cpp:91] Creating Layer norm2_p
I1028 02:50:55.083691 63928 net.cpp:425] norm2_p <- conv2_p
I1028 02:50:55.083696 63928 net.cpp:399] norm2_p -> norm2_p
I1028 02:50:55.083865 63928 net.cpp:141] Setting up norm2_p
I1028 02:50:55.083874 63928 net.cpp:148] Top shape: 256 256 27 27 (47775744)
I1028 02:50:55.083878 63928 net.cpp:156] Memory required for data: 3978184704
I1028 02:50:55.083880 63928 layer_factory.hpp:77] Creating layer pool2_p
I1028 02:50:55.083886 63928 net.cpp:91] Creating Layer pool2_p
I1028 02:50:55.083894 63928 net.cpp:425] pool2_p <- norm2_p
I1028 02:50:55.083914 63928 net.cpp:399] pool2_p -> pool2_p
I1028 02:50:55.083952 63928 net.cpp:141] Setting up pool2_p
I1028 02:50:55.083958 63928 net.cpp:148] Top shape: 256 256 13 13 (11075584)
I1028 02:50:55.083961 63928 net.cpp:156] Memory required for data: 4022487040
I1028 02:50:55.083963 63928 layer_factory.hpp:77] Creating layer conv3_p
I1028 02:50:55.083986 63928 net.cpp:91] Creating Layer conv3_p
I1028 02:50:55.083988 63928 net.cpp:425] conv3_p <- pool2_p
I1028 02:50:55.083994 63928 net.cpp:399] conv3_p -> conv3_p
I1028 02:50:55.097362 63928 net.cpp:141] Setting up conv3_p
I1028 02:50:55.097386 63928 net.cpp:148] Top shape: 256 384 13 13 (16613376)
I1028 02:50:55.097389 63928 net.cpp:156] Memory required for data: 4088940544
I1028 02:50:55.097395 63928 layer_factory.hpp:77] Creating layer relu3_p
I1028 02:50:55.097403 63928 net.cpp:91] Creating Layer relu3_p
I1028 02:50:55.097405 63928 net.cpp:425] relu3_p <- conv3_p
I1028 02:50:55.097410 63928 net.cpp:386] relu3_p -> conv3_p (in-place)
I1028 02:50:55.097659 63928 net.cpp:141] Setting up relu3_p
I1028 02:50:55.097671 63928 net.cpp:148] Top shape: 256 384 13 13 (16613376)
I1028 02:50:55.097673 63928 net.cpp:156] Memory required for data: 4155394048
I1028 02:50:55.097676 63928 layer_factory.hpp:77] Creating layer conv4_p
I1028 02:50:55.097694 63928 net.cpp:91] Creating Layer conv4_p
I1028 02:50:55.097698 63928 net.cpp:425] conv4_p <- conv3_p
I1028 02:50:55.097707 63928 net.cpp:399] conv4_p -> conv4_p
I1028 02:50:55.108799 63928 net.cpp:141] Setting up conv4_p
I1028 02:50:55.108810 63928 net.cpp:148] Top shape: 256 384 13 13 (16613376)
I1028 02:50:55.108825 63928 net.cpp:156] Memory required for data: 4221847552
I1028 02:50:55.108831 63928 layer_factory.hpp:77] Creating layer relu4_p
I1028 02:50:55.108839 63928 net.cpp:91] Creating Layer relu4_p
I1028 02:50:55.108842 63928 net.cpp:425] relu4_p <- conv4_p
I1028 02:50:55.108851 63928 net.cpp:386] relu4_p -> conv4_p (in-place)
I1028 02:50:55.109122 63928 net.cpp:141] Setting up relu4_p
I1028 02:50:55.109133 63928 net.cpp:148] Top shape: 256 384 13 13 (16613376)
I1028 02:50:55.109136 63928 net.cpp:156] Memory required for data: 4288301056
I1028 02:50:55.109140 63928 layer_factory.hpp:77] Creating layer conv5_p
I1028 02:50:55.109153 63928 net.cpp:91] Creating Layer conv5_p
I1028 02:50:55.109156 63928 net.cpp:425] conv5_p <- conv4_p
I1028 02:50:55.109165 63928 net.cpp:399] conv5_p -> conv5_p
I1028 02:50:55.116884 63928 net.cpp:141] Setting up conv5_p
I1028 02:50:55.116899 63928 net.cpp:148] Top shape: 256 256 13 13 (11075584)
I1028 02:50:55.116915 63928 net.cpp:156] Memory required for data: 4332603392
I1028 02:50:55.116921 63928 layer_factory.hpp:77] Creating layer relu5_p
I1028 02:50:55.116927 63928 net.cpp:91] Creating Layer relu5_p
I1028 02:50:55.116930 63928 net.cpp:425] relu5_p <- conv5_p
I1028 02:50:55.116937 63928 net.cpp:386] relu5_p -> conv5_p (in-place)
I1028 02:50:55.117179 63928 net.cpp:141] Setting up relu5_p
I1028 02:50:55.117189 63928 net.cpp:148] Top shape: 256 256 13 13 (11075584)
I1028 02:50:55.117192 63928 net.cpp:156] Memory required for data: 4376905728
I1028 02:50:55.117197 63928 layer_factory.hpp:77] Creating layer pool5_p
I1028 02:50:55.117202 63928 net.cpp:91] Creating Layer pool5_p
I1028 02:50:55.117207 63928 net.cpp:425] pool5_p <- conv5_p
I1028 02:50:55.117213 63928 net.cpp:399] pool5_p -> pool5_p
I1028 02:50:55.117254 63928 net.cpp:141] Setting up pool5_p
I1028 02:50:55.117262 63928 net.cpp:148] Top shape: 256 256 6 6 (2359296)
I1028 02:50:55.117265 63928 net.cpp:156] Memory required for data: 4386342912
I1028 02:50:55.117269 63928 layer_factory.hpp:77] Creating layer fc6_p
I1028 02:50:55.117277 63928 net.cpp:91] Creating Layer fc6_p
I1028 02:50:55.117280 63928 net.cpp:425] fc6_p <- pool5_p
I1028 02:50:55.117288 63928 net.cpp:399] fc6_p -> fc6_p
I1028 02:50:55.648957 63928 net.cpp:141] Setting up fc6_p
I1028 02:50:55.649011 63928 net.cpp:148] Top shape: 256 4096 (1048576)
I1028 02:50:55.649015 63928 net.cpp:156] Memory required for data: 4390537216
I1028 02:50:55.649029 63928 layer_factory.hpp:77] Creating layer relu6_p
I1028 02:50:55.649088 63928 net.cpp:91] Creating Layer relu6_p
I1028 02:50:55.649094 63928 net.cpp:425] relu6_p <- fc6_p
I1028 02:50:55.649106 63928 net.cpp:386] relu6_p -> fc6_p (in-place)
I1028 02:50:55.649572 63928 net.cpp:141] Setting up relu6_p
I1028 02:50:55.649595 63928 net.cpp:148] Top shape: 256 4096 (1048576)
I1028 02:50:55.649598 63928 net.cpp:156] Memory required for data: 4394731520
I1028 02:50:55.649602 63928 layer_factory.hpp:77] Creating layer drop6_p
I1028 02:50:55.649613 63928 net.cpp:91] Creating Layer drop6_p
I1028 02:50:55.649616 63928 net.cpp:425] drop6_p <- fc6_p
I1028 02:50:55.649621 63928 net.cpp:386] drop6_p -> fc6_p (in-place)
I1028 02:50:55.649647 63928 net.cpp:141] Setting up drop6_p
I1028 02:50:55.649652 63928 net.cpp:148] Top shape: 256 4096 (1048576)
I1028 02:50:55.649655 63928 net.cpp:156] Memory required for data: 4398925824
I1028 02:50:55.649658 63928 layer_factory.hpp:77] Creating layer fc7_p
I1028 02:50:55.649670 63928 net.cpp:91] Creating Layer fc7_p
I1028 02:50:55.649673 63928 net.cpp:425] fc7_p <- fc6_p
I1028 02:50:55.649682 63928 net.cpp:399] fc7_p -> fc7_p
I1028 02:50:55.884856 63928 net.cpp:141] Setting up fc7_p
I1028 02:50:55.884914 63928 net.cpp:148] Top shape: 256 4096 (1048576)
I1028 02:50:55.884919 63928 net.cpp:156] Memory required for data: 4403120128
I1028 02:50:55.884932 63928 layer_factory.hpp:77] Creating layer relu7_p
I1028 02:50:55.884953 63928 net.cpp:91] Creating Layer relu7_p
I1028 02:50:55.884960 63928 net.cpp:425] relu7_p <- fc7_p
I1028 02:50:55.884970 63928 net.cpp:386] relu7_p -> fc7_p (in-place)
I1028 02:50:55.885212 63928 net.cpp:141] Setting up relu7_p
I1028 02:50:55.885223 63928 net.cpp:148] Top shape: 256 4096 (1048576)
I1028 02:50:55.885226 63928 net.cpp:156] Memory required for data: 4407314432
I1028 02:50:55.885229 63928 layer_factory.hpp:77] Creating layer drop7_p
I1028 02:50:55.885241 63928 net.cpp:91] Creating Layer drop7_p
I1028 02:50:55.885246 63928 net.cpp:425] drop7_p <- fc7_p
I1028 02:50:55.885249 63928 net.cpp:386] drop7_p -> fc7_p (in-place)
I1028 02:50:55.885274 63928 net.cpp:141] Setting up drop7_p
I1028 02:50:55.885282 63928 net.cpp:148] Top shape: 256 4096 (1048576)
I1028 02:50:55.885284 63928 net.cpp:156] Memory required for data: 4411508736
I1028 02:50:55.885288 63928 layer_factory.hpp:77] Creating layer fc7_p_drop7_p_0_split
I1028 02:50:55.885295 63928 net.cpp:91] Creating Layer fc7_p_drop7_p_0_split
I1028 02:50:55.885298 63928 net.cpp:425] fc7_p_drop7_p_0_split <- fc7_p
I1028 02:50:55.885305 63928 net.cpp:399] fc7_p_drop7_p_0_split -> fc7_p_drop7_p_0_split_0
I1028 02:50:55.885313 63928 net.cpp:399] fc7_p_drop7_p_0_split -> fc7_p_drop7_p_0_split_1
I1028 02:50:55.885349 63928 net.cpp:141] Setting up fc7_p_drop7_p_0_split
I1028 02:50:55.885359 63928 net.cpp:148] Top shape: 256 4096 (1048576)
I1028 02:50:55.885362 63928 net.cpp:148] Top shape: 256 4096 (1048576)
I1028 02:50:55.885365 63928 net.cpp:156] Memory required for data: 4419897344
I1028 02:50:55.885368 63928 layer_factory.hpp:77] Creating layer fc8_p
I1028 02:50:55.885380 63928 net.cpp:91] Creating Layer fc8_p
I1028 02:50:55.885382 63928 net.cpp:425] fc8_p <- fc7_p_drop7_p_0_split_0
I1028 02:50:55.885390 63928 net.cpp:399] fc8_p -> fc8_p
I1028 02:50:55.914347 63928 net.cpp:141] Setting up fc8_p
I1028 02:50:55.914358 63928 net.cpp:148] Top shape: 256 504 (129024)
I1028 02:50:55.914373 63928 net.cpp:156] Memory required for data: 4420413440
I1028 02:50:55.914379 63928 layer_factory.hpp:77] Creating layer fc7_pn
I1028 02:50:55.914386 63928 net.cpp:91] Creating Layer fc7_pn
I1028 02:50:55.914391 63928 net.cpp:425] fc7_pn <- fc7_p_drop7_p_0_split_1
I1028 02:50:55.914396 63928 net.cpp:399] fc7_pn -> fc7_pn
I1028 02:50:55.914423 63928 net.cpp:141] Setting up fc7_pn
I1028 02:50:55.914430 63928 net.cpp:148] Top shape: 256 4096 (1048576)
I1028 02:50:55.914433 63928 net.cpp:156] Memory required for data: 4424607744
I1028 02:50:55.914436 63928 layer_factory.hpp:77] Creating layer loss_p1
I1028 02:50:55.914497 63928 net.cpp:91] Creating Layer loss_p1
I1028 02:50:55.914505 63928 net.cpp:425] loss_p1 <- fc7_n
I1028 02:50:55.914541 63928 net.cpp:425] loss_p1 <- fc7_pn
I1028 02:50:55.914551 63928 net.cpp:399] loss_p1 -> loss_p1
…
I1028 02:50:55.919248 63928 net.cpp:313] The NetState phase (1) differed from the phase (0) specified by a rule in layer data
I1028 02:50:55.920337 63928 net.cpp:49] Initializing net from parameters: 
name: "AlexNet"
state {
  phase: TEST
}
layer {
  name: "data"
  type: "Data"
  top: "data"
  top: "label"
  include {
    phase: TEST
  }
  transform_param {
    mirror: false
    crop_size: 227
    mean_file: "examples/imagenet/imagenet_mean.binaryproto"
  }
  data_param {
    source: "/work/03713/harshal1/maverick/vision_proj/data/val_lmdb"
    batch_size: 50
    backend: LMDB
  }
}
layer {
  name: "conv1"
  type: "Convolution"
  bottom: "data"
  top: "conv1"
  param {
    lr_mult: 0
    decay_mult: 0
  }
  param {
    lr_mult: 0
    decay_mult: 0
  }
  convolution_param {
    num_output: 96
    kernel_size: 11
    stride: 4
    weight_filler {
      type: "gaussian"
      std: 0.01
    }
    bias_filler {
      type: "constant"
      value: 0
    }
  }
}
layer {
  name: "relu1"
  type: "ReLU"
  bottom: "conv1"
  top: "conv1"
}
layer {
  name: "norm1"
  type: "LRN"
  bottom: "conv1"
  top: "norm1"
  lrn_param {
    local_size: 5
    alpha: 0.0001
    beta: 0.75
  }
}
layer {
  name: "pool1"
  type: "Pooling"
  bottom: "norm1"
  top: "pool1"
  pooling_param {
    pool: MAX
    kernel_size: 3
    stride: 2
  }
}
layer {
  name: "conv2"
  type: "Convolution"
  bottom: "pool1"
  top: "conv2"
  param {
    lr_mult: 0
    decay_mult: 0
  }
  param {
    lr_mult: 0
    decay_mult: 0
  }
  convolution_param {
    num_output: 256
    pad: 2
    kernel_size: 5
    group: 2
    weight_filler {
      type: "gaussian"
      std: 0.01
    }
    bias_filler {
      type: "constant"
      value: 0.1
    }
  }
}
layer {
  name: "relu2"
  type: "ReLU"
  bottom: "conv2"
  top: "conv2"
}
layer {
  name: "norm2"
  type: "LRN"
  bottom: "conv2"
  top: "norm2"
  lrn_param {
    local_size: 5
    alpha: 0.0001
    beta: 0.75
  }
}
layer {
  name: "pool2"
  type: "Pooling"
  bottom: "norm2"
  top: "pool2"
  pooling_param {
    pool: MAX
    kernel_size: 3
    stride: 2
  }
}
layer {
  name: "conv3"
  type: "Convolution"
  bottom: "pool2"
  top: "conv3"
  param {
    lr_mult: 0
    decay_mult: 0
  }
  param {
    lr_mult: 0
    decay_mult: 0
  }
  convolution_param {
    num_output: 384
    pad: 1
    kernel_size: 3
    weight_filler {
      type: "gaussian"
      std: 0.01
    }
    bias_filler {
      type: "constant"
      value: 0
    }
  }
}
layer {
  name: "relu3"
  type: "ReLU"
  bottom: "conv3"
  top: "conv3"
}
layer {
  name: "conv4"
  type: "Convolution"
  bottom: "conv3"
  top: "conv4"
  param {
    lr_mult: 0
    decay_mult: 0
  }
  param {
    lr_mult: 0
    decay_mult: 0
  }
  convolution_param {
    num_output: 384
    pad: 1
    kernel_size: 3
    group: 2
    weight_filler {
      type: "gaussian"
      std: 0.01
    }
    bias_filler {
      type: "constant"
      value: 0.1
    }
  }
}
layer {
  name: "relu4"
  type: "ReLU"
  bottom: "conv4"
  top: "conv4"
}
layer {
  name: "conv5"
  type: "Convolution"
  bottom: "conv4"
  top: "conv5"
  param {
    lr_mult: 0
    decay_mult: 0
  }
  param {
    lr_mult: 0
    decay_mult: 0
  }
  convolution_param {
    num_output: 256
    pad: 1
    kernel_size: 3
    group: 2
    weight_filler {
      type: "gaussian"
      std: 0.01
    }
    bias_filler {
      type: "constant"
      value: 0.1
    }
  }
}
layer {
  name: "relu5"
  type: "ReLU"
  bottom: "conv5"
  top: "conv5"
}
layer {
  name: "pool5"
  type: "Pooling"
  bottom: "conv5"
  top: "pool5"
  pooling_param {
    pool: MAX
    kernel_size: 3
    stride: 2
  }
}
layer {
  name: "fc6"
  type: "InnerProduct"
  bottom: "pool5"
  top: "fc6"
  param {
    lr_mult: 0
    decay_mult: 0
  }
  param {
    lr_mult: 0
    decay_mult: 0
  }
  inner_product_param {
    num_output: 4096
    weight_filler {
      type: "gaussian"
      std: 0.005
    }
    bias_filler {
      type: "constant"
      value: 0.1
    }
  }
}
layer {
  name: "relu6"
  type: "ReLU"
  bottom: "fc6"
  top: "fc6"
}
layer {
  name: "drop6"
  type: "Dropout"
  bottom: "fc6"
  top: "fc6"
  dropout_param {
    dropout_ratio: 0.5
  }
}
layer {
  name: "fc7"
  type: "InnerProduct"
  bottom: "fc6"
  top: "fc7"
  param {
    lr_mult: 0
    decay_mult: 0
  }
  param {
    lr_mult: 0
    decay_mult: 0
  }
  inner_product_param {
    num_output: 4096
    weight_filler {
      type: "gaussian"
      std: 0.005
    }
    bias_filler {
      type: "constant"
      value: 0.1
    }
  }
}
layer {
  name: "fc7_n"
  type: "L2Norm"
  bottom: "fc7"
  top: "fc7_n"
}
layer {
  name: "conv1_p"
  type: "Convolution"
  bottom: "data"
  top: "conv1_p"
  param {
    lr_mult: 1
    decay_mult: 1
  }
  param {
    lr_mult: 2
    decay_mult: 0
  }
  convolution_param {
    num_output: 96
    kernel_size: 11
    stride: 4
    weight_filler {
      type: "gaussian"
      std: 0.01
    }
    bias_filler {
      type: "constant"
      value: 0
    }
  }
}
layer {
  name: "relu1_p"
  type: "ReLU"
  bottom: "conv1_p"
  top: "conv1_p"
}
layer {
  name: "norm1_p"
  type: "LRN"
  bottom: "conv1_p"
  top: "norm1_p"
  lrn_param {
    local_size: 5
    alpha: 0.0001
    beta: 0.75
  }
}
layer {
  name: "pool1_p"
  type: "Pooling"
  bottom: "norm1_p"
  top: "pool1_p"
  pooling_param {
    pool: MAX
    kernel_size: 3
    stride: 2
  }
}
layer {
  name: "conv2_p"
  type: "Convolution"
  bottom: "pool1_p"
  top: "conv2_p"
  param {
    lr_mult: 1
    decay_mult: 1
  }
  param {
    lr_mult: 2
    decay_mult: 0
  }
  convolution_param {
    num_output: 256
    pad: 2
    kernel_size: 5
    group: 2
    weight_filler {
      type: "gaussian"
      std: 0.01
    }
    bias_filler {
      type: "constant"
      value: 0.1
    }
  }
}
layer {
  name: "relu2_p"
  type: "ReLU"
  bottom: "conv2_p"
  top: "conv2_p"
}
layer {
  name: "norm2_p"
  type: "LRN"
  bottom: "conv2_p"
  top: "norm2_p"
  lrn_param {
    local_size: 5
    alpha: 0.0001
    beta: 0.75
  }
}
layer {
  name: "pool2_p"
  type: "Pooling"
  bottom: "norm2_p"
  top: "pool2_p"
  pooling_param {
    pool: MAX
    kernel_size: 3
    stride: 2
  }
}
layer {
  name: "conv3_p"
  type: "Convolution"
  bottom: "pool2_p"
  top: "conv3_p"
  param {
    lr_mult: 1
    decay_mult: 1
  }
  param {
    lr_mult: 2
    decay_mult: 0
  }
  convolution_param {
    num_output: 384
    pad: 1
    kernel_size: 3
    weight_filler {
      type: "gaussian"
      std: 0.01
    }
    bias_filler {
      type: "constant"
      value: 0
    }
  }
}
layer {
  name: "relu3_p"
  type: "ReLU"
  bottom: "conv3_p"
  top: "conv3_p"
}
layer {
  name: "conv4_p"
  type: "Convolution"
  bottom: "conv3_p"
  top: "conv4_p"
  param {
    lr_mult: 1
    decay_mult: 1
  }
  param {
    lr_mult: 2
    decay_mult: 0
  }
  convolution_param {
    num_output: 384
    pad: 1
    kernel_size: 3
    group: 2
    weight_filler {
      type: "gaussian"
      std: 0.01
    }
    bias_filler {
      type: "constant"
      value: 0.1
    }
  }
}
layer {
  name: "relu4_p"
  type: "ReLU"
  bottom: "conv4_p"
  top: "conv4_p"
}
layer {
  name: "conv5_p"
  type: "Convolution"
  bottom: "conv4_p"
  top: "conv5_p"
  param {
    lr_mult: 1
    decay_mult: 1
  }
  param {
    lr_mult: 2
    decay_mult: 0
  }
  convolution_param {
    num_output: 256
    pad: 1
    kernel_size: 3
    group: 2
    weight_filler {
      type: "gaussian"
      std: 0.01
    }
    bias_filler {
      type: "constant"
      value: 0.1
    }
  }
}
layer {
  name: "relu5_p"
  type: "ReLU"
  bottom: "conv5_p"
  top: "conv5_p"
}
layer {
  name: "pool5_p"
  type: "Pooling"
  bottom: "conv5_p"
  top: "pool5_p"
  pooling_param {
    pool: MAX
    kernel_size: 3
    stride: 2
  }
}
layer {
  name: "fc6_p"
  type: "InnerProduct"
  bottom: "pool5_p"
  top: "fc6_p"
  param {
    lr_mult: 1
    decay_mult: 1
  }
  param {
    lr_mult: 2
    decay_mult: 0
  }
  inner_product_param {
    num_output: 4096
    weight_filler {
      type: "gaussian"
      std: 0.005
    }
    bias_filler {
      type: "constant"
      value: 0.1
    }
  }
}
layer {
  name: "relu6_p"
  type: "ReLU"
  bottom: "fc6_p"
  top: "fc6_p"
}
layer {
  name: "drop6_p"
  type: "Dropout"
  bottom: "fc6_p"
  top: "fc6_p"
  dropout_param {
    dropout_ratio: 0.5
  }
}
layer {
  name: "fc7_p"
  type: "InnerProduct"
  bottom: "fc6_p"
  top: "fc7_p"
  param {
    lr_mult: 1
    decay_mult: 1
  }
  param {
    lr_mult: 2
    decay_mult: 0
  }
  inner_product_param {
    num_output: 4096
    weight_filler {
      type: "gaussian"
      std: 0.005
    }
    bias_filler {
      type: "constant"
      value: 0.1
    }
  }
}
layer {
  name: "relu7_p"
  type: "ReLU"
  bottom: "fc7_p"
  top: "fc7_p"
}
layer {
  name: "drop7_p"
  type: "Dropout"
  bottom: "fc7_p"
  top: "fc7_p"
  dropout_param {
    dropout_ratio: 0.5
  }
}
layer {
  name: "fc8_p"
  type: "InnerProduct"
  bottom: "fc7_p"
  top: "fc8_p"
  param {
    lr_mult: 10
    decay_mult: 1
  }
  param {
    lr_mult: 20
    decay_mult: 0
  }
  inner_product_param {
    num_output: 504
    weight_filler {
      type: "gaussian"
      std: 0.01
    }
    bias_filler {
      type: "constant"
      value: 0
    }
  }
}
layer {
  name: "precision@1"
  type: "Accuracy"
  bottom: "fc8_p"
  bottom: "label"
  top: "precision@1"
  include {
    phase: TEST
  }
}
layer {
  name: "precision@5"
  type: "Accuracy"
  bottom: "fc8_p"
  bottom: "label"
  top: "precision@5"
  include {
    phase: TEST
  }
  accuracy_param {
    top_k: 5
  }
}
layer {
  name: "fc7_pn"
  type: "L2Norm"
  bottom: "fc7_p"
  top: "fc7_pn"
}
layer {
  name: "loss_p1"
  type: "EuclideanLoss"
  bottom: "fc7_n"
  bottom: "fc7_pn"
  top: "loss_p1"
  loss_weight: -0.35
}
layer {
  name: "loss_p2"
  type: "SoftmaxWithLoss"
  bottom: "fc8_p"
  bottom: "label"
  top: "loss_p2"
  loss_weight: 0.65
}
I1028 02:50:55.920547 63928 layer_factory.hpp:77] Creating layer data
I1028 02:50:55.920713 63928 net.cpp:91] Creating Layer data
I1028 02:50:55.920722 63928 net.cpp:399] data -> data
I1028 02:50:55.920732 63928 net.cpp:399] data -> label
I1028 02:50:55.920752 63928 data_transformer.cpp:25] Loading mean file from: examples/imagenet/imagenet_mean.binaryproto
I1028 02:50:55.931598 64041 db_lmdb.cpp:35] Opened lmdb /work/03713/harshal1/maverick/vision_proj/data/val_lmdb
I1028 02:50:55.932837 63928 data_layer.cpp:41] output data size: 50,3,227,227
I1028 02:50:55.988389 63928 net.cpp:141] Setting up data
I1028 02:50:55.988426 63928 net.cpp:148] Top shape: 50 3 227 227 (7729350)
I1028 02:50:55.988432 63928 net.cpp:148] Top shape: 50 (50)
I1028 02:50:55.988446 63928 net.cpp:156] Memory required for data: 30917600
I1028 02:50:55.988456 63928 layer_factory.hpp:77] Creating layer data_data_0_split
I1028 02:50:55.988477 63928 net.cpp:91] Creating Layer data_data_0_split
I1028 02:50:55.988482 63928 net.cpp:425] data_data_0_split <- data
I1028 02:50:55.988492 63928 net.cpp:399] data_data_0_split -> data_data_0_split_0
I1028 02:50:55.988507 63928 net.cpp:399] data_data_0_split -> data_data_0_split_1
I1028 02:50:55.988565 63928 net.cpp:141] Setting up data_data_0_split
I1028 02:50:55.988572 63928 net.cpp:148] Top shape: 50 3 227 227 (7729350)
I1028 02:50:55.988615 63928 net.cpp:148] Top shape: 50 3 227 227 (7729350)
I1028 02:50:55.988618 63928 net.cpp:156] Memory required for data: 92752400
I1028 02:50:55.988622 63928 layer_factory.hpp:77] Creating layer label_data_1_split
I1028 02:50:55.988629 63928 net.cpp:91] Creating Layer label_data_1_split
I1028 02:50:55.988632 63928 net.cpp:425] label_data_1_split <- label
I1028 02:50:55.988638 63928 net.cpp:399] label_data_1_split -> label_data_1_split_0
I1028 02:50:55.988646 63928 net.cpp:399] label_data_1_split -> label_data_1_split_1
I1028 02:50:55.988651 63928 net.cpp:399] label_data_1_split -> label_data_1_split_2
I1028 02:50:55.988708 63928 net.cpp:141] Setting up label_data_1_split
I1028 02:50:55.988718 63928 net.cpp:148] Top shape: 50 (50)
I1028 02:50:55.988720 63928 net.cpp:148] Top shape: 50 (50)
I1028 02:50:55.988724 63928 net.cpp:148] Top shape: 50 (50)
I1028 02:50:55.988726 63928 net.cpp:156] Memory required for data: 92753000
I1028 02:50:55.988730 63928 layer_factory.hpp:77] Creating layer conv1
I1028 02:50:55.988749 63928 net.cpp:91] Creating Layer conv1
I1028 02:50:55.988752 63928 net.cpp:425] conv1 <- data_data_0_split_0
I1028 02:50:55.988759 63928 net.cpp:399] conv1 -> conv1
I1028 02:50:55.993218 63928 net.cpp:141] Setting up conv1
I1028 02:50:55.993244 63928 net.cpp:148] Top shape: 50 96 55 55 (14520000)
I1028 02:50:55.993248 63928 net.cpp:156] Memory required for data: 150833000
I1028 02:50:55.993261 63928 layer_factory.hpp:77] Creating layer relu1
I1028 02:50:55.993271 63928 net.cpp:91] Creating Layer relu1
I1028 02:50:55.993275 63928 net.cpp:425] relu1 <- conv1
I1028 02:50:55.993280 63928 net.cpp:386] relu1 -> conv1 (in-place)
I1028 02:50:55.993542 63928 net.cpp:141] Setting up relu1
I1028 02:50:55.993553 63928 net.cpp:148] Top shape: 50 96 55 55 (14520000)
I1028 02:50:55.993557 63928 net.cpp:156] Memory required for data: 208913000
I1028 02:50:55.993561 63928 layer_factory.hpp:77] Creating layer norm1
I1028 02:50:55.993571 63928 net.cpp:91] Creating Layer norm1
I1028 02:50:55.993574 63928 net.cpp:425] norm1 <- conv1
I1028 02:50:55.993579 63928 net.cpp:399] norm1 -> norm1
I1028 02:50:55.993868 63928 net.cpp:141] Setting up norm1
I1028 02:50:55.993896 63928 net.cpp:148] Top shape: 50 96 55 55 (14520000)
I1028 02:50:55.993899 63928 net.cpp:156] Memory required for data: 266993000
I1028 02:50:55.993903 63928 layer_factory.hpp:77] Creating layer pool1
I1028 02:50:55.993911 63928 net.cpp:91] Creating Layer pool1
I1028 02:50:55.993916 63928 net.cpp:425] pool1 <- norm1
I1028 02:50:55.993921 63928 net.cpp:399] pool1 -> pool1
I1028 02:50:55.993974 63928 net.cpp:141] Setting up pool1
I1028 02:50:55.993981 63928 net.cpp:148] Top shape: 50 96 27 27 (3499200)
I1028 02:50:55.993984 63928 net.cpp:156] Memory required for data: 280989800
I1028 02:50:55.993988 63928 layer_factory.hpp:77] Creating layer conv2
I1028 02:50:55.993999 63928 net.cpp:91] Creating Layer conv2
I1028 02:50:55.994014 63928 net.cpp:425] conv2 <- pool1
I1028 02:50:55.994021 63928 net.cpp:399] conv2 -> conv2
I1028 02:50:56.000082 63928 net.cpp:141] Setting up conv2
I1028 02:50:56.000108 63928 net.cpp:148] Top shape: 50 256 27 27 (9331200)
I1028 02:50:56.000111 63928 net.cpp:156] Memory required for data: 318314600
I1028 02:50:56.000120 63928 layer_factory.hpp:77] Creating layer relu2
I1028 02:50:56.000131 63928 net.cpp:91] Creating Layer relu2
I1028 02:50:56.000135 63928 net.cpp:425] relu2 <- conv2
I1028 02:50:56.000141 63928 net.cpp:386] relu2 -> conv2 (in-place)
I1028 02:50:56.000407 63928 net.cpp:141] Setting up relu2
I1028 02:50:56.000418 63928 net.cpp:148] Top shape: 50 256 27 27 (9331200)
I1028 02:50:56.000422 63928 net.cpp:156] Memory required for data: 355639400
I1028 02:50:56.000425 63928 layer_factory.hpp:77] Creating layer norm2
I1028 02:50:56.000432 63928 net.cpp:91] Creating Layer norm2
I1028 02:50:56.000437 63928 net.cpp:425] norm2 <- conv2
I1028 02:50:56.000442 63928 net.cpp:399] norm2 -> norm2
I1028 02:50:56.000622 63928 net.cpp:141] Setting up norm2
I1028 02:50:56.000713 63928 net.cpp:148] Top shape: 50 256 27 27 (9331200)
I1028 02:50:56.000732 63928 net.cpp:156] Memory required for data: 392964200
I1028 02:50:56.000737 63928 layer_factory.hpp:77] Creating layer pool2
I1028 02:50:56.000744 63928 net.cpp:91] Creating Layer pool2
I1028 02:50:56.000748 63928 net.cpp:425] pool2 <- norm2
I1028 02:50:56.000754 63928 net.cpp:399] pool2 -> pool2
I1028 02:50:56.000798 63928 net.cpp:141] Setting up pool2
I1028 02:50:56.000807 63928 net.cpp:148] Top shape: 50 256 13 13 (2163200)
I1028 02:50:56.000809 63928 net.cpp:156] Memory required for data: 401617000
I1028 02:50:56.000813 63928 layer_factory.hpp:77] Creating layer conv3
I1028 02:50:56.000823 63928 net.cpp:91] Creating Layer conv3
I1028 02:50:56.000828 63928 net.cpp:425] conv3 <- pool2
I1028 02:50:56.000834 63928 net.cpp:399] conv3 -> conv3
I1028 02:50:56.015583 63928 net.cpp:141] Setting up conv3
I1028 02:50:56.015622 63928 net.cpp:148] Top shape: 50 384 13 13 (3244800)
I1028 02:50:56.015627 63928 net.cpp:156] Memory required for data: 414596200
I1028 02:50:56.015643 63928 layer_factory.hpp:77] Creating layer relu3
I1028 02:50:56.015658 63928 net.cpp:91] Creating Layer relu3
I1028 02:50:56.015663 63928 net.cpp:425] relu3 <- conv3
I1028 02:50:56.015672 63928 net.cpp:386] relu3 -> conv3 (in-place)
I1028 02:50:56.015967 63928 net.cpp:141] Setting up relu3
I1028 02:50:56.015980 63928 net.cpp:148] Top shape: 50 384 13 13 (3244800)
I1028 02:50:56.015983 63928 net.cpp:156] Memory required for data: 427575400
I1028 02:50:56.015995 63928 layer_factory.hpp:77] Creating layer conv4
I1028 02:50:56.016011 63928 net.cpp:91] Creating Layer conv4
I1028 02:50:56.016016 63928 net.cpp:425] conv4 <- conv3
I1028 02:50:56.016023 63928 net.cpp:399] conv4 -> conv4
I1028 02:50:56.027354 63928 net.cpp:141] Setting up conv4
I1028 02:50:56.027369 63928 net.cpp:148] Top shape: 50 384 13 13 (3244800)
I1028 02:50:56.027384 63928 net.cpp:156] Memory required for data: 440554600
I1028 02:50:56.027391 63928 layer_factory.hpp:77] Creating layer relu4
I1028 02:50:56.027400 63928 net.cpp:91] Creating Layer relu4
I1028 02:50:56.027405 63928 net.cpp:425] relu4 <- conv4
I1028 02:50:56.027411 63928 net.cpp:386] relu4 -> conv4 (in-place)
I1028 02:50:56.027671 63928 net.cpp:141] Setting up relu4
I1028 02:50:56.027683 63928 net.cpp:148] Top shape: 50 384 13 13 (3244800)
I1028 02:50:56.027686 63928 net.cpp:156] Memory required for data: 453533800
I1028 02:50:56.027689 63928 layer_factory.hpp:77] Creating layer conv5
I1028 02:50:56.027701 63928 net.cpp:91] Creating Layer conv5
I1028 02:50:56.027705 63928 net.cpp:425] conv5 <- conv4
I1028 02:50:56.027712 63928 net.cpp:399] conv5 -> conv5
I1028 02:50:56.035776 63928 net.cpp:141] Setting up conv5
I1028 02:50:56.035804 63928 net.cpp:148] Top shape: 50 256 13 13 (2163200)
I1028 02:50:56.035807 63928 net.cpp:156] Memory required for data: 462186600
I1028 02:50:56.035818 63928 layer_factory.hpp:77] Creating layer relu5
I1028 02:50:56.035830 63928 net.cpp:91] Creating Layer relu5
I1028 02:50:56.035835 63928 net.cpp:425] relu5 <- conv5
I1028 02:50:56.035840 63928 net.cpp:386] relu5 -> conv5 (in-place)
I1028 02:50:56.036134 63928 net.cpp:141] Setting up relu5
I1028 02:50:56.036146 63928 net.cpp:148] Top shape: 50 256 13 13 (2163200)
I1028 02:50:56.036149 63928 net.cpp:156] Memory required for data: 470839400
I1028 02:50:56.036154 63928 layer_factory.hpp:77] Creating layer pool5
I1028 02:50:56.036164 63928 net.cpp:91] Creating Layer pool5
I1028 02:50:56.036166 63928 net.cpp:425] pool5 <- conv5
I1028 02:50:56.036173 63928 net.cpp:399] pool5 -> pool5
I1028 02:50:56.036234 63928 net.cpp:141] Setting up pool5
I1028 02:50:56.036243 63928 net.cpp:148] Top shape: 50 256 6 6 (460800)
I1028 02:50:56.036247 63928 net.cpp:156] Memory required for data: 472682600
I1028 02:50:56.036250 63928 layer_factory.hpp:77] Creating layer fc6
I1028 02:50:56.036262 63928 net.cpp:91] Creating Layer fc6
I1028 02:50:56.036265 63928 net.cpp:425] fc6 <- pool5
I1028 02:50:56.036272 63928 net.cpp:399] fc6 -> fc6
I1028 02:50:56.579406 63928 net.cpp:141] Setting up fc6
I1028 02:50:56.579463 63928 net.cpp:148] Top shape: 50 4096 (204800)
I1028 02:50:56.579507 63928 net.cpp:156] Memory required for data: 473501800
I1028 02:50:56.579521 63928 layer_factory.hpp:77] Creating layer relu6
I1028 02:50:56.579541 63928 net.cpp:91] Creating Layer relu6
I1028 02:50:56.579548 63928 net.cpp:425] relu6 <- fc6
I1028 02:50:56.579558 63928 net.cpp:386] relu6 -> fc6 (in-place)
I1028 02:50:56.579802 63928 net.cpp:141] Setting up relu6
I1028 02:50:56.579813 63928 net.cpp:148] Top shape: 50 4096 (204800)
I1028 02:50:56.579815 63928 net.cpp:156] Memory required for data: 474321000
I1028 02:50:56.579818 63928 layer_factory.hpp:77] Creating layer drop6
I1028 02:50:56.579829 63928 net.cpp:91] Creating Layer drop6
I1028 02:50:56.579833 63928 net.cpp:425] drop6 <- fc6
I1028 02:50:56.579838 63928 net.cpp:386] drop6 -> fc6 (in-place)
I1028 02:50:56.579870 63928 net.cpp:141] Setting up drop6
I1028 02:50:56.579877 63928 net.cpp:148] Top shape: 50 4096 (204800)
I1028 02:50:56.579880 63928 net.cpp:156] Memory required for data: 475140200
I1028 02:50:56.579884 63928 layer_factory.hpp:77] Creating layer fc7
I1028 02:50:56.579900 63928 net.cpp:91] Creating Layer fc7
I1028 02:50:56.579903 63928 net.cpp:425] fc7 <- fc6
I1028 02:50:56.579910 63928 net.cpp:399] fc7 -> fc7
I1028 02:50:56.816154 63928 net.cpp:141] Setting up fc7
I1028 02:50:56.816208 63928 net.cpp:148] Top shape: 50 4096 (204800)
I1028 02:50:56.816212 63928 net.cpp:156] Memory required for data: 475959400
I1028 02:50:56.816226 63928 layer_factory.hpp:77] Creating layer fc7_n
I1028 02:50:56.816246 63928 net.cpp:91] Creating Layer fc7_n
I1028 02:50:56.816251 63928 net.cpp:425] fc7_n <- fc7
I1028 02:50:56.816263 63928 net.cpp:399] fc7_n -> fc7_n
I1028 02:50:56.816304 63928 net.cpp:141] Setting up fc7_n
I1028 02:50:56.816310 63928 net.cpp:148] Top shape: 50 4096 (204800)
I1028 02:50:56.816313 63928 net.cpp:156] Memory required for data: 476778600
I1028 02:50:56.816316 63928 layer_factory.hpp:77] Creating layer conv1_p
I1028 02:50:56.816336 63928 net.cpp:91] Creating Layer conv1_p
I1028 02:50:56.816339 63928 net.cpp:425] conv1_p <- data_data_0_split_1
I1028 02:50:56.816347 63928 net.cpp:399] conv1_p -> conv1_p
I1028 02:50:56.818027 63928 net.cpp:141] Setting up conv1_p
I1028 02:50:56.818038 63928 net.cpp:148] Top shape: 50 96 55 55 (14520000)
I1028 02:50:56.818053 63928 net.cpp:156] Memory required for data: 534858600
I1028 02:50:56.818060 63928 layer_factory.hpp:77] Creating layer relu1_p
I1028 02:50:56.818070 63928 net.cpp:91] Creating Layer relu1_p
I1028 02:50:56.818073 63928 net.cpp:425] relu1_p <- conv1_p
I1028 02:50:56.818079 63928 net.cpp:386] relu1_p -> conv1_p (in-place)
I1028 02:50:56.818343 63928 net.cpp:141] Setting up relu1_p
I1028 02:50:56.818354 63928 net.cpp:148] Top shape: 50 96 55 55 (14520000)
I1028 02:50:56.818357 63928 net.cpp:156] Memory required for data: 592938600
I1028 02:50:56.818361 63928 layer_factory.hpp:77] Creating layer norm1_p
I1028 02:50:56.818372 63928 net.cpp:91] Creating Layer norm1_p
I1028 02:50:56.818375 63928 net.cpp:425] norm1_p <- conv1_p
I1028 02:50:56.818382 63928 net.cpp:399] norm1_p -> norm1_p
I1028 02:50:56.818559 63928 net.cpp:141] Setting up norm1_p
I1028 02:50:56.818569 63928 net.cpp:148] Top shape: 50 96 55 55 (14520000)
I1028 02:50:56.818572 63928 net.cpp:156] Memory required for data: 651018600
I1028 02:50:56.818577 63928 layer_factory.hpp:77] Creating layer pool1_p
I1028 02:50:56.818584 63928 net.cpp:91] Creating Layer pool1_p
I1028 02:50:56.818588 63928 net.cpp:425] pool1_p <- norm1_p
I1028 02:50:56.818594 63928 net.cpp:399] pool1_p -> pool1_p
I1028 02:50:56.818637 63928 net.cpp:141] Setting up pool1_p
I1028 02:50:56.818645 63928 net.cpp:148] Top shape: 50 96 27 27 (3499200)
I1028 02:50:56.818647 63928 net.cpp:156] Memory required for data: 665015400
I1028 02:50:56.818650 63928 layer_factory.hpp:77] Creating layer conv2_p
I1028 02:50:56.818661 63928 net.cpp:91] Creating Layer conv2_p
I1028 02:50:56.818665 63928 net.cpp:425] conv2_p <- pool1_p
I1028 02:50:56.818671 63928 net.cpp:399] conv2_p -> conv2_p
I1028 02:50:56.824584 63928 net.cpp:141] Setting up conv2_p
I1028 02:50:56.824626 63928 net.cpp:148] Top shape: 50 256 27 27 (9331200)
I1028 02:50:56.824641 63928 net.cpp:156] Memory required for data: 702340200
I1028 02:50:56.824656 63928 layer_factory.hpp:77] Creating layer relu2_p
I1028 02:50:56.824663 63928 net.cpp:91] Creating Layer relu2_p
I1028 02:50:56.824667 63928 net.cpp:425] relu2_p <- conv2_p
I1028 02:50:56.824673 63928 net.cpp:386] relu2_p -> conv2_p (in-place)
I1028 02:50:56.824828 63928 net.cpp:141] Setting up relu2_p
I1028 02:50:56.824838 63928 net.cpp:148] Top shape: 50 256 27 27 (9331200)
I1028 02:50:56.824841 63928 net.cpp:156] Memory required for data: 739665000
I1028 02:50:56.824844 63928 layer_factory.hpp:77] Creating layer norm2_p
I1028 02:50:56.824851 63928 net.cpp:91] Creating Layer norm2_p
I1028 02:50:56.824856 63928 net.cpp:425] norm2_p <- conv2_p
I1028 02:50:56.824861 63928 net.cpp:399] norm2_p -> norm2_p
I1028 02:50:56.825192 63928 net.cpp:141] Setting up norm2_p
I1028 02:50:56.825203 63928 net.cpp:148] Top shape: 50 256 27 27 (9331200)
I1028 02:50:56.825206 63928 net.cpp:156] Memory required for data: 776989800
I1028 02:50:56.825209 63928 layer_factory.hpp:77] Creating layer pool2_p
I1028 02:50:56.825217 63928 net.cpp:91] Creating Layer pool2_p
I1028 02:50:56.825219 63928 net.cpp:425] pool2_p <- norm2_p
I1028 02:50:56.825227 63928 net.cpp:399] pool2_p -> pool2_p
I1028 02:50:56.825280 63928 net.cpp:141] Setting up pool2_p
I1028 02:50:56.825286 63928 net.cpp:148] Top shape: 50 256 13 13 (2163200)
I1028 02:50:56.825289 63928 net.cpp:156] Memory required for data: 785642600
I1028 02:50:56.825292 63928 layer_factory.hpp:77] Creating layer conv3_p
I1028 02:50:56.825304 63928 net.cpp:91] Creating Layer conv3_p
I1028 02:50:56.825309 63928 net.cpp:425] conv3_p <- pool2_p
I1028 02:50:56.825314 63928 net.cpp:399] conv3_p -> conv3_p
I1028 02:50:56.838892 63928 net.cpp:141] Setting up conv3_p
I1028 02:50:56.838903 63928 net.cpp:148] Top shape: 50 384 13 13 (3244800)
I1028 02:50:56.838918 63928 net.cpp:156] Memory required for data: 798621800
I1028 02:50:56.838924 63928 layer_factory.hpp:77] Creating layer relu3_p
I1028 02:50:56.838937 63928 net.cpp:91] Creating Layer relu3_p
I1028 02:50:56.838942 63928 net.cpp:425] relu3_p <- conv3_p
I1028 02:50:56.838946 63928 net.cpp:386] relu3_p -> conv3_p (in-place)
I1028 02:50:56.839098 63928 net.cpp:141] Setting up relu3_p
I1028 02:50:56.839107 63928 net.cpp:148] Top shape: 50 384 13 13 (3244800)
I1028 02:50:56.839110 63928 net.cpp:156] Memory required for data: 811601000
I1028 02:50:56.839114 63928 layer_factory.hpp:77] Creating layer conv4_p
I1028 02:50:56.839125 63928 net.cpp:91] Creating Layer conv4_p
I1028 02:50:56.839129 63928 net.cpp:425] conv4_p <- conv3_p
I1028 02:50:56.839138 63928 net.cpp:399] conv4_p -> conv4_p
I1028 02:50:56.850005 63928 net.cpp:141] Setting up conv4_p
I1028 02:50:56.850018 63928 net.cpp:148] Top shape: 50 384 13 13 (3244800)
I1028 02:50:56.850033 63928 net.cpp:156] Memory required for data: 824580200
I1028 02:50:56.850039 63928 layer_factory.hpp:77] Creating layer relu4_p
I1028 02:50:56.850045 63928 net.cpp:91] Creating Layer relu4_p
I1028 02:50:56.850049 63928 net.cpp:425] relu4_p <- conv4_p
I1028 02:50:56.850054 63928 net.cpp:386] relu4_p -> conv4_p (in-place)
I1028 02:50:56.850208 63928 net.cpp:141] Setting up relu4_p
I1028 02:50:56.850217 63928 net.cpp:148] Top shape: 50 384 13 13 (3244800)
I1028 02:50:56.850220 63928 net.cpp:156] Memory required for data: 837559400
I1028 02:50:56.850224 63928 layer_factory.hpp:77] Creating layer conv5_p
I1028 02:50:56.850235 63928 net.cpp:91] Creating Layer conv5_p
I1028 02:50:56.850239 63928 net.cpp:425] conv5_p <- conv4_p
I1028 02:50:56.850246 63928 net.cpp:399] conv5_p -> conv5_p
I1028 02:50:56.858055 63928 net.cpp:141] Setting up conv5_p
I1028 02:50:56.858067 63928 net.cpp:148] Top shape: 50 256 13 13 (2163200)
I1028 02:50:56.858081 63928 net.cpp:156] Memory required for data: 846212200
I1028 02:50:56.858088 63928 layer_factory.hpp:77] Creating layer relu5_p
I1028 02:50:56.858093 63928 net.cpp:91] Creating Layer relu5_p
I1028 02:50:56.858110 63928 net.cpp:425] relu5_p <- conv5_p
I1028 02:50:56.858116 63928 net.cpp:386] relu5_p -> conv5_p (in-place)
I1028 02:50:56.858270 63928 net.cpp:141] Setting up relu5_p
I1028 02:50:56.858279 63928 net.cpp:148] Top shape: 50 256 13 13 (2163200)
I1028 02:50:56.858283 63928 net.cpp:156] Memory required for data: 854865000
I1028 02:50:56.858285 63928 layer_factory.hpp:77] Creating layer pool5_p
I1028 02:50:56.858294 63928 net.cpp:91] Creating Layer pool5_p
I1028 02:50:56.858297 63928 net.cpp:425] pool5_p <- conv5_p
I1028 02:50:56.858302 63928 net.cpp:399] pool5_p -> pool5_p
I1028 02:50:56.858350 63928 net.cpp:141] Setting up pool5_p
I1028 02:50:56.858357 63928 net.cpp:148] Top shape: 50 256 6 6 (460800)
I1028 02:50:56.858361 63928 net.cpp:156] Memory required for data: 856708200
I1028 02:50:56.858363 63928 layer_factory.hpp:77] Creating layer fc6_p
I1028 02:50:56.858373 63928 net.cpp:91] Creating Layer fc6_p
I1028 02:50:56.858376 63928 net.cpp:425] fc6_p <- pool5_p
I1028 02:50:56.858383 63928 net.cpp:399] fc6_p -> fc6_p
I1028 02:50:57.390120 63928 net.cpp:141] Setting up fc6_p
I1028 02:50:57.390174 63928 net.cpp:148] Top shape: 50 4096 (204800)
I1028 02:50:57.390179 63928 net.cpp:156] Memory required for data: 857527400
I1028 02:50:57.390192 63928 layer_factory.hpp:77] Creating layer relu6_p
I1028 02:50:57.390213 63928 net.cpp:91] Creating Layer relu6_p
I1028 02:50:57.390218 63928 net.cpp:425] relu6_p <- fc6_p
I1028 02:50:57.390229 63928 net.cpp:386] relu6_p -> fc6_p (in-place)
I1028 02:50:57.390729 63928 net.cpp:141] Setting up relu6_p
I1028 02:50:57.390739 63928 net.cpp:148] Top shape: 50 4096 (204800)
I1028 02:50:57.390753 63928 net.cpp:156] Memory required for data: 858346600
I1028 02:50:57.390758 63928 layer_factory.hpp:77] Creating layer drop6_p
I1028 02:50:57.390769 63928 net.cpp:91] Creating Layer drop6_p
I1028 02:50:57.390771 63928 net.cpp:425] drop6_p <- fc6_p
I1028 02:50:57.390779 63928 net.cpp:386] drop6_p -> fc6_p (in-place)
I1028 02:50:57.390812 63928 net.cpp:141] Setting up drop6_p
I1028 02:50:57.390818 63928 net.cpp:148] Top shape: 50 4096 (204800)
I1028 02:50:57.390823 63928 net.cpp:156] Memory required for data: 859165800
I1028 02:50:57.390826 63928 layer_factory.hpp:77] Creating layer fc7_p
I1028 02:50:57.390838 63928 net.cpp:91] Creating Layer fc7_p
I1028 02:50:57.390842 63928 net.cpp:425] fc7_p <- fc6_p
I1028 02:50:57.390849 63928 net.cpp:399] fc7_p -> fc7_p
I1028 02:50:57.627374 63928 net.cpp:141] Setting up fc7_p
I1028 02:50:57.627430 63928 net.cpp:148] Top shape: 50 4096 (204800)
I1028 02:50:57.627434 63928 net.cpp:156] Memory required for data: 859985000
I1028 02:50:57.627447 63928 layer_factory.hpp:77] Creating layer relu7_p
I1028 02:50:57.627470 63928 net.cpp:91] Creating Layer relu7_p
I1028 02:50:57.627475 63928 net.cpp:425] relu7_p <- fc7_p
I1028 02:50:57.627486 63928 net.cpp:386] relu7_p -> fc7_p (in-place)
I1028 02:50:57.628015 63928 net.cpp:141] Setting up relu7_p
I1028 02:50:57.628028 63928 net.cpp:148] Top shape: 50 4096 (204800)
I1028 02:50:57.628031 63928 net.cpp:156] Memory required for data: 860804200
I1028 02:50:57.628036 63928 layer_factory.hpp:77] Creating layer drop7_p
I1028 02:50:57.628047 63928 net.cpp:91] Creating Layer drop7_p
I1028 02:50:57.628051 63928 net.cpp:425] drop7_p <- fc7_p
I1028 02:50:57.628060 63928 net.cpp:386] drop7_p -> fc7_p (in-place)
I1028 02:50:57.628095 63928 net.cpp:141] Setting up drop7_p
I1028 02:50:57.628103 63928 net.cpp:148] Top shape: 50 4096 (204800)
I1028 02:50:57.628106 63928 net.cpp:156] Memory required for data: 861623400
I1028 02:50:57.628109 63928 layer_factory.hpp:77] Creating layer fc7_p_drop7_p_0_split
I1028 02:50:57.628116 63928 net.cpp:91] Creating Layer fc7_p_drop7_p_0_split
I1028 02:50:57.628119 63928 net.cpp:425] fc7_p_drop7_p_0_split <- fc7_p
I1028 02:50:57.628129 63928 net.cpp:399] fc7_p_drop7_p_0_split -> fc7_p_drop7_p_0_split_0
I1028 02:50:57.628144 63928 net.cpp:399] fc7_p_drop7_p_0_split -> fc7_p_drop7_p_0_split_1
I1028 02:50:57.628187 63928 net.cpp:141] Setting up fc7_p_drop7_p_0_split
I1028 02:50:57.628196 63928 net.cpp:148] Top shape: 50 4096 (204800)
I1028 02:50:57.628235 63928 net.cpp:148] Top shape: 50 4096 (204800)
I1028 02:50:57.628238 63928 net.cpp:156] Memory required for data: 863261800
I1028 02:50:57.628242 63928 layer_factory.hpp:77] Creating layer fc8_p
I1028 02:50:57.628257 63928 net.cpp:91] Creating Layer fc8_p
I1028 02:50:57.628260 63928 net.cpp:425] fc8_p <- fc7_p_drop7_p_0_split_0
I1028 02:50:57.628265 63928 net.cpp:399] fc8_p -> fc8_p
I1028 02:50:57.657160 63928 net.cpp:141] Setting up fc8_p
I1028 02:50:57.657169 63928 net.cpp:148] Top shape: 50 504 (25200)
I1028 02:50:57.657186 63928 net.cpp:156] Memory required for data: 863362600
I1028 02:50:57.657191 63928 layer_factory.hpp:77] Creating layer fc8_p_fc8_p_0_split
I1028 02:50:57.657199 63928 net.cpp:91] Creating Layer fc8_p_fc8_p_0_split
I1028 02:50:57.657203 63928 net.cpp:425] fc8_p_fc8_p_0_split <- fc8_p
I1028 02:50:57.657208 63928 net.cpp:399] fc8_p_fc8_p_0_split -> fc8_p_fc8_p_0_split_0
I1028 02:50:57.657215 63928 net.cpp:399] fc8_p_fc8_p_0_split -> fc8_p_fc8_p_0_split_1
I1028 02:50:57.657220 63928 net.cpp:399] fc8_p_fc8_p_0_split -> fc8_p_fc8_p_0_split_2
I1028 02:50:57.657271 63928 net.cpp:141] Setting up fc8_p_fc8_p_0_split
I1028 02:50:57.657279 63928 net.cpp:148] Top shape: 50 504 (25200)
I1028 02:50:57.657282 63928 net.cpp:148] Top shape: 50 504 (25200)
I1028 02:50:57.657285 63928 net.cpp:148] Top shape: 50 504 (25200)
I1028 02:50:57.657289 63928 net.cpp:156] Memory required for data: 863665000
I1028 02:50:57.657291 63928 layer_factory.hpp:77] Creating layer precision@1
I1028 02:50:57.657356 63928 net.cpp:91] Creating Layer precision@1
I1028 02:50:57.657362 63928 net.cpp:425] precision@1 <- fc8_p_fc8_p_0_split_0
I1028 02:50:57.657368 63928 net.cpp:425] precision@1 <- label_data_1_split_0
I1028 02:50:57.657373 63928 net.cpp:399] precision@1 -> precision@1
…
