…
I1024 17:55:11.856253  9062 net.cpp:322] The NetState phase (0) differed from the phase (1) specified by a rule in layer precision@5
I1024 17:55:11.856995  9062 net.cpp:58] Initializing net from parameters: 
name: "AlexNet"
state {
  phase: TRAIN
  level: 0
  stage: ""
}
layer {
  name: "data"
  type: "Data"
  top: "data"
  top: "label"
  include {
    phase: TRAIN
  }
  transform_param {
    mirror: true
    crop_size: 227
    mean_file: "examples/imagenet/imagenet_mean.binaryproto"
  }
  data_param {
    source: "/work/03713/harshal1/maverick/vision_proj/data/train_lmdb"
    batch_size: 256
    backend: LMDB
  }
}
layer {
  name: "conv1"
  type: "Convolution"
  bottom: "data"
  top: "conv1"
  param {
    lr_mult: 1
    decay_mult: 1
  }
  param {
    lr_mult: 2
    decay_mult: 0
  }
  convolution_param {
    num_output: 96
    kernel_size: 11
    stride: 4
    weight_filler {
      type: "gaussian"
      std: 0.01
    }
    bias_filler {
      type: "constant"
      value: 0
    }
  }
}
layer {
  name: "relu1"
  type: "ReLU"
  bottom: "conv1"
  top: "conv1"
}
layer {
  name: "norm1"
  type: "LRN"
  bottom: "conv1"
  top: "norm1"
  lrn_param {
    local_size: 5
    alpha: 0.0001
    beta: 0.75
  }
}
layer {
  name: "pool1"
  type: "Pooling"
  bottom: "norm1"
  top: "pool1"
  pooling_param {
    pool: MAX
    kernel_size: 3
    stride: 2
  }
}
layer {
  name: "conv2"
  type: "Convolution"
  bottom: "pool1"
  top: "conv2"
  param {
    lr_mult: 1
    decay_mult: 1
  }
  param {
    lr_mult: 2
    decay_mult: 0
  }
  convolution_param {
    num_output: 256
    pad: 2
    kernel_size: 5
    group: 2
    weight_filler {
      type: "gaussian"
      std: 0.01
    }
    bias_filler {
      type: "constant"
      value: 0.1
    }
  }
}
layer {
  name: "relu2"
  type: "ReLU"
  bottom: "conv2"
  top: "conv2"
}
layer {
  name: "norm2"
  type: "LRN"
  bottom: "conv2"
  top: "norm2"
  lrn_param {
    local_size: 5
    alpha: 0.0001
    beta: 0.75
  }
}
layer {
  name: "pool2"
  type: "Pooling"
  bottom: "norm2"
  top: "pool2"
  pooling_param {
    pool: MAX
    kernel_size: 3
    stride: 2
  }
}
layer {
  name: "conv3"
  type: "Convolution"
  bottom: "pool2"
  top: "conv3"
  param {
    lr_mult: 1
    decay_mult: 1
  }
  param {
    lr_mult: 2
    decay_mult: 0
  }
  convolution_param {
    num_output: 384
    pad: 1
    kernel_size: 3
    weight_filler {
      type: "gaussian"
      std: 0.01
    }
    bias_filler {
      type: "constant"
      value: 0
    }
  }
}
layer {
  name: "relu3"
  type: "ReLU"
  bottom: "conv3"
  top: "conv3"
}
layer {
  name: "conv4"
  type: "Convolution"
  bottom: "conv3"
  top: "conv4"
  param {
    lr_mult: 1
    decay_mult: 1
  }
  param {
    lr_mult: 2
    decay_mult: 0
  }
  convolution_param {
    num_output: 384
    pad: 1
    kernel_size: 3
    group: 2
    weight_filler {
      type: "gaussian"
      std: 0.01
    }
    bias_filler {
      type: "constant"
      value: 0.1
    }
  }
}
layer {
  name: "relu4"
  type: "ReLU"
  bottom: "conv4"
  top: "conv4"
}
layer {
  name: "conv5"
  type: "Convolution"
  bottom: "conv4"
  top: "conv5"
  param {
    lr_mult: 1
    decay_mult: 1
  }
  param {
    lr_mult: 2
    decay_mult: 0
  }
  convolution_param {
    num_output: 256
    pad: 1
    kernel_size: 3
    group: 2
    weight_filler {
      type: "gaussian"
      std: 0.01
    }
    bias_filler {
      type: "constant"
      value: 0.1
    }
  }
}
layer {
  name: "relu5"
  type: "ReLU"
  bottom: "conv5"
  top: "conv5"
}
layer {
  name: "pool5"
  type: "Pooling"
  bottom: "conv5"
  top: "pool5"
  pooling_param {
    pool: MAX
    kernel_size: 3
    stride: 2
  }
}
layer {
  name: "fc6"
  type: "InnerProduct"
  bottom: "pool5"
  top: "fc6"
  param {
    lr_mult: 1
    decay_mult: 1
  }
  param {
    lr_mult: 2
    decay_mult: 0
  }
  inner_product_param {
    num_output: 4096
    weight_filler {
      type: "gaussian"
      std: 0.005
    }
    bias_filler {
      type: "constant"
      value: 0.1
    }
  }
}
layer {
  name: "relu6"
  type: "ReLU"
  bottom: "fc6"
  top: "fc6"
}
layer {
  name: "drop6"
  type: "Dropout"
  bottom: "fc6"
  top: "fc6"
  dropout_param {
    dropout_ratio: 0.5
  }
}
layer {
  name: "fc7"
  type: "InnerProduct"
  bottom: "fc6"
  top: "fc7"
  param {
    lr_mult: 1
    decay_mult: 1
  }
  param {
    lr_mult: 2
    decay_mult: 0
  }
  inner_product_param {
    num_output: 4096
    weight_filler {
      type: "gaussian"
      std: 0.005
    }
    bias_filler {
      type: "constant"
      value: 0.1
    }
  }
}
layer {
  name: "relu7"
  type: "ReLU"
  bottom: "fc7"
  top: "fc7"
}
layer {
  name: "drop7"
  type: "Dropout"
  bottom: "fc7"
  top: "fc7"
  dropout_param {
    dropout_ratio: 0.5
  }
}
layer {
  name: "fc8-new"
  type: "InnerProduct"
  bottom: "fc7"
  top: "fc8-new"
  param {
    lr_mult: 1
    decay_mult: 1
  }
  param {
    lr_mult: 2
    decay_mult: 0
  }
  inner_product_param {
    num_output: 504
    weight_filler {
      type: "gaussian"
      std: 0.01
    }
    bias_filler {
      type: "constant"
      value: 0
    }
  }
}
layer {
  name: "loss"
  type: "SoftmaxWithLoss"
  bottom: "fc8-new"
  bottom: "label"
  top: "loss"
}
I1024 17:55:11.857213  9062 layer_factory.hpp:77] Creating layer data
I1024 17:55:11.858095  9062 net.cpp:100] Creating Layer data
I1024 17:55:11.858161  9062 net.cpp:408] data -> data
I1024 17:55:11.858261  9062 net.cpp:408] data -> label
I1024 17:55:11.858321  9062 data_transformer.cpp:25] Loading mean file from: examples/imagenet/imagenet_mean.binaryproto
I1024 17:55:11.875278  9173 db_lmdb.cpp:35] Opened lmdb /work/03713/harshal1/maverick/vision_proj/data/train_lmdb
I1024 17:55:11.890312  9062 data_layer.cpp:41] output data size: 256,3,227,227
I1024 17:55:12.193975  9062 net.cpp:150] Setting up data
I1024 17:55:12.194124  9062 net.cpp:157] Top shape: 256 3 227 227 (39574272)
I1024 17:55:12.194134  9062 net.cpp:157] Top shape: 256 (256)
I1024 17:55:12.194138  9062 net.cpp:165] Memory required for data: 158298112
I1024 17:55:12.194154  9062 layer_factory.hpp:77] Creating layer conv1
I1024 17:55:12.194211  9062 net.cpp:100] Creating Layer conv1
I1024 17:55:12.194242  9062 net.cpp:434] conv1 <- data
I1024 17:55:12.194265  9062 net.cpp:408] conv1 -> conv1
I1024 17:55:12.712785  9174 blocking_queue.cpp:50] Waiting for data
I1024 17:55:12.967358  9062 net.cpp:150] Setting up conv1
I1024 17:55:12.967391  9062 net.cpp:157] Top shape: 256 96 55 55 (74342400)
I1024 17:55:12.967394  9062 net.cpp:165] Memory required for data: 455667712
I1024 17:55:12.967453  9062 layer_factory.hpp:77] Creating layer relu1
I1024 17:55:12.967506  9062 net.cpp:100] Creating Layer relu1
I1024 17:55:12.967516  9062 net.cpp:434] relu1 <- conv1
I1024 17:55:12.967525  9062 net.cpp:395] relu1 -> conv1 (in-place)
I1024 17:55:12.967842  9062 net.cpp:150] Setting up relu1
I1024 17:55:12.967854  9062 net.cpp:157] Top shape: 256 96 55 55 (74342400)
I1024 17:55:12.967857  9062 net.cpp:165] Memory required for data: 753037312
I1024 17:55:12.967861  9062 layer_factory.hpp:77] Creating layer norm1
I1024 17:55:12.967907  9062 net.cpp:100] Creating Layer norm1
I1024 17:55:12.967916  9062 net.cpp:434] norm1 <- conv1
I1024 17:55:12.967922  9062 net.cpp:408] norm1 -> norm1
I1024 17:55:12.968190  9062 net.cpp:150] Setting up norm1
I1024 17:55:12.968240  9062 net.cpp:157] Top shape: 256 96 55 55 (74342400)
I1024 17:55:12.968245  9062 net.cpp:165] Memory required for data: 1050406912
I1024 17:55:12.968248  9062 layer_factory.hpp:77] Creating layer pool1
I1024 17:55:12.968257  9062 net.cpp:100] Creating Layer pool1
I1024 17:55:12.968261  9062 net.cpp:434] pool1 <- norm1
I1024 17:55:12.968269  9062 net.cpp:408] pool1 -> pool1
I1024 17:55:12.968374  9062 net.cpp:150] Setting up pool1
I1024 17:55:12.968386  9062 net.cpp:157] Top shape: 256 96 27 27 (17915904)
I1024 17:55:12.968390  9062 net.cpp:165] Memory required for data: 1122070528
I1024 17:55:12.968394  9062 layer_factory.hpp:77] Creating layer conv2
I1024 17:55:12.968411  9062 net.cpp:100] Creating Layer conv2
I1024 17:55:12.968415  9062 net.cpp:434] conv2 <- pool1
I1024 17:55:12.968422  9062 net.cpp:408] conv2 -> conv2
I1024 17:55:12.975755  9062 net.cpp:150] Setting up conv2
I1024 17:55:12.975771  9062 net.cpp:157] Top shape: 256 256 27 27 (47775744)
I1024 17:55:12.975775  9062 net.cpp:165] Memory required for data: 1313173504
I1024 17:55:12.975785  9062 layer_factory.hpp:77] Creating layer relu2
I1024 17:55:12.975793  9062 net.cpp:100] Creating Layer relu2
I1024 17:55:12.975797  9062 net.cpp:434] relu2 <- conv2
I1024 17:55:12.975805  9062 net.cpp:395] relu2 -> conv2 (in-place)
I1024 17:55:12.975972  9062 net.cpp:150] Setting up relu2
I1024 17:55:12.975983  9062 net.cpp:157] Top shape: 256 256 27 27 (47775744)
I1024 17:55:12.975986  9062 net.cpp:165] Memory required for data: 1504276480
I1024 17:55:12.975991  9062 layer_factory.hpp:77] Creating layer norm2
I1024 17:55:12.975999  9062 net.cpp:100] Creating Layer norm2
I1024 17:55:12.976003  9062 net.cpp:434] norm2 <- conv2
I1024 17:55:12.976011  9062 net.cpp:408] norm2 -> norm2
I1024 17:55:12.976316  9062 net.cpp:150] Setting up norm2
I1024 17:55:12.976328  9062 net.cpp:157] Top shape: 256 256 27 27 (47775744)
I1024 17:55:12.976331  9062 net.cpp:165] Memory required for data: 1695379456
I1024 17:55:12.976336  9062 layer_factory.hpp:77] Creating layer pool2
I1024 17:55:12.976343  9062 net.cpp:100] Creating Layer pool2
I1024 17:55:12.976352  9062 net.cpp:434] pool2 <- norm2
I1024 17:55:12.976358  9062 net.cpp:408] pool2 -> pool2
I1024 17:55:12.976398  9062 net.cpp:150] Setting up pool2
I1024 17:55:12.976407  9062 net.cpp:157] Top shape: 256 256 13 13 (11075584)
I1024 17:55:12.976409  9062 net.cpp:165] Memory required for data: 1739681792
I1024 17:55:12.976413  9062 layer_factory.hpp:77] Creating layer conv3
I1024 17:55:12.976425  9062 net.cpp:100] Creating Layer conv3
I1024 17:55:12.976430  9062 net.cpp:434] conv3 <- pool2
I1024 17:55:12.976440  9062 net.cpp:408] conv3 -> conv3
I1024 17:55:12.991575  9062 net.cpp:150] Setting up conv3
I1024 17:55:12.991605  9062 net.cpp:157] Top shape: 256 384 13 13 (16613376)
I1024 17:55:12.991607  9062 net.cpp:165] Memory required for data: 1806135296
I1024 17:55:12.991617  9062 layer_factory.hpp:77] Creating layer relu3
I1024 17:55:12.991624  9062 net.cpp:100] Creating Layer relu3
I1024 17:55:12.991627  9062 net.cpp:434] relu3 <- conv3
I1024 17:55:12.991634  9062 net.cpp:395] relu3 -> conv3 (in-place)
I1024 17:55:12.991801  9062 net.cpp:150] Setting up relu3
I1024 17:55:12.991811  9062 net.cpp:157] Top shape: 256 384 13 13 (16613376)
I1024 17:55:12.991814  9062 net.cpp:165] Memory required for data: 1872588800
I1024 17:55:12.991817  9062 layer_factory.hpp:77] Creating layer conv4
I1024 17:55:12.991829  9062 net.cpp:100] Creating Layer conv4
I1024 17:55:12.991833  9062 net.cpp:434] conv4 <- conv3
I1024 17:55:12.991842  9062 net.cpp:408] conv4 -> conv4
I1024 17:55:13.003559  9062 net.cpp:150] Setting up conv4
I1024 17:55:13.003572  9062 net.cpp:157] Top shape: 256 384 13 13 (16613376)
I1024 17:55:13.003587  9062 net.cpp:165] Memory required for data: 1939042304
I1024 17:55:13.003594  9062 layer_factory.hpp:77] Creating layer relu4
I1024 17:55:13.003618  9062 net.cpp:100] Creating Layer relu4
I1024 17:55:13.003623  9062 net.cpp:434] relu4 <- conv4
I1024 17:55:13.003628  9062 net.cpp:395] relu4 -> conv4 (in-place)
I1024 17:55:13.003777  9062 net.cpp:150] Setting up relu4
I1024 17:55:13.003813  9062 net.cpp:157] Top shape: 256 384 13 13 (16613376)
I1024 17:55:13.003818  9062 net.cpp:165] Memory required for data: 2005495808
I1024 17:55:13.003821  9062 layer_factory.hpp:77] Creating layer conv5
I1024 17:55:13.003832  9062 net.cpp:100] Creating Layer conv5
I1024 17:55:13.003836  9062 net.cpp:434] conv5 <- conv4
I1024 17:55:13.003842  9062 net.cpp:408] conv5 -> conv5
I1024 17:55:13.012734  9062 net.cpp:150] Setting up conv5
I1024 17:55:13.012748  9062 net.cpp:157] Top shape: 256 256 13 13 (11075584)
I1024 17:55:13.012753  9062 net.cpp:165] Memory required for data: 2049798144
I1024 17:55:13.012763  9062 layer_factory.hpp:77] Creating layer relu5
I1024 17:55:13.012770  9062 net.cpp:100] Creating Layer relu5
I1024 17:55:13.012774  9062 net.cpp:434] relu5 <- conv5
I1024 17:55:13.012783  9062 net.cpp:395] relu5 -> conv5 (in-place)
I1024 17:55:13.012960  9062 net.cpp:150] Setting up relu5
I1024 17:55:13.012971  9062 net.cpp:157] Top shape: 256 256 13 13 (11075584)
I1024 17:55:13.012975  9062 net.cpp:165] Memory required for data: 2094100480
I1024 17:55:13.012979  9062 layer_factory.hpp:77] Creating layer pool5
I1024 17:55:13.012985  9062 net.cpp:100] Creating Layer pool5
I1024 17:55:13.012989  9062 net.cpp:434] pool5 <- conv5
I1024 17:55:13.012995  9062 net.cpp:408] pool5 -> pool5
I1024 17:55:13.013036  9062 net.cpp:150] Setting up pool5
I1024 17:55:13.013044  9062 net.cpp:157] Top shape: 256 256 6 6 (2359296)
I1024 17:55:13.013047  9062 net.cpp:165] Memory required for data: 2103537664
I1024 17:55:13.013051  9062 layer_factory.hpp:77] Creating layer fc6
I1024 17:55:13.013092  9062 net.cpp:100] Creating Layer fc6
I1024 17:55:13.013099  9062 net.cpp:434] fc6 <- pool5
I1024 17:55:13.013105  9062 net.cpp:408] fc6 -> fc6
I1024 17:55:13.590621  9062 net.cpp:150] Setting up fc6
I1024 17:55:13.590657  9062 net.cpp:157] Top shape: 256 4096 (1048576)
I1024 17:55:13.590661  9062 net.cpp:165] Memory required for data: 2107731968
I1024 17:55:13.590672  9062 layer_factory.hpp:77] Creating layer relu6
I1024 17:55:13.590683  9062 net.cpp:100] Creating Layer relu6
I1024 17:55:13.590687  9062 net.cpp:434] relu6 <- fc6
I1024 17:55:13.590698  9062 net.cpp:395] relu6 -> fc6 (in-place)
I1024 17:55:13.591140  9062 net.cpp:150] Setting up relu6
I1024 17:55:13.591150  9062 net.cpp:157] Top shape: 256 4096 (1048576)
I1024 17:55:13.591164  9062 net.cpp:165] Memory required for data: 2111926272
I1024 17:55:13.591168  9062 layer_factory.hpp:77] Creating layer drop6
I1024 17:55:13.591217  9062 net.cpp:100] Creating Layer drop6
I1024 17:55:13.591225  9062 net.cpp:434] drop6 <- fc6
I1024 17:55:13.591233  9062 net.cpp:395] drop6 -> fc6 (in-place)
I1024 17:55:13.591264  9062 net.cpp:150] Setting up drop6
I1024 17:55:13.591274  9062 net.cpp:157] Top shape: 256 4096 (1048576)
I1024 17:55:13.591276  9062 net.cpp:165] Memory required for data: 2116120576
I1024 17:55:13.591280  9062 layer_factory.hpp:77] Creating layer fc7
I1024 17:55:13.591295  9062 net.cpp:100] Creating Layer fc7
I1024 17:55:13.591298  9062 net.cpp:434] fc7 <- fc6
I1024 17:55:13.591310  9062 net.cpp:408] fc7 -> fc7
I1024 17:55:13.849463  9062 net.cpp:150] Setting up fc7
I1024 17:55:13.849503  9062 net.cpp:157] Top shape: 256 4096 (1048576)
I1024 17:55:13.849506  9062 net.cpp:165] Memory required for data: 2120314880
I1024 17:55:13.849516  9062 layer_factory.hpp:77] Creating layer relu7
I1024 17:55:13.849527  9062 net.cpp:100] Creating Layer relu7
I1024 17:55:13.849534  9062 net.cpp:434] relu7 <- fc7
I1024 17:55:13.849560  9062 net.cpp:395] relu7 -> fc7 (in-place)
I1024 17:55:13.849786  9062 net.cpp:150] Setting up relu7
I1024 17:55:13.849797  9062 net.cpp:157] Top shape: 256 4096 (1048576)
I1024 17:55:13.849799  9062 net.cpp:165] Memory required for data: 2124509184
I1024 17:55:13.849802  9062 layer_factory.hpp:77] Creating layer drop7
I1024 17:55:13.849812  9062 net.cpp:100] Creating Layer drop7
I1024 17:55:13.849814  9062 net.cpp:434] drop7 <- fc7
I1024 17:55:13.849822  9062 net.cpp:395] drop7 -> fc7 (in-place)
I1024 17:55:13.849879  9062 net.cpp:150] Setting up drop7
I1024 17:55:13.849887  9062 net.cpp:157] Top shape: 256 4096 (1048576)
I1024 17:55:13.849890  9062 net.cpp:165] Memory required for data: 2128703488
I1024 17:55:13.849894  9062 layer_factory.hpp:77] Creating layer fc8-new
I1024 17:55:13.849902  9062 net.cpp:100] Creating Layer fc8-new
I1024 17:55:13.849906  9062 net.cpp:434] fc8-new <- fc7
I1024 17:55:13.849913  9062 net.cpp:408] fc8-new -> fc8-new
I1024 17:55:13.881294  9062 net.cpp:150] Setting up fc8-new
I1024 17:55:13.881310  9062 net.cpp:157] Top shape: 256 504 (129024)
I1024 17:55:13.881314  9062 net.cpp:165] Memory required for data: 2129219584
I1024 17:55:13.881321  9062 layer_factory.hpp:77] Creating layer loss
I1024 17:55:13.881368  9062 net.cpp:100] Creating Layer loss
I1024 17:55:13.881376  9062 net.cpp:434] loss <- fc8-new
I1024 17:55:13.881381  9062 net.cpp:434] loss <- label
I1024 17:55:13.881392  9062 net.cpp:408] loss -> loss
I1024 17:55:13.881449  9062 layer_factory.hpp:77] Creating layer loss
…
I1024 17:55:13.885391  9062 net.cpp:322] The NetState phase (1) differed from the phase (0) specified by a rule in layer data
I1024 17:55:13.886071  9062 net.cpp:58] Initializing net from parameters: 
name: "AlexNet"
state {
  phase: TEST
}
layer {
  name: "data"
  type: "Data"
  top: "data"
  top: "label"
  include {
    phase: TEST
  }
  transform_param {
    mirror: false
    crop_size: 227
    mean_file: "examples/imagenet/imagenet_mean.binaryproto"
  }
  data_param {
    source: "/work/03713/harshal1/maverick/vision_proj/data/val_lmdb"
    batch_size: 50
    backend: LMDB
  }
}
layer {
  name: "conv1"
  type: "Convolution"
  bottom: "data"
  top: "conv1"
  param {
    lr_mult: 1
    decay_mult: 1
  }
  param {
    lr_mult: 2
    decay_mult: 0
  }
  convolution_param {
    num_output: 96
    kernel_size: 11
    stride: 4
    weight_filler {
      type: "gaussian"
      std: 0.01
    }
    bias_filler {
      type: "constant"
      value: 0
    }
  }
}
layer {
  name: "relu1"
  type: "ReLU"
  bottom: "conv1"
  top: "conv1"
}
layer {
  name: "norm1"
  type: "LRN"
  bottom: "conv1"
  top: "norm1"
  lrn_param {
    local_size: 5
    alpha: 0.0001
    beta: 0.75
  }
}
layer {
  name: "pool1"
  type: "Pooling"
  bottom: "norm1"
  top: "pool1"
  pooling_param {
    pool: MAX
    kernel_size: 3
    stride: 2
  }
}
layer {
  name: "conv2"
  type: "Convolution"
  bottom: "pool1"
  top: "conv2"
  param {
    lr_mult: 1
    decay_mult: 1
  }
  param {
    lr_mult: 2
    decay_mult: 0
  }
  convolution_param {
    num_output: 256
    pad: 2
    kernel_size: 5
    group: 2
    weight_filler {
      type: "gaussian"
      std: 0.01
    }
    bias_filler {
      type: "constant"
      value: 0.1
    }
  }
}
layer {
  name: "relu2"
  type: "ReLU"
  bottom: "conv2"
  top: "conv2"
}
layer {
  name: "norm2"
  type: "LRN"
  bottom: "conv2"
  top: "norm2"
  lrn_param {
    local_size: 5
    alpha: 0.0001
    beta: 0.75
  }
}
layer {
  name: "pool2"
  type: "Pooling"
  bottom: "norm2"
  top: "pool2"
  pooling_param {
    pool: MAX
    kernel_size: 3
    stride: 2
  }
}
layer {
  name: "conv3"
  type: "Convolution"
  bottom: "pool2"
  top: "conv3"
  param {
    lr_mult: 1
    decay_mult: 1
  }
  param {
    lr_mult: 2
    decay_mult: 0
  }
  convolution_param {
    num_output: 384
    pad: 1
    kernel_size: 3
    weight_filler {
      type: "gaussian"
      std: 0.01
    }
    bias_filler {
      type: "constant"
      value: 0
    }
  }
}
layer {
  name: "relu3"
  type: "ReLU"
  bottom: "conv3"
  top: "conv3"
}
layer {
  name: "conv4"
  type: "Convolution"
  bottom: "conv3"
  top: "conv4"
  param {
    lr_mult: 1
    decay_mult: 1
  }
  param {
    lr_mult: 2
    decay_mult: 0
  }
  convolution_param {
    num_output: 384
    pad: 1
    kernel_size: 3
    group: 2
    weight_filler {
      type: "gaussian"
      std: 0.01
    }
    bias_filler {
      type: "constant"
      value: 0.1
    }
  }
}
layer {
  name: "relu4"
  type: "ReLU"
  bottom: "conv4"
  top: "conv4"
}
layer {
  name: "conv5"
  type: "Convolution"
  bottom: "conv4"
  top: "conv5"
  param {
    lr_mult: 1
    decay_mult: 1
  }
  param {
    lr_mult: 2
    decay_mult: 0
  }
  convolution_param {
    num_output: 256
    pad: 1
    kernel_size: 3
    group: 2
    weight_filler {
      type: "gaussian"
      std: 0.01
    }
    bias_filler {
      type: "constant"
      value: 0.1
    }
  }
}
layer {
  name: "relu5"
  type: "ReLU"
  bottom: "conv5"
  top: "conv5"
}
layer {
  name: "pool5"
  type: "Pooling"
  bottom: "conv5"
  top: "pool5"
  pooling_param {
    pool: MAX
    kernel_size: 3
    stride: 2
  }
}
layer {
  name: "fc6"
  type: "InnerProduct"
  bottom: "pool5"
  top: "fc6"
  param {
    lr_mult: 1
    decay_mult: 1
  }
  param {
    lr_mult: 2
    decay_mult: 0
  }
  inner_product_param {
    num_output: 4096
    weight_filler {
      type: "gaussian"
      std: 0.005
    }
    bias_filler {
      type: "constant"
      value: 0.1
    }
  }
}
layer {
  name: "relu6"
  type: "ReLU"
  bottom: "fc6"
  top: "fc6"
}
layer {
  name: "drop6"
  type: "Dropout"
  bottom: "fc6"
  top: "fc6"
  dropout_param {
    dropout_ratio: 0.5
  }
}
layer {
  name: "fc7"
  type: "InnerProduct"
  bottom: "fc6"
  top: "fc7"
  param {
    lr_mult: 1
    decay_mult: 1
  }
  param {
    lr_mult: 2
    decay_mult: 0
  }
  inner_product_param {
    num_output: 4096
    weight_filler {
      type: "gaussian"
      std: 0.005
    }
    bias_filler {
      type: "constant"
      value: 0.1
    }
  }
}
layer {
  name: "relu7"
  type: "ReLU"
  bottom: "fc7"
  top: "fc7"
}
layer {
  name: "drop7"
  type: "Dropout"
  bottom: "fc7"
  top: "fc7"
  dropout_param {
    dropout_ratio: 0.5
  }
}
layer {
  name: "fc8-new"
  type: "InnerProduct"
  bottom: "fc7"
  top: "fc8-new"
  param {
    lr_mult: 1
    decay_mult: 1
  }
  param {
    lr_mult: 2
    decay_mult: 0
  }
  inner_product_param {
    num_output: 504
    weight_filler {
      type: "gaussian"
      std: 0.01
    }
    bias_filler {
      type: "constant"
      value: 0
    }
  }
}
layer {
  name: "precision@1"
  type: "Accuracy"
  bottom: "fc8-new"
  bottom: "label"
  top: "precision@1"
  include {
    phase: TEST
  }
}
layer {
  name: "precision@5"
  type: "Accuracy"
  bottom: "fc8-new"
  bottom: "label"
  top: "precision@5"
  include {
    phase: TEST
  }
  accuracy_param {
    top_k: 5
  }
}
layer {
  name: "loss"
  type: "SoftmaxWithLoss"
  bottom: "fc8-new"
  bottom: "label"
  top: "loss"
}
I1024 17:55:13.886243  9062 layer_factory.hpp:77] Creating layer data
I1024 17:55:13.886819  9062 net.cpp:100] Creating Layer data
I1024 17:55:13.886834  9062 net.cpp:408] data -> data
I1024 17:55:13.886845  9062 net.cpp:408] data -> label
I1024 17:55:13.886854  9062 data_transformer.cpp:25] Loading mean file from: examples/imagenet/imagenet_mean.binaryproto
I1024 17:55:13.901801  9175 db_lmdb.cpp:35] Opened lmdb /work/03713/harshal1/maverick/vision_proj/data/val_lmdb
I1024 17:55:13.904345  9062 data_layer.cpp:41] output data size: 50,3,227,227
I1024 17:55:13.963243  9062 net.cpp:150] Setting up data
I1024 17:55:13.963289  9062 net.cpp:157] Top shape: 50 3 227 227 (7729350)
I1024 17:55:13.963295  9062 net.cpp:157] Top shape: 50 (50)
I1024 17:55:13.963299  9062 net.cpp:165] Memory required for data: 30917600
I1024 17:55:13.963305  9062 layer_factory.hpp:77] Creating layer label_data_1_split
I1024 17:55:13.963389  9062 net.cpp:100] Creating Layer label_data_1_split
I1024 17:55:13.963398  9062 net.cpp:434] label_data_1_split <- label
I1024 17:55:13.963408  9062 net.cpp:408] label_data_1_split -> label_data_1_split_0
I1024 17:55:13.963423  9062 net.cpp:408] label_data_1_split -> label_data_1_split_1
I1024 17:55:13.963428  9062 net.cpp:408] label_data_1_split -> label_data_1_split_2
I1024 17:55:13.963567  9062 net.cpp:150] Setting up label_data_1_split
I1024 17:55:13.963577  9062 net.cpp:157] Top shape: 50 (50)
I1024 17:55:13.963582  9062 net.cpp:157] Top shape: 50 (50)
I1024 17:55:13.963585  9062 net.cpp:157] Top shape: 50 (50)
I1024 17:55:13.963588  9062 net.cpp:165] Memory required for data: 30918200
I1024 17:55:13.963593  9062 layer_factory.hpp:77] Creating layer conv1
I1024 17:55:13.963609  9062 net.cpp:100] Creating Layer conv1
I1024 17:55:13.963613  9062 net.cpp:434] conv1 <- data
I1024 17:55:13.963620  9062 net.cpp:408] conv1 -> conv1
I1024 17:55:13.968279  9062 net.cpp:150] Setting up conv1
I1024 17:55:13.968317  9062 net.cpp:157] Top shape: 50 96 55 55 (14520000)
I1024 17:55:13.968322  9062 net.cpp:165] Memory required for data: 88998200
I1024 17:55:13.968333  9062 layer_factory.hpp:77] Creating layer relu1
I1024 17:55:13.968343  9062 net.cpp:100] Creating Layer relu1
I1024 17:55:13.968358  9062 net.cpp:434] relu1 <- conv1
I1024 17:55:13.968364  9062 net.cpp:395] relu1 -> conv1 (in-place)
I1024 17:55:13.968520  9062 net.cpp:150] Setting up relu1
I1024 17:55:13.968531  9062 net.cpp:157] Top shape: 50 96 55 55 (14520000)
I1024 17:55:13.968534  9062 net.cpp:165] Memory required for data: 147078200
I1024 17:55:13.968538  9062 layer_factory.hpp:77] Creating layer norm1
I1024 17:55:13.968549  9062 net.cpp:100] Creating Layer norm1
I1024 17:55:13.968554  9062 net.cpp:434] norm1 <- conv1
I1024 17:55:13.968559  9062 net.cpp:408] norm1 -> norm1
I1024 17:55:13.968881  9062 net.cpp:150] Setting up norm1
I1024 17:55:13.968894  9062 net.cpp:157] Top shape: 50 96 55 55 (14520000)
I1024 17:55:13.968896  9062 net.cpp:165] Memory required for data: 205158200
I1024 17:55:13.968900  9062 layer_factory.hpp:77] Creating layer pool1
I1024 17:55:13.968930  9062 net.cpp:100] Creating Layer pool1
I1024 17:55:13.968933  9062 net.cpp:434] pool1 <- norm1
I1024 17:55:13.968940  9062 net.cpp:408] pool1 -> pool1
I1024 17:55:13.968977  9062 net.cpp:150] Setting up pool1
I1024 17:55:13.968997  9062 net.cpp:157] Top shape: 50 96 27 27 (3499200)
I1024 17:55:13.969000  9062 net.cpp:165] Memory required for data: 219155000
I1024 17:55:13.969048  9062 layer_factory.hpp:77] Creating layer conv2
I1024 17:55:13.969059  9062 net.cpp:100] Creating Layer conv2
I1024 17:55:13.969063  9062 net.cpp:434] conv2 <- pool1
I1024 17:55:13.969070  9062 net.cpp:408] conv2 -> conv2
I1024 17:55:13.975208  9062 net.cpp:150] Setting up conv2
I1024 17:55:13.975221  9062 net.cpp:157] Top shape: 50 256 27 27 (9331200)
I1024 17:55:13.975235  9062 net.cpp:165] Memory required for data: 256479800
I1024 17:55:13.975244  9062 layer_factory.hpp:77] Creating layer relu2
I1024 17:55:13.975250  9062 net.cpp:100] Creating Layer relu2
I1024 17:55:13.975255  9062 net.cpp:434] relu2 <- conv2
I1024 17:55:13.975260  9062 net.cpp:395] relu2 -> conv2 (in-place)
I1024 17:55:13.975569  9062 net.cpp:150] Setting up relu2
I1024 17:55:13.975581  9062 net.cpp:157] Top shape: 50 256 27 27 (9331200)
I1024 17:55:13.975585  9062 net.cpp:165] Memory required for data: 293804600
I1024 17:55:13.975589  9062 layer_factory.hpp:77] Creating layer norm2
I1024 17:55:13.975599  9062 net.cpp:100] Creating Layer norm2
I1024 17:55:13.975601  9062 net.cpp:434] norm2 <- conv2
I1024 17:55:13.975607  9062 net.cpp:408] norm2 -> norm2
I1024 17:55:13.975953  9062 net.cpp:150] Setting up norm2
I1024 17:55:13.975965  9062 net.cpp:157] Top shape: 50 256 27 27 (9331200)
I1024 17:55:13.975967  9062 net.cpp:165] Memory required for data: 331129400
I1024 17:55:13.975971  9062 layer_factory.hpp:77] Creating layer pool2
I1024 17:55:13.975978  9062 net.cpp:100] Creating Layer pool2
I1024 17:55:13.975982  9062 net.cpp:434] pool2 <- norm2
I1024 17:55:13.975988  9062 net.cpp:408] pool2 -> pool2
I1024 17:55:13.976032  9062 net.cpp:150] Setting up pool2
I1024 17:55:13.976038  9062 net.cpp:157] Top shape: 50 256 13 13 (2163200)
I1024 17:55:13.976040  9062 net.cpp:165] Memory required for data: 339782200
I1024 17:55:13.976044  9062 layer_factory.hpp:77] Creating layer conv3
I1024 17:55:13.976054  9062 net.cpp:100] Creating Layer conv3
I1024 17:55:13.976058  9062 net.cpp:434] conv3 <- pool2
I1024 17:55:13.976078  9062 net.cpp:408] conv3 -> conv3
I1024 17:55:13.990741  9062 net.cpp:150] Setting up conv3
I1024 17:55:13.990754  9062 net.cpp:157] Top shape: 50 384 13 13 (3244800)
I1024 17:55:13.990757  9062 net.cpp:165] Memory required for data: 352761400
I1024 17:55:13.990777  9062 layer_factory.hpp:77] Creating layer relu3
I1024 17:55:13.990785  9062 net.cpp:100] Creating Layer relu3
I1024 17:55:13.990789  9062 net.cpp:434] relu3 <- conv3
I1024 17:55:13.990795  9062 net.cpp:395] relu3 -> conv3 (in-place)
I1024 17:55:13.991101  9062 net.cpp:150] Setting up relu3
I1024 17:55:13.991112  9062 net.cpp:157] Top shape: 50 384 13 13 (3244800)
I1024 17:55:13.991117  9062 net.cpp:165] Memory required for data: 365740600
I1024 17:55:13.991119  9062 layer_factory.hpp:77] Creating layer conv4
I1024 17:55:13.991132  9062 net.cpp:100] Creating Layer conv4
I1024 17:55:13.991135  9062 net.cpp:434] conv4 <- conv3
I1024 17:55:13.991142  9062 net.cpp:408] conv4 -> conv4
I1024 17:55:14.003136  9062 net.cpp:150] Setting up conv4
I1024 17:55:14.003163  9062 net.cpp:157] Top shape: 50 384 13 13 (3244800)
I1024 17:55:14.003167  9062 net.cpp:165] Memory required for data: 378719800
I1024 17:55:14.003175  9062 layer_factory.hpp:77] Creating layer relu4
I1024 17:55:14.003182  9062 net.cpp:100] Creating Layer relu4
I1024 17:55:14.003185  9062 net.cpp:434] relu4 <- conv4
I1024 17:55:14.003192  9062 net.cpp:395] relu4 -> conv4 (in-place)
I1024 17:55:14.003495  9062 net.cpp:150] Setting up relu4
I1024 17:55:14.003507  9062 net.cpp:157] Top shape: 50 384 13 13 (3244800)
I1024 17:55:14.003510  9062 net.cpp:165] Memory required for data: 391699000
I1024 17:55:14.003515  9062 layer_factory.hpp:77] Creating layer conv5
I1024 17:55:14.003526  9062 net.cpp:100] Creating Layer conv5
I1024 17:55:14.003530  9062 net.cpp:434] conv5 <- conv4
I1024 17:55:14.003538  9062 net.cpp:408] conv5 -> conv5
I1024 17:55:14.012601  9062 net.cpp:150] Setting up conv5
I1024 17:55:14.012626  9062 net.cpp:157] Top shape: 50 256 13 13 (2163200)
I1024 17:55:14.012630  9062 net.cpp:165] Memory required for data: 400351800
I1024 17:55:14.012665  9062 layer_factory.hpp:77] Creating layer relu5
I1024 17:55:14.012673  9062 net.cpp:100] Creating Layer relu5
I1024 17:55:14.012676  9062 net.cpp:434] relu5 <- conv5
I1024 17:55:14.012682  9062 net.cpp:395] relu5 -> conv5 (in-place)
I1024 17:55:14.012830  9062 net.cpp:150] Setting up relu5
I1024 17:55:14.012840  9062 net.cpp:157] Top shape: 50 256 13 13 (2163200)
I1024 17:55:14.012843  9062 net.cpp:165] Memory required for data: 409004600
I1024 17:55:14.012847  9062 layer_factory.hpp:77] Creating layer pool5
I1024 17:55:14.012856  9062 net.cpp:100] Creating Layer pool5
I1024 17:55:14.012861  9062 net.cpp:434] pool5 <- conv5
I1024 17:55:14.012866  9062 net.cpp:408] pool5 -> pool5
I1024 17:55:14.012910  9062 net.cpp:150] Setting up pool5
I1024 17:55:14.012919  9062 net.cpp:157] Top shape: 50 256 6 6 (460800)
I1024 17:55:14.012923  9062 net.cpp:165] Memory required for data: 410847800
I1024 17:55:14.012926  9062 layer_factory.hpp:77] Creating layer fc6
I1024 17:55:14.012935  9062 net.cpp:100] Creating Layer fc6
I1024 17:55:14.012939  9062 net.cpp:434] fc6 <- pool5
I1024 17:55:14.012945  9062 net.cpp:408] fc6 -> fc6
I1024 17:55:14.567234  9062 net.cpp:150] Setting up fc6
I1024 17:55:14.567276  9062 net.cpp:157] Top shape: 50 4096 (204800)
I1024 17:55:14.567281  9062 net.cpp:165] Memory required for data: 411667000
I1024 17:55:14.567294  9062 layer_factory.hpp:77] Creating layer relu6
I1024 17:55:14.567309  9062 net.cpp:100] Creating Layer relu6
I1024 17:55:14.567314  9062 net.cpp:434] relu6 <- fc6
I1024 17:55:14.567323  9062 net.cpp:395] relu6 -> fc6 (in-place)
I1024 17:55:14.567757  9062 net.cpp:150] Setting up relu6
I1024 17:55:14.567767  9062 net.cpp:157] Top shape: 50 4096 (204800)
I1024 17:55:14.567782  9062 net.cpp:165] Memory required for data: 412486200
I1024 17:55:14.567786  9062 layer_factory.hpp:77] Creating layer drop6
I1024 17:55:14.567795  9062 net.cpp:100] Creating Layer drop6
I1024 17:55:14.567800  9062 net.cpp:434] drop6 <- fc6
I1024 17:55:14.567805  9062 net.cpp:395] drop6 -> fc6 (in-place)
I1024 17:55:14.567834  9062 net.cpp:150] Setting up drop6
I1024 17:55:14.567840  9062 net.cpp:157] Top shape: 50 4096 (204800)
I1024 17:55:14.567843  9062 net.cpp:165] Memory required for data: 413305400
I1024 17:55:14.567847  9062 layer_factory.hpp:77] Creating layer fc7
I1024 17:55:14.567857  9062 net.cpp:100] Creating Layer fc7
I1024 17:55:14.567860  9062 net.cpp:434] fc7 <- fc6
I1024 17:55:14.567867  9062 net.cpp:408] fc7 -> fc7
I1024 17:55:14.803692  9062 net.cpp:150] Setting up fc7
I1024 17:55:14.803737  9062 net.cpp:157] Top shape: 50 4096 (204800)
I1024 17:55:14.803742  9062 net.cpp:165] Memory required for data: 414124600
I1024 17:55:14.803752  9062 layer_factory.hpp:77] Creating layer relu7
I1024 17:55:14.803766  9062 net.cpp:100] Creating Layer relu7
I1024 17:55:14.803772  9062 net.cpp:434] relu7 <- fc7
I1024 17:55:14.803781  9062 net.cpp:395] relu7 -> fc7 (in-place)
I1024 17:55:14.803995  9062 net.cpp:150] Setting up relu7
I1024 17:55:14.804005  9062 net.cpp:157] Top shape: 50 4096 (204800)
I1024 17:55:14.804008  9062 net.cpp:165] Memory required for data: 414943800
I1024 17:55:14.804011  9062 layer_factory.hpp:77] Creating layer drop7
I1024 17:55:14.804020  9062 net.cpp:100] Creating Layer drop7
I1024 17:55:14.804023  9062 net.cpp:434] drop7 <- fc7
I1024 17:55:14.804029  9062 net.cpp:395] drop7 -> fc7 (in-place)
I1024 17:55:14.804059  9062 net.cpp:150] Setting up drop7
I1024 17:55:14.804067  9062 net.cpp:157] Top shape: 50 4096 (204800)
I1024 17:55:14.804069  9062 net.cpp:165] Memory required for data: 415763000
I1024 17:55:14.804074  9062 layer_factory.hpp:77] Creating layer fc8-new
I1024 17:55:14.804082  9062 net.cpp:100] Creating Layer fc8-new
I1024 17:55:14.804086  9062 net.cpp:434] fc8-new <- fc7
I1024 17:55:14.804092  9062 net.cpp:408] fc8-new -> fc8-new
I1024 17:55:14.833055  9062 net.cpp:150] Setting up fc8-new
I1024 17:55:14.833065  9062 net.cpp:157] Top shape: 50 504 (25200)
I1024 17:55:14.833081  9062 net.cpp:165] Memory required for data: 415863800
I1024 17:55:14.833127  9062 layer_factory.hpp:77] Creating layer fc8-new_fc8-new_0_split
I1024 17:55:14.833135  9062 net.cpp:100] Creating Layer fc8-new_fc8-new_0_split
I1024 17:55:14.833138  9062 net.cpp:434] fc8-new_fc8-new_0_split <- fc8-new
I1024 17:55:14.833144  9062 net.cpp:408] fc8-new_fc8-new_0_split -> fc8-new_fc8-new_0_split_0
I1024 17:55:14.833151  9062 net.cpp:408] fc8-new_fc8-new_0_split -> fc8-new_fc8-new_0_split_1
I1024 17:55:14.833158  9062 net.cpp:408] fc8-new_fc8-new_0_split -> fc8-new_fc8-new_0_split_2
I1024 17:55:14.833207  9062 net.cpp:150] Setting up fc8-new_fc8-new_0_split
I1024 17:55:14.833215  9062 net.cpp:157] Top shape: 50 504 (25200)
I1024 17:55:14.833219  9062 net.cpp:157] Top shape: 50 504 (25200)
I1024 17:55:14.833221  9062 net.cpp:157] Top shape: 50 504 (25200)
I1024 17:55:14.833225  9062 net.cpp:165] Memory required for data: 416166200
I1024 17:55:14.833227  9062 layer_factory.hpp:77] Creating layer precision@1
I1024 17:55:14.833282  9062 net.cpp:100] Creating Layer precision@1
I1024 17:55:14.833293  9062 net.cpp:434] precision@1 <- fc8-new_fc8-new_0_split_0
I1024 17:55:14.833298  9062 net.cpp:434] precision@1 <- label_data_1_split_0
I1024 17:55:14.833304  9062 net.cpp:408] precision@1 -> precision@1
…
