…
I1027 19:35:28.459172 51542 net.cpp:322] The NetState phase (0) differed from the phase (1) specified by a rule in layer precision@5
I1027 19:35:28.459789 51542 net.cpp:58] Initializing net from parameters: 
name: "AlexNet"
state {
  phase: TRAIN
  level: 0
  stage: ""
}
layer {
  name: "data"
  type: "Data"
  top: "data"
  top: "label"
  include {
    phase: TRAIN
  }
  transform_param {
    mirror: true
    crop_size: 227
    mean_file: "examples/imagenet/imagenet_mean.binaryproto"
  }
  data_param {
    source: "/work/03713/harshal1/maverick/vision_proj/data/train_lmdb"
    batch_size: 256
    backend: LMDB
  }
}
layer {
  name: "conv1"
  type: "Convolution"
  bottom: "data"
  top: "conv1"
  param {
    lr_mult: 1
    decay_mult: 1
  }
  param {
    lr_mult: 2
    decay_mult: 0
  }
  convolution_param {
    num_output: 96
    kernel_size: 11
    stride: 4
    weight_filler {
      type: "gaussian"
      std: 0.01
    }
    bias_filler {
      type: "constant"
      value: 0
    }
  }
}
layer {
  name: "relu1"
  type: "ReLU"
  bottom: "conv1"
  top: "conv1"
}
layer {
  name: "norm1"
  type: "LRN"
  bottom: "conv1"
  top: "norm1"
  lrn_param {
    local_size: 5
    alpha: 0.0001
    beta: 0.75
  }
}
layer {
  name: "pool1"
  type: "Pooling"
  bottom: "norm1"
  top: "pool1"
  pooling_param {
    pool: MAX
    kernel_size: 3
    stride: 2
  }
}
layer {
  name: "conv2"
  type: "Convolution"
  bottom: "pool1"
  top: "conv2"
  param {
    lr_mult: 1
    decay_mult: 1
  }
  param {
    lr_mult: 2
    decay_mult: 0
  }
  convolution_param {
    num_output: 256
    pad: 2
    kernel_size: 5
    group: 2
    weight_filler {
      type: "gaussian"
      std: 0.01
    }
    bias_filler {
      type: "constant"
      value: 0.1
    }
  }
}
layer {
  name: "relu2"
  type: "ReLU"
  bottom: "conv2"
  top: "conv2"
}
layer {
  name: "norm2"
  type: "LRN"
  bottom: "conv2"
  top: "norm2"
  lrn_param {
    local_size: 5
    alpha: 0.0001
    beta: 0.75
  }
}
layer {
  name: "pool2"
  type: "Pooling"
  bottom: "norm2"
  top: "pool2"
  pooling_param {
    pool: MAX
    kernel_size: 3
    stride: 2
  }
}
layer {
  name: "conv3"
  type: "Convolution"
  bottom: "pool2"
  top: "conv3"
  param {
    lr_mult: 1
    decay_mult: 1
  }
  param {
    lr_mult: 2
    decay_mult: 0
  }
  convolution_param {
    num_output: 384
    pad: 1
    kernel_size: 3
    weight_filler {
      type: "gaussian"
      std: 0.01
    }
    bias_filler {
      type: "constant"
      value: 0
    }
  }
}
layer {
  name: "relu3"
  type: "ReLU"
  bottom: "conv3"
  top: "conv3"
}
layer {
  name: "conv4"
  type: "Convolution"
  bottom: "conv3"
  top: "conv4"
  param {
    lr_mult: 1
    decay_mult: 1
  }
  param {
    lr_mult: 2
    decay_mult: 0
  }
  convolution_param {
    num_output: 384
    pad: 1
    kernel_size: 3
    group: 2
    weight_filler {
      type: "gaussian"
      std: 0.01
    }
    bias_filler {
      type: "constant"
      value: 0.1
    }
  }
}
layer {
  name: "relu4"
  type: "ReLU"
  bottom: "conv4"
  top: "conv4"
}
layer {
  name: "conv5"
  type: "Convolution"
  bottom: "conv4"
  top: "conv5"
  param {
    lr_mult: 1
    decay_mult: 1
  }
  param {
    lr_mult: 2
    decay_mult: 0
  }
  convolution_param {
    num_output: 256
    pad: 1
    kernel_size: 3
    group: 2
    weight_filler {
      type: "gaussian"
      std: 0.01
    }
    bias_filler {
      type: "constant"
      value: 0.1
    }
  }
}
layer {
  name: "relu5"
  type: "ReLU"
  bottom: "conv5"
  top: "conv5"
}
layer {
  name: "pool5"
  type: "Pooling"
  bottom: "conv5"
  top: "pool5"
  pooling_param {
    pool: MAX
    kernel_size: 3
    stride: 2
  }
}
layer {
  name: "fc6"
  type: "InnerProduct"
  bottom: "pool5"
  top: "fc6"
  param {
    lr_mult: 1
    decay_mult: 1
  }
  param {
    lr_mult: 2
    decay_mult: 0
  }
  inner_product_param {
    num_output: 4096
    weight_filler {
      type: "gaussian"
      std: 0.005
    }
    bias_filler {
      type: "constant"
      value: 0.1
    }
  }
}
layer {
  name: "relu6"
  type: "ReLU"
  bottom: "fc6"
  top: "fc6"
}
layer {
  name: "drop6"
  type: "Dropout"
  bottom: "fc6"
  top: "fc6"
  dropout_param {
    dropout_ratio: 0.5
  }
}
layer {
  name: "fc7"
  type: "InnerProduct"
  bottom: "fc6"
  top: "fc7"
  param {
    lr_mult: 1
    decay_mult: 1
  }
  param {
    lr_mult: 2
    decay_mult: 0
  }
  inner_product_param {
    num_output: 4096
    weight_filler {
      type: "gaussian"
      std: 0.005
    }
    bias_filler {
      type: "constant"
      value: 0.1
    }
  }
}
layer {
  name: "relu7"
  type: "ReLU"
  bottom: "fc7"
  top: "fc7"
}
layer {
  name: "drop7"
  type: "Dropout"
  bottom: "fc7"
  top: "fc7"
  dropout_param {
    dropout_ratio: 0.5
  }
}
layer {
  name: "fc8-new"
  type: "InnerProduct"
  bottom: "fc7"
  top: "fc8-new"
  param {
    lr_mult: 1
    decay_mult: 1
  }
  param {
    lr_mult: 2
    decay_mult: 0
  }
  inner_product_param {
    num_output: 504
    weight_filler {
      type: "gaussian"
      std: 0.01
    }
    bias_filler {
      type: "constant"
      value: 0
    }
  }
}
layer {
  name: "loss"
  type: "SoftmaxWithLoss"
  bottom: "fc8-new"
  bottom: "label"
  top: "loss"
}
I1027 19:35:28.460057 51542 layer_factory.hpp:77] Creating layer data
I1027 19:35:28.461014 51542 net.cpp:100] Creating Layer data
I1027 19:35:28.461088 51542 net.cpp:408] data -> data
I1027 19:35:28.461196 51542 net.cpp:408] data -> label
I1027 19:35:28.461251 51542 data_transformer.cpp:25] Loading mean file from: examples/imagenet/imagenet_mean.binaryproto
I1027 19:35:28.471346 51653 db_lmdb.cpp:35] Opened lmdb /work/03713/harshal1/maverick/vision_proj/data/train_lmdb
I1027 19:35:28.483790 51542 data_layer.cpp:41] output data size: 256,3,227,227
I1027 19:35:28.779815 51542 net.cpp:150] Setting up data
I1027 19:35:28.779970 51542 net.cpp:157] Top shape: 256 3 227 227 (39574272)
I1027 19:35:28.779980 51542 net.cpp:157] Top shape: 256 (256)
I1027 19:35:28.779984 51542 net.cpp:165] Memory required for data: 158298112
I1027 19:35:28.780000 51542 layer_factory.hpp:77] Creating layer conv1
I1027 19:35:28.780067 51542 net.cpp:100] Creating Layer conv1
I1027 19:35:28.780102 51542 net.cpp:434] conv1 <- data
I1027 19:35:28.780131 51542 net.cpp:408] conv1 -> conv1
I1027 19:35:29.036427 51542 net.cpp:150] Setting up conv1
I1027 19:35:29.036480 51542 net.cpp:157] Top shape: 256 96 55 55 (74342400)
I1027 19:35:29.036485 51542 net.cpp:165] Memory required for data: 455667712
I1027 19:35:29.036545 51542 layer_factory.hpp:77] Creating layer relu1
I1027 19:35:29.036607 51542 net.cpp:100] Creating Layer relu1
I1027 19:35:29.036614 51542 net.cpp:434] relu1 <- conv1
I1027 19:35:29.036623 51542 net.cpp:395] relu1 -> conv1 (in-place)
I1027 19:35:29.036907 51542 net.cpp:150] Setting up relu1
I1027 19:35:29.036918 51542 net.cpp:157] Top shape: 256 96 55 55 (74342400)
I1027 19:35:29.036921 51542 net.cpp:165] Memory required for data: 753037312
I1027 19:35:29.036926 51542 layer_factory.hpp:77] Creating layer norm1
I1027 19:35:29.036968 51542 net.cpp:100] Creating Layer norm1
I1027 19:35:29.036989 51542 net.cpp:434] norm1 <- conv1
I1027 19:35:29.036996 51542 net.cpp:408] norm1 -> norm1
I1027 19:35:29.037242 51542 net.cpp:150] Setting up norm1
I1027 19:35:29.037253 51542 net.cpp:157] Top shape: 256 96 55 55 (74342400)
I1027 19:35:29.037300 51542 net.cpp:165] Memory required for data: 1050406912
I1027 19:35:29.037304 51542 layer_factory.hpp:77] Creating layer pool1
I1027 19:35:29.037314 51542 net.cpp:100] Creating Layer pool1
I1027 19:35:29.037318 51542 net.cpp:434] pool1 <- norm1
I1027 19:35:29.037324 51542 net.cpp:408] pool1 -> pool1
I1027 19:35:29.037436 51542 net.cpp:150] Setting up pool1
I1027 19:35:29.037446 51542 net.cpp:157] Top shape: 256 96 27 27 (17915904)
I1027 19:35:29.037448 51542 net.cpp:165] Memory required for data: 1122070528
I1027 19:35:29.037452 51542 layer_factory.hpp:77] Creating layer conv2
I1027 19:35:29.037469 51542 net.cpp:100] Creating Layer conv2
I1027 19:35:29.037473 51542 net.cpp:434] conv2 <- pool1
I1027 19:35:29.037479 51542 net.cpp:408] conv2 -> conv2
I1027 19:35:29.044201 51542 net.cpp:150] Setting up conv2
I1027 19:35:29.044214 51542 net.cpp:157] Top shape: 256 256 27 27 (47775744)
I1027 19:35:29.044230 51542 net.cpp:165] Memory required for data: 1313173504
I1027 19:35:29.044240 51542 layer_factory.hpp:77] Creating layer relu2
I1027 19:35:29.044256 51542 net.cpp:100] Creating Layer relu2
I1027 19:35:29.044260 51542 net.cpp:434] relu2 <- conv2
I1027 19:35:29.044268 51542 net.cpp:395] relu2 -> conv2 (in-place)
I1027 19:35:29.044420 51542 net.cpp:150] Setting up relu2
I1027 19:35:29.044430 51542 net.cpp:157] Top shape: 256 256 27 27 (47775744)
I1027 19:35:29.044433 51542 net.cpp:165] Memory required for data: 1504276480
I1027 19:35:29.044437 51542 layer_factory.hpp:77] Creating layer norm2
I1027 19:35:29.044445 51542 net.cpp:100] Creating Layer norm2
I1027 19:35:29.044447 51542 net.cpp:434] norm2 <- conv2
I1027 19:35:29.044455 51542 net.cpp:408] norm2 -> norm2
I1027 19:35:29.044733 51542 net.cpp:150] Setting up norm2
I1027 19:35:29.044742 51542 net.cpp:157] Top shape: 256 256 27 27 (47775744)
I1027 19:35:29.044746 51542 net.cpp:165] Memory required for data: 1695379456
I1027 19:35:29.044749 51542 layer_factory.hpp:77] Creating layer pool2
I1027 19:35:29.044760 51542 net.cpp:100] Creating Layer pool2
I1027 19:35:29.044764 51542 net.cpp:434] pool2 <- norm2
I1027 19:35:29.044770 51542 net.cpp:408] pool2 -> pool2
I1027 19:35:29.044806 51542 net.cpp:150] Setting up pool2
I1027 19:35:29.044812 51542 net.cpp:157] Top shape: 256 256 13 13 (11075584)
I1027 19:35:29.044816 51542 net.cpp:165] Memory required for data: 1739681792
I1027 19:35:29.044818 51542 layer_factory.hpp:77] Creating layer conv3
I1027 19:35:29.044831 51542 net.cpp:100] Creating Layer conv3
I1027 19:35:29.044834 51542 net.cpp:434] conv3 <- pool2
I1027 19:35:29.044842 51542 net.cpp:408] conv3 -> conv3
I1027 19:35:29.058789 51542 net.cpp:150] Setting up conv3
I1027 19:35:29.058826 51542 net.cpp:157] Top shape: 256 384 13 13 (16613376)
I1027 19:35:29.058831 51542 net.cpp:165] Memory required for data: 1806135296
I1027 19:35:29.058845 51542 layer_factory.hpp:77] Creating layer relu3
I1027 19:35:29.058856 51542 net.cpp:100] Creating Layer relu3
I1027 19:35:29.058861 51542 net.cpp:434] relu3 <- conv3
I1027 19:35:29.058871 51542 net.cpp:395] relu3 -> conv3 (in-place)
I1027 19:35:29.059044 51542 net.cpp:150] Setting up relu3
I1027 19:35:29.059057 51542 net.cpp:157] Top shape: 256 384 13 13 (16613376)
I1027 19:35:29.059061 51542 net.cpp:165] Memory required for data: 1872588800
I1027 19:35:29.059064 51542 layer_factory.hpp:77] Creating layer conv4
I1027 19:35:29.059080 51542 net.cpp:100] Creating Layer conv4
I1027 19:35:29.059084 51542 net.cpp:434] conv4 <- conv3
I1027 19:35:29.059092 51542 net.cpp:408] conv4 -> conv4
I1027 19:35:29.070459 51542 net.cpp:150] Setting up conv4
I1027 19:35:29.070478 51542 net.cpp:157] Top shape: 256 384 13 13 (16613376)
I1027 19:35:29.070493 51542 net.cpp:165] Memory required for data: 1939042304
I1027 19:35:29.070502 51542 layer_factory.hpp:77] Creating layer relu4
I1027 19:35:29.070514 51542 net.cpp:100] Creating Layer relu4
I1027 19:35:29.070518 51542 net.cpp:434] relu4 <- conv4
I1027 19:35:29.070525 51542 net.cpp:395] relu4 -> conv4 (in-place)
I1027 19:35:29.070677 51542 net.cpp:150] Setting up relu4
I1027 19:35:29.070685 51542 net.cpp:157] Top shape: 256 384 13 13 (16613376)
I1027 19:35:29.070718 51542 net.cpp:165] Memory required for data: 2005495808
I1027 19:35:29.070722 51542 layer_factory.hpp:77] Creating layer conv5
I1027 19:35:29.070737 51542 net.cpp:100] Creating Layer conv5
I1027 19:35:29.070741 51542 net.cpp:434] conv5 <- conv4
I1027 19:35:29.070749 51542 net.cpp:408] conv5 -> conv5
I1027 19:35:29.079095 51542 net.cpp:150] Setting up conv5
I1027 19:35:29.079109 51542 net.cpp:157] Top shape: 256 256 13 13 (11075584)
I1027 19:35:29.079125 51542 net.cpp:165] Memory required for data: 2049798144
I1027 19:35:29.079138 51542 layer_factory.hpp:77] Creating layer relu5
I1027 19:35:29.079146 51542 net.cpp:100] Creating Layer relu5
I1027 19:35:29.079150 51542 net.cpp:434] relu5 <- conv5
I1027 19:35:29.079157 51542 net.cpp:395] relu5 -> conv5 (in-place)
I1027 19:35:29.079306 51542 net.cpp:150] Setting up relu5
I1027 19:35:29.079316 51542 net.cpp:157] Top shape: 256 256 13 13 (11075584)
I1027 19:35:29.079319 51542 net.cpp:165] Memory required for data: 2094100480
I1027 19:35:29.079322 51542 layer_factory.hpp:77] Creating layer pool5
I1027 19:35:29.079331 51542 net.cpp:100] Creating Layer pool5
I1027 19:35:29.079334 51542 net.cpp:434] pool5 <- conv5
I1027 19:35:29.079344 51542 net.cpp:408] pool5 -> pool5
I1027 19:35:29.079385 51542 net.cpp:150] Setting up pool5
I1027 19:35:29.079392 51542 net.cpp:157] Top shape: 256 256 6 6 (2359296)
I1027 19:35:29.079396 51542 net.cpp:165] Memory required for data: 2103537664
I1027 19:35:29.079398 51542 layer_factory.hpp:77] Creating layer fc6
I1027 19:35:29.079452 51542 net.cpp:100] Creating Layer fc6
I1027 19:35:29.079459 51542 net.cpp:434] fc6 <- pool5
I1027 19:35:29.079468 51542 net.cpp:408] fc6 -> fc6
I1027 19:35:29.614233 51542 net.cpp:150] Setting up fc6
I1027 19:35:29.614279 51542 net.cpp:157] Top shape: 256 4096 (1048576)
I1027 19:35:29.614284 51542 net.cpp:165] Memory required for data: 2107731968
I1027 19:35:29.614295 51542 layer_factory.hpp:77] Creating layer relu6
I1027 19:35:29.614312 51542 net.cpp:100] Creating Layer relu6
I1027 19:35:29.614317 51542 net.cpp:434] relu6 <- fc6
I1027 19:35:29.614326 51542 net.cpp:395] relu6 -> fc6 (in-place)
I1027 19:35:29.614760 51542 net.cpp:150] Setting up relu6
I1027 19:35:29.614769 51542 net.cpp:157] Top shape: 256 4096 (1048576)
I1027 19:35:29.614773 51542 net.cpp:165] Memory required for data: 2111926272
I1027 19:35:29.614789 51542 layer_factory.hpp:77] Creating layer drop6
I1027 19:35:29.614850 51542 net.cpp:100] Creating Layer drop6
I1027 19:35:29.614857 51542 net.cpp:434] drop6 <- fc6
I1027 19:35:29.614863 51542 net.cpp:395] drop6 -> fc6 (in-place)
I1027 19:35:29.614900 51542 net.cpp:150] Setting up drop6
I1027 19:35:29.614907 51542 net.cpp:157] Top shape: 256 4096 (1048576)
I1027 19:35:29.614910 51542 net.cpp:165] Memory required for data: 2116120576
I1027 19:35:29.614913 51542 layer_factory.hpp:77] Creating layer fc7
I1027 19:35:29.614923 51542 net.cpp:100] Creating Layer fc7
I1027 19:35:29.614928 51542 net.cpp:434] fc7 <- fc6
I1027 19:35:29.614934 51542 net.cpp:408] fc7 -> fc7
I1027 19:35:29.848763 51542 net.cpp:150] Setting up fc7
I1027 19:35:29.848811 51542 net.cpp:157] Top shape: 256 4096 (1048576)
I1027 19:35:29.848815 51542 net.cpp:165] Memory required for data: 2120314880
I1027 19:35:29.848829 51542 layer_factory.hpp:77] Creating layer relu7
I1027 19:35:29.848847 51542 net.cpp:100] Creating Layer relu7
I1027 19:35:29.848852 51542 net.cpp:434] relu7 <- fc7
I1027 19:35:29.848865 51542 net.cpp:395] relu7 -> fc7 (in-place)
I1027 19:35:29.849117 51542 net.cpp:150] Setting up relu7
I1027 19:35:29.849128 51542 net.cpp:157] Top shape: 256 4096 (1048576)
I1027 19:35:29.849130 51542 net.cpp:165] Memory required for data: 2124509184
I1027 19:35:29.849134 51542 layer_factory.hpp:77] Creating layer drop7
I1027 19:35:29.849146 51542 net.cpp:100] Creating Layer drop7
I1027 19:35:29.849150 51542 net.cpp:434] drop7 <- fc7
I1027 19:35:29.849155 51542 net.cpp:395] drop7 -> fc7 (in-place)
I1027 19:35:29.849177 51542 net.cpp:150] Setting up drop7
I1027 19:35:29.849186 51542 net.cpp:157] Top shape: 256 4096 (1048576)
I1027 19:35:29.849230 51542 net.cpp:165] Memory required for data: 2128703488
I1027 19:35:29.849234 51542 layer_factory.hpp:77] Creating layer fc8-new
I1027 19:35:29.849246 51542 net.cpp:100] Creating Layer fc8-new
I1027 19:35:29.849251 51542 net.cpp:434] fc8-new <- fc7
I1027 19:35:29.849259 51542 net.cpp:408] fc8-new -> fc8-new
I1027 19:35:29.878196 51542 net.cpp:150] Setting up fc8-new
I1027 19:35:29.878218 51542 net.cpp:157] Top shape: 256 504 (129024)
I1027 19:35:29.878221 51542 net.cpp:165] Memory required for data: 2129219584
I1027 19:35:29.878227 51542 layer_factory.hpp:77] Creating layer loss
I1027 19:35:29.878288 51542 net.cpp:100] Creating Layer loss
I1027 19:35:29.878295 51542 net.cpp:434] loss <- fc8-new
I1027 19:35:29.878299 51542 net.cpp:434] loss <- label
I1027 19:35:29.878314 51542 net.cpp:408] loss -> loss
I1027 19:35:29.878373 51542 layer_factory.hpp:77] Creating layer loss
…
I1027 19:35:29.882115 51542 net.cpp:322] The NetState phase (1) differed from the phase (0) specified by a rule in layer data
I1027 19:35:29.882740 51542 net.cpp:58] Initializing net from parameters: 
name: "AlexNet"
state {
  phase: TEST
}
layer {
  name: "data"
  type: "Data"
  top: "data"
  top: "label"
  include {
    phase: TEST
  }
  transform_param {
    mirror: false
    crop_size: 227
    mean_file: "examples/imagenet/imagenet_mean.binaryproto"
  }
  data_param {
    source: "/work/03713/harshal1/maverick/vision_proj/data/val_lmdb"
    batch_size: 50
    backend: LMDB
  }
}
layer {
  name: "conv1"
  type: "Convolution"
  bottom: "data"
  top: "conv1"
  param {
    lr_mult: 1
    decay_mult: 1
  }
  param {
    lr_mult: 2
    decay_mult: 0
  }
  convolution_param {
    num_output: 96
    kernel_size: 11
    stride: 4
    weight_filler {
      type: "gaussian"
      std: 0.01
    }
    bias_filler {
      type: "constant"
      value: 0
    }
  }
}
layer {
  name: "relu1"
  type: "ReLU"
  bottom: "conv1"
  top: "conv1"
}
layer {
  name: "norm1"
  type: "LRN"
  bottom: "conv1"
  top: "norm1"
  lrn_param {
    local_size: 5
    alpha: 0.0001
    beta: 0.75
  }
}
layer {
  name: "pool1"
  type: "Pooling"
  bottom: "norm1"
  top: "pool1"
  pooling_param {
    pool: MAX
    kernel_size: 3
    stride: 2
  }
}
layer {
  name: "conv2"
  type: "Convolution"
  bottom: "pool1"
  top: "conv2"
  param {
    lr_mult: 1
    decay_mult: 1
  }
  param {
    lr_mult: 2
    decay_mult: 0
  }
  convolution_param {
    num_output: 256
    pad: 2
    kernel_size: 5
    group: 2
    weight_filler {
      type: "gaussian"
      std: 0.01
    }
    bias_filler {
      type: "constant"
      value: 0.1
    }
  }
}
layer {
  name: "relu2"
  type: "ReLU"
  bottom: "conv2"
  top: "conv2"
}
layer {
  name: "norm2"
  type: "LRN"
  bottom: "conv2"
  top: "norm2"
  lrn_param {
    local_size: 5
    alpha: 0.0001
    beta: 0.75
  }
}
layer {
  name: "pool2"
  type: "Pooling"
  bottom: "norm2"
  top: "pool2"
  pooling_param {
    pool: MAX
    kernel_size: 3
    stride: 2
  }
}
layer {
  name: "conv3"
  type: "Convolution"
  bottom: "pool2"
  top: "conv3"
  param {
    lr_mult: 1
    decay_mult: 1
  }
  param {
    lr_mult: 2
    decay_mult: 0
  }
  convolution_param {
    num_output: 384
    pad: 1
    kernel_size: 3
    weight_filler {
      type: "gaussian"
      std: 0.01
    }
    bias_filler {
      type: "constant"
      value: 0
    }
  }
}
layer {
  name: "relu3"
  type: "ReLU"
  bottom: "conv3"
  top: "conv3"
}
layer {
  name: "conv4"
  type: "Convolution"
  bottom: "conv3"
  top: "conv4"
  param {
    lr_mult: 1
    decay_mult: 1
  }
  param {
    lr_mult: 2
    decay_mult: 0
  }
  convolution_param {
    num_output: 384
    pad: 1
    kernel_size: 3
    group: 2
    weight_filler {
      type: "gaussian"
      std: 0.01
    }
    bias_filler {
      type: "constant"
      value: 0.1
    }
  }
}
layer {
  name: "relu4"
  type: "ReLU"
  bottom: "conv4"
  top: "conv4"
}
layer {
  name: "conv5"
  type: "Convolution"
  bottom: "conv4"
  top: "conv5"
  param {
    lr_mult: 1
    decay_mult: 1
  }
  param {
    lr_mult: 2
    decay_mult: 0
  }
  convolution_param {
    num_output: 256
    pad: 1
    kernel_size: 3
    group: 2
    weight_filler {
      type: "gaussian"
      std: 0.01
    }
    bias_filler {
      type: "constant"
      value: 0.1
    }
  }
}
layer {
  name: "relu5"
  type: "ReLU"
  bottom: "conv5"
  top: "conv5"
}
layer {
  name: "pool5"
  type: "Pooling"
  bottom: "conv5"
  top: "pool5"
  pooling_param {
    pool: MAX
    kernel_size: 3
    stride: 2
  }
}
layer {
  name: "fc6"
  type: "InnerProduct"
  bottom: "pool5"
  top: "fc6"
  param {
    lr_mult: 1
    decay_mult: 1
  }
  param {
    lr_mult: 2
    decay_mult: 0
  }
  inner_product_param {
    num_output: 4096
    weight_filler {
      type: "gaussian"
      std: 0.005
    }
    bias_filler {
      type: "constant"
      value: 0.1
    }
  }
}
layer {
  name: "relu6"
  type: "ReLU"
  bottom: "fc6"
  top: "fc6"
}
layer {
  name: "drop6"
  type: "Dropout"
  bottom: "fc6"
  top: "fc6"
  dropout_param {
    dropout_ratio: 0.5
  }
}
layer {
  name: "fc7"
  type: "InnerProduct"
  bottom: "fc6"
  top: "fc7"
  param {
    lr_mult: 1
    decay_mult: 1
  }
  param {
    lr_mult: 2
    decay_mult: 0
  }
  inner_product_param {
    num_output: 4096
    weight_filler {
      type: "gaussian"
      std: 0.005
    }
    bias_filler {
      type: "constant"
      value: 0.1
    }
  }
}
layer {
  name: "relu7"
  type: "ReLU"
  bottom: "fc7"
  top: "fc7"
}
layer {
  name: "drop7"
  type: "Dropout"
  bottom: "fc7"
  top: "fc7"
  dropout_param {
    dropout_ratio: 0.5
  }
}
layer {
  name: "fc8-new"
  type: "InnerProduct"
  bottom: "fc7"
  top: "fc8-new"
  param {
    lr_mult: 1
    decay_mult: 1
  }
  param {
    lr_mult: 2
    decay_mult: 0
  }
  inner_product_param {
    num_output: 504
    weight_filler {
      type: "gaussian"
      std: 0.01
    }
    bias_filler {
      type: "constant"
      value: 0
    }
  }
}
layer {
  name: "precision@1"
  type: "Accuracy"
  bottom: "fc8-new"
  bottom: "label"
  top: "precision@1"
  include {
    phase: TEST
  }
}
layer {
  name: "precision@5"
  type: "Accuracy"
  bottom: "fc8-new"
  bottom: "label"
  top: "precision@5"
  include {
    phase: TEST
  }
  accuracy_param {
    top_k: 5
  }
}
layer {
  name: "loss"
  type: "SoftmaxWithLoss"
  bottom: "fc8-new"
  bottom: "label"
  top: "loss"
}
I1027 19:35:29.882921 51542 layer_factory.hpp:77] Creating layer data
I1027 19:35:29.883050 51542 net.cpp:100] Creating Layer data
I1027 19:35:29.883080 51542 net.cpp:408] data -> data
I1027 19:35:29.883090 51542 net.cpp:408] data -> label
I1027 19:35:29.883100 51542 data_transformer.cpp:25] Loading mean file from: examples/imagenet/imagenet_mean.binaryproto
I1027 19:35:29.894004 51655 db_lmdb.cpp:35] Opened lmdb /work/03713/harshal1/maverick/vision_proj/data/val_lmdb
I1027 19:35:29.895189 51542 data_layer.cpp:41] output data size: 50,3,227,227
I1027 19:35:29.953909 51542 net.cpp:150] Setting up data
I1027 19:35:29.953959 51542 net.cpp:157] Top shape: 50 3 227 227 (7729350)
I1027 19:35:29.953966 51542 net.cpp:157] Top shape: 50 (50)
I1027 19:35:29.953969 51542 net.cpp:165] Memory required for data: 30917600
I1027 19:35:29.953979 51542 layer_factory.hpp:77] Creating layer label_data_1_split
I1027 19:35:29.954083 51542 net.cpp:100] Creating Layer label_data_1_split
I1027 19:35:29.954092 51542 net.cpp:434] label_data_1_split <- label
I1027 19:35:29.954102 51542 net.cpp:408] label_data_1_split -> label_data_1_split_0
I1027 19:35:29.954115 51542 net.cpp:408] label_data_1_split -> label_data_1_split_1
I1027 19:35:29.954123 51542 net.cpp:408] label_data_1_split -> label_data_1_split_2
I1027 19:35:29.954213 51542 net.cpp:150] Setting up label_data_1_split
I1027 19:35:29.954224 51542 net.cpp:157] Top shape: 50 (50)
I1027 19:35:29.954229 51542 net.cpp:157] Top shape: 50 (50)
I1027 19:35:29.954233 51542 net.cpp:157] Top shape: 50 (50)
I1027 19:35:29.954236 51542 net.cpp:165] Memory required for data: 30918200
I1027 19:35:29.954241 51542 layer_factory.hpp:77] Creating layer conv1
I1027 19:35:29.954259 51542 net.cpp:100] Creating Layer conv1
I1027 19:35:29.954264 51542 net.cpp:434] conv1 <- data
I1027 19:35:29.954272 51542 net.cpp:408] conv1 -> conv1
I1027 19:35:29.958690 51542 net.cpp:150] Setting up conv1
I1027 19:35:29.958703 51542 net.cpp:157] Top shape: 50 96 55 55 (14520000)
I1027 19:35:29.958719 51542 net.cpp:165] Memory required for data: 88998200
I1027 19:35:29.958731 51542 layer_factory.hpp:77] Creating layer relu1
I1027 19:35:29.958740 51542 net.cpp:100] Creating Layer relu1
I1027 19:35:29.958745 51542 net.cpp:434] relu1 <- conv1
I1027 19:35:29.958750 51542 net.cpp:395] relu1 -> conv1 (in-place)
I1027 19:35:29.958904 51542 net.cpp:150] Setting up relu1
I1027 19:35:29.958915 51542 net.cpp:157] Top shape: 50 96 55 55 (14520000)
I1027 19:35:29.958919 51542 net.cpp:165] Memory required for data: 147078200
I1027 19:35:29.958922 51542 layer_factory.hpp:77] Creating layer norm1
I1027 19:35:29.958932 51542 net.cpp:100] Creating Layer norm1
I1027 19:35:29.958936 51542 net.cpp:434] norm1 <- conv1
I1027 19:35:29.958943 51542 net.cpp:408] norm1 -> norm1
I1027 19:35:29.959254 51542 net.cpp:150] Setting up norm1
I1027 19:35:29.959265 51542 net.cpp:157] Top shape: 50 96 55 55 (14520000)
I1027 19:35:29.959270 51542 net.cpp:165] Memory required for data: 205158200
I1027 19:35:29.959273 51542 layer_factory.hpp:77] Creating layer pool1
I1027 19:35:29.959282 51542 net.cpp:100] Creating Layer pool1
I1027 19:35:29.959286 51542 net.cpp:434] pool1 <- norm1
I1027 19:35:29.959293 51542 net.cpp:408] pool1 -> pool1
I1027 19:35:29.959336 51542 net.cpp:150] Setting up pool1
I1027 19:35:29.959343 51542 net.cpp:157] Top shape: 50 96 27 27 (3499200)
I1027 19:35:29.959347 51542 net.cpp:165] Memory required for data: 219155000
I1027 19:35:29.959350 51542 layer_factory.hpp:77] Creating layer conv2
I1027 19:35:29.959395 51542 net.cpp:100] Creating Layer conv2
I1027 19:35:29.959399 51542 net.cpp:434] conv2 <- pool1
I1027 19:35:29.959408 51542 net.cpp:408] conv2 -> conv2
I1027 19:35:29.965623 51542 net.cpp:150] Setting up conv2
I1027 19:35:29.965649 51542 net.cpp:157] Top shape: 50 256 27 27 (9331200)
I1027 19:35:29.965653 51542 net.cpp:165] Memory required for data: 256479800
I1027 19:35:29.965662 51542 layer_factory.hpp:77] Creating layer relu2
I1027 19:35:29.965670 51542 net.cpp:100] Creating Layer relu2
I1027 19:35:29.965674 51542 net.cpp:434] relu2 <- conv2
I1027 19:35:29.965680 51542 net.cpp:395] relu2 -> conv2 (in-place)
I1027 19:35:29.965960 51542 net.cpp:150] Setting up relu2
I1027 19:35:29.965975 51542 net.cpp:157] Top shape: 50 256 27 27 (9331200)
I1027 19:35:29.965978 51542 net.cpp:165] Memory required for data: 293804600
I1027 19:35:29.965982 51542 layer_factory.hpp:77] Creating layer norm2
I1027 19:35:29.965992 51542 net.cpp:100] Creating Layer norm2
I1027 19:35:29.965996 51542 net.cpp:434] norm2 <- conv2
I1027 19:35:29.966003 51542 net.cpp:408] norm2 -> norm2
I1027 19:35:29.966290 51542 net.cpp:150] Setting up norm2
I1027 19:35:29.966302 51542 net.cpp:157] Top shape: 50 256 27 27 (9331200)
I1027 19:35:29.966306 51542 net.cpp:165] Memory required for data: 331129400
I1027 19:35:29.966310 51542 layer_factory.hpp:77] Creating layer pool2
I1027 19:35:29.966318 51542 net.cpp:100] Creating Layer pool2
I1027 19:35:29.966322 51542 net.cpp:434] pool2 <- norm2
I1027 19:35:29.966330 51542 net.cpp:408] pool2 -> pool2
I1027 19:35:29.966368 51542 net.cpp:150] Setting up pool2
I1027 19:35:29.966375 51542 net.cpp:157] Top shape: 50 256 13 13 (2163200)
I1027 19:35:29.966378 51542 net.cpp:165] Memory required for data: 339782200
I1027 19:35:29.966382 51542 layer_factory.hpp:77] Creating layer conv3
I1027 19:35:29.966406 51542 net.cpp:100] Creating Layer conv3
I1027 19:35:29.966410 51542 net.cpp:434] conv3 <- pool2
I1027 19:35:29.966418 51542 net.cpp:408] conv3 -> conv3
I1027 19:35:29.981052 51542 net.cpp:150] Setting up conv3
I1027 19:35:29.981094 51542 net.cpp:157] Top shape: 50 384 13 13 (3244800)
I1027 19:35:29.981098 51542 net.cpp:165] Memory required for data: 352761400
I1027 19:35:29.981114 51542 layer_factory.hpp:77] Creating layer relu3
I1027 19:35:29.981127 51542 net.cpp:100] Creating Layer relu3
I1027 19:35:29.981132 51542 net.cpp:434] relu3 <- conv3
I1027 19:35:29.981142 51542 net.cpp:395] relu3 -> conv3 (in-place)
I1027 19:35:29.981407 51542 net.cpp:150] Setting up relu3
I1027 19:35:29.981420 51542 net.cpp:157] Top shape: 50 384 13 13 (3244800)
I1027 19:35:29.981422 51542 net.cpp:165] Memory required for data: 365740600
I1027 19:35:29.981426 51542 layer_factory.hpp:77] Creating layer conv4
I1027 19:35:29.981441 51542 net.cpp:100] Creating Layer conv4
I1027 19:35:29.981446 51542 net.cpp:434] conv4 <- conv3
I1027 19:35:29.981453 51542 net.cpp:408] conv4 -> conv4
I1027 19:35:29.993212 51542 net.cpp:150] Setting up conv4
I1027 19:35:29.993227 51542 net.cpp:157] Top shape: 50 384 13 13 (3244800)
I1027 19:35:29.993242 51542 net.cpp:165] Memory required for data: 378719800
I1027 19:35:29.993249 51542 layer_factory.hpp:77] Creating layer relu4
I1027 19:35:29.993258 51542 net.cpp:100] Creating Layer relu4
I1027 19:35:29.993263 51542 net.cpp:434] relu4 <- conv4
I1027 19:35:29.993268 51542 net.cpp:395] relu4 -> conv4 (in-place)
I1027 19:35:29.993532 51542 net.cpp:150] Setting up relu4
I1027 19:35:29.993543 51542 net.cpp:157] Top shape: 50 384 13 13 (3244800)
I1027 19:35:29.993546 51542 net.cpp:165] Memory required for data: 391699000
I1027 19:35:29.993551 51542 layer_factory.hpp:77] Creating layer conv5
I1027 19:35:29.993562 51542 net.cpp:100] Creating Layer conv5
I1027 19:35:29.993566 51542 net.cpp:434] conv5 <- conv4
I1027 19:35:29.993574 51542 net.cpp:408] conv5 -> conv5
I1027 19:35:30.001987 51542 net.cpp:150] Setting up conv5
I1027 19:35:30.002017 51542 net.cpp:157] Top shape: 50 256 13 13 (2163200)
I1027 19:35:30.002020 51542 net.cpp:165] Memory required for data: 400351800
I1027 19:35:30.002032 51542 layer_factory.hpp:77] Creating layer relu5
I1027 19:35:30.002074 51542 net.cpp:100] Creating Layer relu5
I1027 19:35:30.002079 51542 net.cpp:434] relu5 <- conv5
I1027 19:35:30.002085 51542 net.cpp:395] relu5 -> conv5 (in-place)
I1027 19:35:30.002239 51542 net.cpp:150] Setting up relu5
I1027 19:35:30.002249 51542 net.cpp:157] Top shape: 50 256 13 13 (2163200)
I1027 19:35:30.002254 51542 net.cpp:165] Memory required for data: 409004600
I1027 19:35:30.002256 51542 layer_factory.hpp:77] Creating layer pool5
I1027 19:35:30.002269 51542 net.cpp:100] Creating Layer pool5
I1027 19:35:30.002272 51542 net.cpp:434] pool5 <- conv5
I1027 19:35:30.002279 51542 net.cpp:408] pool5 -> pool5
I1027 19:35:30.002326 51542 net.cpp:150] Setting up pool5
I1027 19:35:30.002336 51542 net.cpp:157] Top shape: 50 256 6 6 (460800)
I1027 19:35:30.002341 51542 net.cpp:165] Memory required for data: 410847800
I1027 19:35:30.002343 51542 layer_factory.hpp:77] Creating layer fc6
I1027 19:35:30.002354 51542 net.cpp:100] Creating Layer fc6
I1027 19:35:30.002358 51542 net.cpp:434] fc6 <- pool5
I1027 19:35:30.002365 51542 net.cpp:408] fc6 -> fc6
I1027 19:35:30.557708 51542 net.cpp:150] Setting up fc6
I1027 19:35:30.557760 51542 net.cpp:157] Top shape: 50 4096 (204800)
I1027 19:35:30.557765 51542 net.cpp:165] Memory required for data: 411667000
I1027 19:35:30.557776 51542 layer_factory.hpp:77] Creating layer relu6
I1027 19:35:30.557795 51542 net.cpp:100] Creating Layer relu6
I1027 19:35:30.557801 51542 net.cpp:434] relu6 <- fc6
I1027 19:35:30.557811 51542 net.cpp:395] relu6 -> fc6 (in-place)
I1027 19:35:30.558347 51542 net.cpp:150] Setting up relu6
I1027 19:35:30.558358 51542 net.cpp:157] Top shape: 50 4096 (204800)
I1027 19:35:30.558374 51542 net.cpp:165] Memory required for data: 412486200
I1027 19:35:30.558377 51542 layer_factory.hpp:77] Creating layer drop6
I1027 19:35:30.558388 51542 net.cpp:100] Creating Layer drop6
I1027 19:35:30.558393 51542 net.cpp:434] drop6 <- fc6
I1027 19:35:30.558398 51542 net.cpp:395] drop6 -> fc6 (in-place)
I1027 19:35:30.558431 51542 net.cpp:150] Setting up drop6
I1027 19:35:30.558437 51542 net.cpp:157] Top shape: 50 4096 (204800)
I1027 19:35:30.558440 51542 net.cpp:165] Memory required for data: 413305400
I1027 19:35:30.558455 51542 layer_factory.hpp:77] Creating layer fc7
I1027 19:35:30.558468 51542 net.cpp:100] Creating Layer fc7
I1027 19:35:30.558471 51542 net.cpp:434] fc7 <- fc6
I1027 19:35:30.558478 51542 net.cpp:408] fc7 -> fc7
I1027 19:35:30.793973 51542 net.cpp:150] Setting up fc7
I1027 19:35:30.794026 51542 net.cpp:157] Top shape: 50 4096 (204800)
I1027 19:35:30.794031 51542 net.cpp:165] Memory required for data: 414124600
I1027 19:35:30.794044 51542 layer_factory.hpp:77] Creating layer relu7
I1027 19:35:30.794061 51542 net.cpp:100] Creating Layer relu7
I1027 19:35:30.794067 51542 net.cpp:434] relu7 <- fc7
I1027 19:35:30.794078 51542 net.cpp:395] relu7 -> fc7 (in-place)
I1027 19:35:30.794307 51542 net.cpp:150] Setting up relu7
I1027 19:35:30.794317 51542 net.cpp:157] Top shape: 50 4096 (204800)
I1027 19:35:30.794320 51542 net.cpp:165] Memory required for data: 414943800
I1027 19:35:30.794323 51542 layer_factory.hpp:77] Creating layer drop7
I1027 19:35:30.794333 51542 net.cpp:100] Creating Layer drop7
I1027 19:35:30.794337 51542 net.cpp:434] drop7 <- fc7
I1027 19:35:30.794342 51542 net.cpp:395] drop7 -> fc7 (in-place)
I1027 19:35:30.794373 51542 net.cpp:150] Setting up drop7
I1027 19:35:30.794380 51542 net.cpp:157] Top shape: 50 4096 (204800)
I1027 19:35:30.794384 51542 net.cpp:165] Memory required for data: 415763000
I1027 19:35:30.794386 51542 layer_factory.hpp:77] Creating layer fc8-new
I1027 19:35:30.794399 51542 net.cpp:100] Creating Layer fc8-new
I1027 19:35:30.794402 51542 net.cpp:434] fc8-new <- fc7
I1027 19:35:30.794409 51542 net.cpp:408] fc8-new -> fc8-new
I1027 19:35:30.823354 51542 net.cpp:150] Setting up fc8-new
I1027 19:35:30.823364 51542 net.cpp:157] Top shape: 50 504 (25200)
I1027 19:35:30.823380 51542 net.cpp:165] Memory required for data: 415863800
I1027 19:35:30.823386 51542 layer_factory.hpp:77] Creating layer fc8-new_fc8-new_0_split
I1027 19:35:30.823422 51542 net.cpp:100] Creating Layer fc8-new_fc8-new_0_split
I1027 19:35:30.823426 51542 net.cpp:434] fc8-new_fc8-new_0_split <- fc8-new
I1027 19:35:30.823433 51542 net.cpp:408] fc8-new_fc8-new_0_split -> fc8-new_fc8-new_0_split_0
I1027 19:35:30.823441 51542 net.cpp:408] fc8-new_fc8-new_0_split -> fc8-new_fc8-new_0_split_1
I1027 19:35:30.823446 51542 net.cpp:408] fc8-new_fc8-new_0_split -> fc8-new_fc8-new_0_split_2
I1027 19:35:30.823494 51542 net.cpp:150] Setting up fc8-new_fc8-new_0_split
I1027 19:35:30.823501 51542 net.cpp:157] Top shape: 50 504 (25200)
I1027 19:35:30.823505 51542 net.cpp:157] Top shape: 50 504 (25200)
I1027 19:35:30.823508 51542 net.cpp:157] Top shape: 50 504 (25200)
I1027 19:35:30.823511 51542 net.cpp:165] Memory required for data: 416166200
I1027 19:35:30.823514 51542 layer_factory.hpp:77] Creating layer precision@1
I1027 19:35:30.823576 51542 net.cpp:100] Creating Layer precision@1
I1027 19:35:30.823585 51542 net.cpp:434] precision@1 <- fc8-new_fc8-new_0_split_0
I1027 19:35:30.823590 51542 net.cpp:434] precision@1 <- label_data_1_split_0
I1027 19:35:30.823596 51542 net.cpp:408] precision@1 -> precision@1
…
